assets/rslrl_ppo_3B_policy.pt (torch, 775648 bytes, 8 tensors)

weight f4 [512, 48]
000000 d5 4f 43 3e bf d0 ea bd 91 d7 43 3f df d7 d2 3d
       0.19073422 -0.114655964 0.76500803 0.102950804
000010 57 51 02 3e 98 6e 8f be 4a 92 11 3f b3 19 56 bf
       0.12726341 -0.28014064 0.56863844 -0.83632964
000020 44 15 5a 3d 4a 67 7e bd c1 6c 5f 3c 14 5e 5a 3d
       0.053242937 -0.062110223 0.013636769 0.053312376
000030 eb 11 4c 3f b4 9e be 3e 6b a1 14 3f c9 a9 cc 3d
       0.7971484 0.37230456 0.58058804 0.099933214
000040 8a 0f 2d 3f fb bc 2f be 93 9c 0c 3e b0 96 58 3d
       0.67601836 -0.17161934 0.13731603 0.05287808
000050 80 2d b5 3e 9d 24 ca 3e 4f ad 1b bd 11 1b e1 3e
       0.35386276 0.3948106 -0.038007077 0.43965963
000060 aa 6b 8f 3d ac dd 73 3c 5a 22 6f 3d 6e 63 32 bd
       0.07002957 0.014884394 0.05838237 -0.043551855
000070 d0 08 07 3d 94 25 10 bd 4b 14 96 bd 23 03 2a bd
       0.03296739 -0.035192087 -0.07328089 -0.041506898
000080 61 af a9 bc e9 64 83 bd 09 9e dc bd 22 eb 41 bb
       -0.02071351 -0.064157315 -0.1077233 -0.0029589613
000090 89 2a 35 bd d6 f5 47 bd 01 87 9a 3d fa 34 b1 3d
       -0.044230018 -0.04881843 0.07545281 0.086526826
0000a0 fe f6 28 be af 39 f3 3b af 12 50 3d 50 d3 3e bd
       -0.1650047 0.007422648 0.050799068 -0.046588242
0000b0 42 da c1 bc 7c 15 20 3e 2d 87 19 3e 5e b4 29 bd
       -0.023663644 0.15633196 0.14992972 -0.041431777
0000c0 8e 6f 59 3e c4 15 10 3d e3 54 14 3f f0 eb 62 bd
       0.21233961 0.035177007 0.57942027 -0.05540079
0000d0 7c 8b 94 3e 36 4d a5 be 8c 33 fc be b2 7c c9 3e
       0.29012668 -0.3228547 -0.49258077 0.39352947
0000e0 b0 01 e0 3d 79 0c 79 bd ad b1 a4 3d 3e 47 17 3e
       0.10937822 -0.06080291 0.080417015 0.1477327
0000f0 49 4d 29 3e 7c 3a 5f 3e 87 7d 82 bf 3e 4e 7e be
       0.16533388 0.21799654 -1.0194558 -0.24834535
000100 e9 b7 ee be d3 ab f9 bd 52 f6 dd bd 24 d9 39 3d
       -0.46624687 -0.12190976 -0.108379975 0.045373097
000110 89 c0 b3 bd 11 43 91 3e bf ce e3 3e a0 f2 4d bd
       -0.087769575 0.2837148 0.44493672 -0.050280213
000120 d7 d7 66 bc 2c 91 b2 bb b1 8c 9d 3d 1a 67 60 bd
       -0.014089546 -0.0054494347 0.076928504 -0.054785825
000130 fb f7 d6 bd c0 c3 e8 bd ae a6 17 3e 8d 9e 9d 3d
       -0.10496517 -0.11365461 0.14809677 0.07696257
000140 00 e3 79 bd 2f 31 0e bd 2c 1a 6d 3d 1f 4e cf 3c
       -0.0610075 -0.034714874 0.057886288 0.025305806
000150 8d 8c 24 be bc 7e 12 be 76 78 f1 bc 11 37 c5 bd
       -0.16069241 -0.14306158 -0.029476386 -0.09629644
000160 5d 1a 15 bd 56 aa 1b 3d fd ed e0 3d bb 94 8b 3d
       -0.036402095 0.038004242 0.10982893 0.068154775
000170 ae 2a ca bc c3 10 7f bc de d7 59 3b 90 e7 eb 3c
       -0.024678554 -0.015567961 0.003324024 0.028796941
000180 23 30 89 3e bc f1 3d bf 75 1f 1f 3c a7 ed 3b bd
       0.26794538 -0.7419698 0.00971209 -0.04588094
000190 10 97 54 be 20 2d 68 3e f8 bd 20 be 8e f2 be bf
       -0.20760751 0.22673464 -0.15697467 -1.4917772
0001a0 45 f0 25 3e f2 0e 6e 3d 0e aa dc 3e 43 4b 2b 3e
       0.16204937 0.05811972 0.4309849 0.16727929
0001b0 f4 f2 17 3f 2e f8 54 3e bd 41 8a 3e fd 3f c4 be
       0.5935509 0.20797798 0.2700328 -0.3833007
0001c0 02 44 c6 3e e0 84 59 3e 2c 35 21 be fe 9b 27 3f
       0.3872376 0.21242094 -0.1574294 0.654724
0001d0 eb d7 ad bb d9 b6 b0 bb e0 28 68 3e 9d c8 06 be
       -0.0053052804 -0.005392891 0.22671843 -0.13162465
0001e0 4a 23 89 3d f5 f2 be bc d5 86 67 bd b1 7e 37 bd
       0.06696184 -0.02330921 -0.05652507 -0.044798557
0001f0 07 60 a6 bc a6 c1 2d 3d a6 0b 60 bd 89 05 27 3d
       -0.020309461 0.042421006 -0.05469861 0.040776763
000200 54 90 33 3d 39 c5 f1 3b 36 f3 a2 3c 6f 95 15 bc
       0.043838814 0.007378247 0.019891363 -0.009129866
000210 e8 fa 3e bd e5 e9 de 3d fb 79 dd 3d e6 71 be 3d
       -0.046626 0.108844556 0.108142816 0.09299068
000220 7f fb 01 3d 55 40 a6 3d 54 27 a2 3d 01 c2 1d 3e
       0.031733986 0.08117739 0.079176575 0.15406038
000230 31 a7 a8 3b 66 ce 03 bd c5 1f 19 bd a8 3e b6 bc
       0.005146884 -0.03217926 -0.037383813 -0.022246674
000240 3d e2 f3 be d9 a9 aa 3d 79 51 b6 3e 68 43 5f 3d
       -0.47633544 0.08333177 0.35609034 0.054507643
000250 4f 8b 7f be 93 be 79 be 0e 0e b6 bf b6 87 a7 bc
       -0.24955486 -0.24389105 -1.4223039 -0.020450454
000260 54 ad 29 3e 81 45 71 3e 61 77 9b 3d b7 54 22 3e
       0.16570026 0.2356167 0.07591129 0.15852629
000270 11 8c 06 bf 17 99 e0 3e d8 56 46 3f 39 31 85 be
       -0.52557474 0.43866798 0.77476263 -0.26014116
000280 f0 d7 bd be 64 c9 6a be 01 27 99 be f6 56 2a be
       -0.3707881 -0.22928387 -0.2991257 -0.16634735
000290 cb 4a e2 be cf e5 9e be e5 9d 07 bf 71 25 5e be
       -0.44197688 -0.31034705 -0.529753 -0.2169397
0002a0 c2 2d 91 3d f2 9c 49 3d f1 c6 a0 bd 88 bb b7 3d
       0.07088806 0.04922194 -0.07850445 0.089713156
0002b0 a3 ff 5b ba e1 e5 2b 3e ab 15 dc bd ff 1e c1 3d
       -0.000839228 0.1678691 -0.1074632 0.0942974
0002c0 a4 b5 27 be 27 75 55 3c 12 45 00 3d 7b 17 41 3d
       -0.16377884 0.01302842 0.03131587 0.047141533
0002d0 51 da 05 bd 5f 3d 11 bd 52 12 3c 3d 60 e2 6e bd
       -0.032678906 -0.03545892 0.04591591 -0.058321357
0002e0 3b 08 0a 3e a9 fa fb bd fc 4b 45 bc e9 7b 12 3e
       0.13479702 -0.12303669 -0.012042042 0.1430508
0002f0 70 81 16 3d 1c 1f 1c 3d 39 12 cd 3d 4d 8b 41 3e
       0.036744535 0.038115606 0.10013241 0.18900795
000300 9e c1 3b bd b0 e7 63 bd 50 4a 56 bc ea 44 8c bd
       -0.045838945 -0.055640876 -0.013079241 -0.06849082
000310 d9 dc 4b 3e 82 01 c4 bd 34 28 89 3e e7 52 9c 3f
       0.19908465 -0.095706 0.26788485 1.22128
000320 7a e1 f6 bc f3 f6 b7 3d c4 a9 b0 3c b1 16 27 3e
       -0.030136812 0.08982649 0.021565326 0.1631725
000330 a8 bb 28 bf af ca 5b 3c a0 d2 4a bf a7 7f 8d be
       -0.6591134 0.013415023 -0.7922764 -0.27636454
000340 5a 68 f2 be 90 b3 96 be 0b 42 ae 3d fa 66 2e 3d
       -0.4734524 -0.2943387 0.085086904 0.042578675
000350 6a 12 09 3f 1e f6 44 3f 4c 0a 66 3e d3 ac 69 3d
       0.5354372 0.76938045 0.22464865 0.057049584
000360 5e 04 4e bd 35 f3 ed bc ae 32 6d 3c 99 02 8f bd
       -0.050297134 -0.029046634 0.014477415 -0.06982917
000370 8f e1 29 bc 55 3f 97 bd fb 9d 1a bc 12 04 4f b9
       -0.010368719 -0.073851265 -0.00943708 -0.00019742575
000380 fa a8 96 3d b0 ad a9 bc 15 20 52 3c 6e e2 87 bd
       0.073564485 -0.020712703 0.012825032 -0.06634985
000390 3c e8 08 be 79 92 da 3d 73 f0 9c 3c e1 8a bc 3d
       -0.1336984 0.10672469 0.019157624 0.092061765
0003a0 5e 24 20 3d 5c 67 22 be ec 09 4d 3e b0 44 14 3d
       0.039097182 -0.15859741 0.20023316 0.036198318
0003b0 22 7e ac 3d 23 01 b1 bd 53 04 5b bd 43 b4 28 be
       0.084224954 -0.08642795 -0.05347092 -0.16475014
0003c0 f7 f2 dc 3e a3 a0 d0 be d3 fe 16 3e 93 b7 0c 3b
       0.43154117 -0.40747556 0.14745645 0.0021471723
0003d0 6f f4 1c 3c 96 7d 23 be 0c e6 3d 3e a0 57 2a bf
       0.009579762 -0.15965876 0.18544787 -0.66539955
0003e0 14 ec f5 bd 21 3d b9 be 49 b9 e7 3e 35 85 17 3e
       -0.12007919 -0.3617945 0.4525855 0.14796908
0003f0 22 11 33 3e c1 30 af 3e 1b ac 33 bc 00 0e 89 3e
       0.17487004 0.34216884 -0.010966326 0.26768494

bias f4 [512]
000000 41 5d 95 bd 59 39 83 3d 03 85 d7 bd 95 72 ce bc
       -0.072931774 0.064074226 -0.10523417 -0.025201121
000010 73 d4 40 3d e4 ad c8 3d 0f e4 29 be f1 b0 c3 bd
       0.047077607 0.09798792 -0.16590904 -0.09555233
000020 84 a9 fc 3d ed de 7d bd f1 fe 9f 3d 37 3e 6e bd
       0.1233702 -0.061980177 0.07812298 -0.0581648
000030 d9 ba a4 bd b6 36 9b bb 1b f0 89 bd 05 65 f5 3d
       -0.08043451 -0.0047367467 -0.067352496 0.119821586
000040 fe 17 17 be 04 72 32 be 95 17 ba bc c9 ee ef 3c
       -0.14755246 -0.17426306 -0.022716323 0.029288666
000050 5b f1 87 3e 79 1b 87 be c6 9f 32 be 79 52 d8 3d
       0.26551327 -0.26388147 -0.17443761 0.105626054
000060 42 f5 a1 bd 5d 35 88 3d 8a 7f 37 be 56 7f 14 be
       -0.07908107 0.06650803 -0.17919746 -0.145017
000070 2e ac 19 3d f0 21 1a 3e cd bf 32 bd fa cc c4 3d
       0.03751772 0.15052009 -0.043639947 0.09609409
000080 16 58 08 3e 91 3c 32 3d 21 d0 39 3e b2 c3 1d 3d
       0.13314852 0.043514792 0.18145801 0.038516708
000090 e5 05 8c bc 5d ef fd bd 62 0e bc bd 0a 3d 26 3e
       -0.017092654 -0.123991705 -0.09182431 0.16234222
0000a0 ac 51 ab bc cc 33 18 be 51 2c ca bd dc ce 4e 3c
       -0.020912968 -0.14863509 -0.09871734 0.012622561
0000b0 52 79 c4 3d cd 42 65 bd cd 16 b1 3d e7 d6 6c 3c
       0.095934525 -0.05597191 0.08646927 0.014455534
0000c0 55 44 88 bd 1a 84 1d 3d 5c a8 38 ba 6f d1 cf 3d
       -0.06653658 0.03845606 -0.00070441305 0.10147368
0000d0 2a bc 25 3e b6 b2 2f 3c 3d 50 f9 bc d9 90 27 3e
       0.1618506 0.01072376 -0.030433768 0.16363849
0000e0 66 8a 06 bd fc 37 eb bd 63 32 c4 bc fc 8a 01 3e
       -0.03284683 -0.114852875 -0.023949808 0.12650675
0000f0 cb b7 2d 3e 98 f2 b6 3d 1f 6e ad bd 6d 1a 5b 3e
       0.16964643 0.0893299 -0.084682696 0.213968
000100 27 10 26 bc f3 ac 05 3e 9d 49 52 3c 0e 7c c6 3d
       -0.010135687 0.13054256 0.012834934 0.0969163
000110 dd 29 db bd 99 ef 86 be 5a 1c 2c 3d ac 73 41 3d
       -0.10701344 -0.26354674 0.042019226 0.047229454
000120 8a f1 45 be a8 f1 83 bd 5b 6a 43 3d 40 90 51 3d
       -0.19330421 -0.06442577 0.04770885 0.05116296
000130 71 1f 04 3e 03 e7 36 bd 29 1b 42 bd d1 8b 22 3e
       0.12902619 -0.044653904 -0.047389183 0.15873648
000140 94 9d 5a 3d af d4 77 be 16 07 74 bd b0 cd af 3d
       0.053372934 -0.24202226 -0.05957707 0.08584154
000150 ad 2f 8e 3d 0a 0e b4 3d 6d 97 68 be d2 dd 2a 3e
       0.06942687 0.0879174 -0.22714014 0.1668618
000160 58 67 e2 bd 05 dc 4f 3e 67 71 46 3e 73 aa 5c 3d
       -0.110548675 0.20298775 0.19379197 0.05387349
000170 df 18 70 3d 1e bb b3 3d 5c bd 03 bd 0f 75 3b 3e
       0.05861747 0.08775924 -0.03216301 0.18306373
000180 94 36 df bd f3 bd 1d be b7 09 1b 3e 92 ba 56 bd
       -0.10899082 -0.15404491 0.15140425 -0.05242402
000190 1e 78 08 be 2f 74 87 bc 33 19 9c 3d 42 f8 98 bd
       -0.13327071 -0.016534893 0.07621994 -0.074692264
0001a0 ef 64 53 be ac 45 16 be 90 d0 46 be 64 ca 01 3e
       -0.20643972 -0.14675015 -0.19415498 0.12674862
0001b0 98 c5 2e be d6 28 d1 bd df eb 1c 3e 33 bd 0d be
       -0.17067564 -0.10212867 0.15324353 -0.13841705
0001c0 ba d2 23 3e 20 94 9e bd 6d f8 12 bd f0 d1 a4 bd
       0.15998355 -0.07743096 -0.03588145 -0.08047855
0001d0 fa 69 79 3e 21 53 58 be 3b 99 6b bd be d1 83 be
       0.24356833 -0.21125461 -0.05751918 -0.25745958
0001e0 95 62 16 be dc 4b 5e 3d 94 37 00 3e 28 0e 9e bc
       -0.14686044 0.054271564 0.12521201 -0.01929386
0001f0 73 17 74 be 7a d9 8e 3d 4d 21 8a 3d 52 ad 6e bd
       -0.2383707 0.06975074 0.06744633 -0.05827076
000200 fd f2 0f 3e 03 93 3d bd ec 94 20 3e 38 97 8a bb
       0.14057536 -0.04628278 0.15681809 -0.0042294525
000210 4c 21 8a 3b ee 29 e7 3d fc 5f 98 bd be d2 ec bb
       0.004215395 0.11287294 -0.074401826 -0.007227271
000220 87 60 c0 3c 11 f9 2b be 78 1c 15 be e6 e6 b7 bb
       0.023483528 -0.1679423 -0.14561641 -0.005612242
000230 0a 41 e6 bd 1c 6d 0a bd 48 13 70 3e eb 08 33 be
       -0.11242874 -0.03379546 0.23444855 -0.1748387
000240 47 08 27 3d d4 01 2d 3c af cc 39 be 62 b4 d9 bc
       0.04077938 0.010559518 -0.18144487 -0.026575271
000250 8a 0a 9e be 9c 58 f3 3d 36 4e 9f bd 70 07 20 bd
       -0.30867416 0.11882135 -0.077785894 -0.039069593
000260 80 d8 47 3d a3 36 96 3b 75 a5 93 3d 0b e1 1c 3c
       0.048790455 0.00458415 0.07209293 0.009575139
000270 d7 28 73 bb a1 c7 2f 3e e7 de 0b 3e 88 25 2a 3a
       -0.00371032 0.17165996 0.13659249 0.0006490578
000280 f8 7c ed bc d8 0e e9 3d 70 39 38 3d 52 ee 8e bd
       -0.028990254 0.11379784 0.04497665 -0.0697905
000290 b0 83 41 3c 23 9a cb bc e6 80 29 be 9a 96 35 bb
       0.011811182 -0.024853772 -0.16553077 -0.0027708174
0002a0 ee 3a 3a be 0f be ae bd 39 05 8d be 9a 9b 14 be
       -0.18186542 -0.085323445 -0.27543047 -0.14512482
0002b0 35 9d 33 be 68 61 ce bd 3a 69 18 bc fa 70 1e be
       -0.17540438 -0.100771725 -0.009302432 -0.15472785
0002c0 b1 b3 84 bc 08 07 c2 3d 36 f3 d4 bd 82 4b d6 bc
       -0.016198965 0.09473997 -0.10397951 -0.026159052
0002d0 9f 63 33 3c 46 89 03 be b3 e7 27 bb 3d 4e cc bd
       0.0109490445 -0.12845334 -0.0025620281 -0.0997586
0002e0 fd 4c a7 bd d5 7a fd bd 3c ba dd bd b4 90 d5 bb
       -0.08168981 -0.12376944 -0.10826537 -0.006517494
0002f0 a9 2b eb 3d b0 d0 21 bd 5c aa 8f bd 2f 89 82 bd
       0.11482937 -0.03950566 -0.07014915 -0.06373822
000300 b9 8d e9 bd 06 9b b8 3d 3b 7f 93 bc 75 53 59 3e
       -0.114039846 0.090139434 -0.018005004 0.21223243
000310 60 7b 8f 3d a7 95 1a 3e bc 59 4f 3c b2 a8 f8 bd
       0.07005954 0.1509615 0.012655672 -0.12141551
000320 14 7d 23 bd ae 73 67 3c 30 a6 74 bd 23 fb 18 be
       -0.039914206 0.014126701 -0.0597288 -0.14939551
000330 f9 86 47 bd 29 6b 33 bd 42 b4 97 ba d2 f5 ce bd
       -0.048712704 -0.043803368 -0.0011574107 -0.1010548
000340 07 f5 3a be f9 b8 66 be 9b 08 75 3e bc 62 7b 3d
       -0.18257533 -0.22531499 0.23929064 0.061373457
000350 5e 14 19 be bf 95 ac bc 6a a1 c7 bc af a3 55 bd
       -0.14949176 -0.021067498 -0.02436896 -0.052158054
000360 34 47 9f 3d 01 f0 94 be e5 0d 44 3e 8b ca 09 3e
       0.07777253 -0.29089358 0.19145925 0.1345617
000370 d7 c0 d2 3c b9 9a 00 be ff 0d 17 bd fe 90 ad bc
       0.025726719 -0.12559022 -0.036878582 -0.021187302
000380 75 90 04 bd 5e 8e bc bd 36 20 ba bd 29 da 91 3c
       -0.032364327 -0.09206842 -0.09088175 0.017804222
000390 fb 01 0f bd 11 d7 43 be 45 89 67 be 08 37 9c bd
       -0.034913998 -0.1912501 -0.22610958 -0.07627684
0003a0 88 85 d0 bd b8 8b 20 bd e1 df 4d be 85 24 27 3e
       -0.10181719 -0.039195746 -0.20104934 0.16322525
0003b0 e0 79 9e bc 33 1b 07 be 35 f3 a1 3d 4b a3 fb bd
       -0.019345224 -0.1319397 0.07907716 -0.12287005
0003c0 29 35 39 be 16 b2 de bb 6f 94 51 3d 04 c7 9d 3e
       -0.18086685 -0.006796132 0.051166948 0.308159
0003d0 8c ab 4b be 64 59 24 be c2 28 a4 bd 86 2f ca 3d
       -0.19889659 -0.16049725 -0.080155864 0.098723456
0003e0 8a f0 50 3e d1 38 70 3d 33 6d 61 3e 05 a8 a3 3d
       0.20404258 0.058647934 0.22014312 0.079910316
0003f0 21 c3 49 3e a0 72 1a bd f6 57 0b be d2 25 8d bc
       0.19703342 -0.03770697 -0.13607773 -0.017229948

weight f4 [256, 512]
000000 04 33 33 3d 30 85 00 bd e5 f1 58 bc 31 9f ea 3d
       0.043749824 -0.031377017 -0.013241266 0.114561446
000010 a1 af d0 bc a1 13 8d bd 69 41 a1 bc 91 0d 79 3d
       -0.025474371 -0.068885095 -0.01968451 0.060803954
000020 ba dd a8 bd e1 3e c3 bd 42 97 b2 bd ed db ad 3d
       -0.08245416 -0.095334776 -0.087202564 0.08489213
000030 cb 55 97 bd f7 b2 ec 3d 70 07 4f 3d d0 4b 99 bd
       -0.073894106 0.11557572 0.050544202 -0.07485163
000040 99 1e f8 3c 1e 08 bd 3d 27 42 26 bc ff fc 23 3d
       0.030288028 0.09230064 -0.010147608 0.040036198
000050 50 91 47 bc 06 85 28 3e fc b1 35 be 64 14 a6 bd
       -0.012180641 0.16456994 -0.17743677 -0.08109358
000060 26 c0 57 bd 1a af 37 3d bb a3 99 bc eb 95 83 3c
       -0.05267348 0.044844724 -0.01875483 0.016062697
000070 12 41 10 3d f0 a3 ce bd f9 16 61 3c c2 15 7f 3d
       0.035218306 -0.10089862 0.013738387 0.06227661
000080 8e 0f e9 3d bf 24 9c 3d a3 29 e8 bb 8f e1 0e bd
       0.1137992 0.07624196 -0.0070850416 -0.03488308
000090 6d 2c f4 3d 57 78 b4 3b 3e a0 38 3e 9d c6 a5 bd
       0.11922536 0.0055075097 0.18029878 -0.08094523
0000a0 77 ba 25 3d d2 24 3d bb de 52 d6 3c df 57 bd 3d
       0.04046103 -0.0028861058 0.026162561 0.09245276
0000b0 ed d6 86 bd 75 f8 a4 bd d7 af 73 3d 2f 8a 06 3e
       -0.065839626 -0.08055202 0.059493866 0.1313865
0000c0 dd b6 19 bc 07 3a cc 3c 6e 1b aa 3d a6 f4 e4 3c
       -0.009381977 0.024930013 0.08306013 0.027948689
0000d0 46 4c 11 bd 80 bc 8e bd 0b a4 ec bd c8 aa 87 bd
       -0.03547313 -0.06969547 -0.11554726 -0.06624371
0000e0 bb ea 4a bb 3e 84 25 3d fa 58 0f 3e 17 e0 20 bc
       -0.0030962664 0.04040932 0.13998786 -0.009819052
0000f0 28 68 d8 bb dc 66 02 bd b3 b3 dc bc 26 83 83 bd
       -0.0066042133 -0.031836376 -0.026941156 -0.06421499
000100 4f 08 04 be 9e 01 11 bd 84 12 84 bd e0 c5 85 bd
       -0.12893794 -0.035401933 -0.06448844 -0.06531882
000110 b6 21 61 bd 46 69 0d 3d 0a ba 7a bd ca 3c 03 bd
       -0.05496379 0.034524225 -0.061212577 -0.032040395
000120 06 94 f3 bb 0f 52 6d bc 90 fb 3f 3d 56 aa 04 3d
       -0.0074334173 -0.014484896 0.046870768 0.032389008
000130 16 1e d6 3b 0e 00 98 3a ba 0f 07 3c 7b 61 72 bd
       0.0065343482 0.0011596696 0.008243496 -0.059174996
000140 94 1c 91 3d 37 73 c1 3d 84 e3 30 bd ad d1 05 3e
       0.07085529 0.094458036 -0.043185726 0.13068266
000150 51 87 18 3b 40 52 8e bc d2 cb 44 3d f3 c0 23 bd
       0.0023274014 -0.017373204 0.04804594 -0.039978933
000160 7b bf 62 bc 4f ef e9 bb b5 04 c2 bc ce 41 a7 3d
       -0.013839598 -0.0071391235 -0.023683885 0.08166848
000170 3f a7 ee bc 5c 5c 3e 3d b0 33 96 3c be a6 53 3b
       -0.029132484 0.0464748 0.018335193 0.003229543
000180 4e 31 04 bd ce 1f fe 39 d0 42 22 bd 8b 4a 4d 3d
       -0.032273583 0.00048470352 -0.0396145 0.050119918
000190 9c 0d ec bd dc af d0 bd 93 ca 33 bd 77 a4 a2 bd
       -0.11526033 -0.101897925 -0.04389436 -0.079415254
0001a0 51 e0 a9 bd 6f 20 d0 3a c3 3c b7 3d d6 20 2d 39
       -0.08294738 0.0015878807 0.08947136 0.00016510798
0001b0 58 31 81 ba 09 ba 8a bd 32 d2 52 bd a5 1a b8 3c
       -0.0009856625 -0.06773765 -0.05146999 0.022473643
0001c0 9e f0 42 bd 07 1e b7 bb 37 b2 94 3c b5 c4 8a bd
       -0.04759275 -0.0055882963 0.018151386 -0.067758
0001d0 e9 50 87 3c 7c 9a bb 3c 13 3a 35 3d 2b d4 9f 3b
       0.016518073 0.022900812 0.044244837 0.0048775873
0001e0 3b e7 59 ba 75 90 47 bd a7 2c ac bc 59 85 af 3d
       -0.0008312349 -0.04872175 -0.021017386 0.08570356
0001f0 16 f6 6a 3d 6f 8d b3 3d ed a3 5e 3d 06 e4 56 bd
       0.057363592 0.08767211 0.05435555 -0.052463554
000200 cc d6 c5 bd 5d b1 f1 b9 29 3c c5 bd c5 1f 7e 3e
       -0.0966011 -0.00046099248 -0.09630615 0.24816807
000210 11 43 1b 3d cc 42 94 bd 97 f0 32 3c e8 39 1e 3e
       0.037905756 -0.07239303 0.010921619 0.15451777
000220 95 4e ca bd af 97 58 bd 11 8e a5 3b e7 76 12 3d
       -0.098782696 -0.05287903 0.005052336 0.035757925
000230 5c dd 84 bd 86 ba 92 bb 8c 93 54 bd 60 cf d0 3d
       -0.064875335 -0.0044778017 -0.051898524 0.10195804
000240 fa 2b 33 bd 8b 31 20 3e 0e 67 2a bd 08 2a 21 3d
       -0.04374311 0.15643899 -0.041602187 0.039346725
000250 6a b4 20 3d 79 e9 a9 3d 52 9f 8b 3d 77 77 ac 3d
       0.039234556 0.082964845 0.06817497 0.084212236
000260 56 01 d2 bc 37 59 5d bb 5d 72 a1 bd a0 da 3b 3d
       -0.025635403 -0.00337751 -0.07883141 0.045862794
000270 0e b2 c6 bc 70 5d ac bd 3f 09 4d 3d b1 52 df 3c
       -0.024254825 -0.08416259 0.050057646 0.02726111
000280 68 30 13 3d 44 33 c1 39 83 72 9a 3d f4 7a 45 3d
       0.035934836 0.00036850024 0.075413726 0.04821296
000290 f9 af 14 bc 63 30 34 bd d6 af ce 3d 9c 61 a9 bc
       -0.009075158 -0.043991458 0.10092132 -0.020676427
0002a0 dd 7e 2e bd a7 62 e8 bc aa 89 3a bd 2d 88 21 3d
       -0.042601455 -0.028367354 -0.045541443 0.039436508
0002b0 02 4b f9 3b 8f 74 14 3d 3b 3b 8d bc 79 64 9a 3d
       0.0076078186 0.03624397 -0.017240157 0.07538695
0002c0 1e 64 4e 3d 43 54 b7 3c e5 8a da bc 66 23 1c 3d
       0.050388448 0.022379046 -0.026677558 0.038119696
0002d0 e6 ac 85 3d 5e ec 8a bd 1b 77 c0 bd 21 3d 34 3a
       0.065271184 -0.06783365 -0.093977176 0.0006875564
0002e0 1a 85 4f 3d d5 1c 7d bd 0b b9 0f bd 78 99 1f 3e
       0.050664045 -0.061795074 -0.03508858 0.15585887
0002f0 9c fc 02 be 98 55 52 bd fb 8f 36 bd 66 60 2e 3d
       -0.12791675 -0.05135116 -0.044570904 0.0425724
000300 46 5b fb 3d f0 aa da bc 5f b1 77 bd 0c ec 86 bd
       0.122732684 -0.026692837 -0.06047189 -0.06587991
000310 8f 6c a4 bd 0e 2e b5 3d 3a a0 f4 3d f1 7f ab bd
       -0.080285184 0.08846675 0.11944623 -0.08374012
000320 e6 f1 2e bd a5 d9 37 bd 54 77 51 bc 2f 00 53 bd
       -0.04271116 -0.044885296 -0.012784798 -0.051513847
000330 f7 b8 0e 3e fd 49 8c bd 6a 42 d3 bd 20 ec 38 3d
       0.13937746 -0.0685005 -0.10315402 0.04514706
000340 cc 5f eb bc 05 31 d6 3d 38 67 b4 bc b3 20 25 bd
       -0.028732203 0.104585685 -0.022021875 -0.040314388
000350 2d c2 f8 3d 78 2e 02 3e 2c f3 24 bd 77 e3 a8 bd
       0.12146411 0.12713039 -0.04027097 -0.082465105
000360 9f d4 ca 3d 2d 71 69 3d 78 42 09 be b3 6c cc 3c
       0.099038355 0.0569927 -0.13404262 0.024954176
000370 45 03 fe bd 5e f0 b7 3d 7b 82 b1 bd c9 14 7f bd
       -0.12402967 0.08981393 -0.08667465 -0.06227568
000380 4c 00 c7 bc 32 e5 2c 3b 96 ca 32 3d d7 b3 be bc
       -0.024292134 0.0026381728 0.043650232 -0.023279114
000390 53 11 54 3b 31 1d 19 3e f2 dc be 3c ff 3a ea 3d
       0.003235896 0.14952542 0.023298714 0.11437034
0003a0 70 f7 19 bd 39 06 02 3e c4 88 4a bc ca de 80 3d
       -0.03758949 0.12697686 -0.012361709 0.06292494
0003b0 3b 43 7c 3c e9 77 08 bc 90 5a e5 3c 96 0e 68 3b
       0.015396888 -0.00832937 0.027997285 0.0035409085
0003c0 03 dc ae 3d 0e f0 4c 3d fa 94 85 3c b7 f7 ac bc
       0.08538058 0.05003362 0.01630639 -0.021114213
0003d0 c1 63 34 3d f0 03 1c bd 9c 2a 7b bc ca c0 d2 bd
       0.044040445 -0.038089693 -0.015329983 -0.10290678
0003e0 5f 92 9b 3c 44 c7 f3 3c f8 8c cf 3d a1 3b 2d 3d
       0.018990694 0.029758103 0.101343095 0.042293195
0003f0 9a 23 fe bc be ae 0f bc 1b 8f 73 3d 40 a0 ef 3c
       -0.031022836 -0.008769689 0.059462648 0.029251218

bias f4 [256]
000000 57 18 c6 bd f6 03 21 3b 97 41 cd bd 4f b2 a3 bd
       -0.09672611 0.0024569011 -0.10022276 -0.07992994
000010 a2 34 23 bc f5 32 6d bd 92 5e 0e bd 0c 73 33 bd
       -0.009961279 -0.057909925 -0.034758158 -0.04381089
000020 6d e6 17 be a3 c3 4c bd 37 99 49 be 23 59 d4 3c
       -0.14833994 -0.04999126 -0.19687353 0.02592141
000030 9c f3 92 bd 7a b9 b3 bd a1 09 b7 bd cd e1 a0 bc
       -0.07175371 -0.08775611 -0.089373834 -0.01963892
000040 05 a4 ef bd 04 64 8c bd f1 3b 53 bd a7 57 9b 3d
       -0.11701206 -0.06855014 -0.051570836 0.07585078
000050 29 b3 c6 3c 58 15 f3 bd 8a ab 40 bd d6 4d 45 bd
       0.024255352 -0.11869305 -0.047038592 -0.048169933
000060 ee 4d c8 bd 0b 49 cf bd 00 0a d6 bd 15 61 e2 bd
       -0.09780489 -0.10121354 -0.10451126 -0.11053673
000070 02 20 51 bc 00 b4 d3 3c 8c a9 c8 bd 51 69 24 bd
       -0.012763979 0.025842667 -0.097979635 -0.0401395
000080 38 8d df bb a0 ab d3 bd 3b c3 f7 bc 79 0a 98 bd
       -0.0068222545 -0.10335469 -0.03024446 -0.074238725
000090 2f 80 50 bc 55 e0 0a bd a3 e2 fa bc 83 f8 64 bc
       -0.012725874 -0.033905346 -0.030625647 -0.013975265
0000a0 5b 33 4d bd 95 da ce bd 3c 37 0b 3c 3e 77 c3 bd
       -0.050097805 -0.10100285 0.008497056 -0.09544228
0000b0 79 ac ba bd 00 a8 f8 bc bb 3e 45 be 1e 0c 83 bd
       -0.09114928 -0.030353546 -0.19262211 -0.063987955
0000c0 41 1a 8e bd b3 09 d2 bd b9 54 49 bd 37 71 52 be
       -0.06938601 -0.10255756 -0.049153063 -0.20551
0000d0 d9 bb c0 bc 4e e1 76 bd 7c 2c 2d be 4f 3b 26 3c
       -0.023527073 -0.06027346 -0.169115 0.010145976
0000e0 4c 16 2e be 7e c3 97 3c 3d 5c c9 3c cc 04 08 be
       -0.17000693 0.018525835 0.024580115 -0.1328308
0000f0 e8 f0 81 3d 9c 0e 48 bd 57 95 52 bd 02 62 a4 bd
       0.06344777 -0.048842058 -0.051411953 -0.08026506
000100 17 5e 02 bd 66 9c 4c be 7b ee 67 bd b0 0e c8 bd
       -0.031828012 -0.19981536 -0.056623917 -0.097684264
000110 8c 9b 40 bd 11 f2 91 bd 36 e3 b9 3d ab fb 30 bd
       -0.04702334 -0.07126249 0.0907654 -0.04320876
000120 db b2 bc bd ff 0b f9 bd 1f 27 07 be 08 99 49 bd
       -0.092138015 -0.12160491 -0.13198517 -0.049218208
000130 56 da 9c bc f7 e6 3b be dd cb 9f bd d0 07 21 bd
       -0.01914708 -0.18349825 -0.07802556 -0.03931409
000140 d3 51 b4 bd 40 f9 05 be e6 ce f5 bd 5c 32 b4 bd
       -0.08804669 -0.13083363 -0.12002353 -0.08798668
000150 06 42 8a bd 1d a3 be bd 6c b3 96 bd 47 66 4e bd
       -0.06750874 -0.09308455 -0.07358441 -0.050390508
000160 69 01 ac bd 6b f1 ad bd 4f bf b5 ba b4 8e b5 bc
       -0.083987065 -0.084933124 -0.0013866219 -0.022162773
000170 d5 95 fb bc f1 7b c1 bd be 33 e4 bd b9 0c 2c be
       -0.030711094 -0.09447468 -0.111426815 -0.16801728
000180 28 d2 5a 3d 66 55 39 bd ee dd 04 be 5c cb 01 be
       0.053423077 -0.045247458 -0.12975284 -0.12675232
000190 28 af 50 bd 2a 3a 85 bc a3 7a 95 bd f9 bf 8b bd
       -0.050948292 -0.016263086 -0.07298782 -0.06823725
0001a0 08 73 01 3c 94 cf e1 bd 4a b6 3f 3c 39 23 98 bd
       0.007900961 -0.110259205 0.011701176 -0.07428593
0001b0 14 73 48 bd 96 17 b3 bd 54 7e de bd 49 10 04 be
       -0.048937872 -0.08744733 -0.10863939 -0.12896837
0001c0 14 a6 95 3c 48 16 b5 bd f8 0e 53 bd 5c 52 ab bd
       0.018267669 -0.088421404 -0.051527947 -0.08365318
0001d0 1b ac 5d be 14 dc a2 bc 1d c2 85 bd c9 36 09 be
       -0.21647684 -0.019880332 -0.06531165 -0.13399805
0001e0 67 d4 35 be e5 cc c0 bc a0 19 5d 3d fb 96 88 3d
       -0.17756806 -0.023535201 0.053979516 0.06669422
0001f0 61 e3 a3 bd ce 82 af bd 5a 88 ec bd 26 8c b6 bd
       -0.080023535 -0.08569871 -0.115494445 -0.0891345
000200 c2 1d 05 be a6 e1 16 be 82 f5 db bd cc 6b 65 bd
       -0.12999633 -0.14734516 -0.10740186 -0.056011006
000210 63 96 f4 bd 61 e1 b7 bd fa b1 e7 bd d2 45 1b be
       -0.119427465 -0.089785345 -0.11313243 -0.15163353
000220 cf 27 ed bd 72 d7 9b bc 66 f9 d7 bc af 7f 95 bd
       -0.115798585 -0.01902363 -0.02636404 -0.07299744
000230 e6 b2 bf bd 07 f4 e6 bd f9 55 0d be cf 40 a1 bd
       -0.09360294 -0.11277013 -0.13802327 -0.078736894
000240 f3 e2 fe bc e6 cc 2b bd 54 b8 4b be 9b 5f 00 bd
       -0.031114077 -0.041943453 -0.19894534 -0.031341176
000250 d8 e2 51 3a 4c 65 a8 bd ce df 5a bd 42 37 1e bd
       0.00080065196 -0.08222446 -0.053436093 -0.038626917
000260 7c 7f f6 bc a5 11 86 be e1 7e cd bd a6 78 cf bd
       -0.030090086 -0.26185337 -0.10033966 -0.10130434
000270 fb ba 85 bd 76 99 20 be 1f 4e f0 bd c1 6f 86 bd
       -0.06529804 -0.1568354 -0.117336504 -0.06564284
000280 fd 8c e0 bd c7 6e d7 bd 25 34 3f be ce d2 23 3d
       -0.109643914 -0.10519176 -0.18672235 0.03999596
000290 bd 5c c8 3c f4 fa d2 3c 79 32 08 be b7 9d 96 bd
       0.024458284 0.02575443 -0.13300504 -0.073543005
0002a0 3d 43 a8 bd 15 ab 27 bb 2c a9 7b 3c e9 45 08 be
       -0.0821595 -0.002558415 0.015360158 -0.13307919
0002b0 ae 67 b2 bd c4 68 37 3c a5 c8 d4 bd 44 8c de bd
       -0.087111816 0.011194412 -0.103898324 -0.10866597
0002c0 a9 25 45 bd b9 1b 0b bc 14 ca f6 bb 19 d6 b9 bd
       -0.04813162 -0.008490496 -0.007531414 -0.09074039
0002d0 3c 37 81 bd 49 3d 8b bd f0 80 16 bd 61 12 a1 bd
       -0.06309363 -0.067987986 -0.036744058 -0.078648336
0002e0 3c c9 d6 bd 19 e9 cc bd fc 68 27 bd ca 6e eb bd
       -0.10487601 -0.10005397 -0.040871605 -0.11495741
0002f0 1f 65 b4 bd ff 28 04 bd 0b b2 34 be af 79 73 bd
       -0.0880835 -0.03226566 -0.17646043 -0.05944222
000300 f9 d6 65 3d 6c d2 93 bd 36 0f e3 bd e0 58 dc bd
       0.056113217 -0.07217869 -0.11086886 -0.10759139
000310 28 c8 ab bd ef 1c 2b bc 18 01 5d 3c d7 fa f2 bc
       -0.08387786 -0.01044391 0.01348903 -0.029660625
000320 5b 87 93 3c 08 ed b5 bd e7 90 a5 bc 05 2a 9b bd
       0.018008878 -0.08883101 -0.020210696 -0.07576374
000330 d4 8e ce bd f8 45 27 3c 13 c9 eb bd 92 a0 36 bd
       -0.10085836 0.010209553 -0.11512961 -0.044586726
000340 3b a0 ff bd c7 97 28 bd 79 a1 d6 3c 30 46 1c be
       -0.124817334 -0.04116037 0.026200043 -0.1526115
000350 c2 22 c5 bd 1b c6 35 be 8c 42 4a bd 1a 58 9d bd
       -0.0962577 -0.17751352 -0.04937987 -0.0768282
000360 e6 70 1e be 5f c6 4e bd 3d 81 14 be 4a ea 25 be
       -0.15472755 -0.05048215 -0.14502425 -0.16202655
000370 22 92 d1 bd ec 32 4e 3d ac 95 36 bd c8 00 36 bd
       -0.10232951 0.05034153 -0.044576332 -0.04443434
000380 54 c7 ea bd 38 5e 92 bd c6 cc 86 bc 85 45 22 bd
       -0.114638 -0.07146877 -0.016455065 -0.03961708
000390 5c c5 e8 39 92 67 ec bd b0 5e 48 3d aa 3a 0d 3c
       0.00044397532 -0.11543192 0.048918426 0.008619944
0003a0 1c de 17 be 1a 79 8a bd af 16 34 be d5 01 ff bd
       -0.14830822 -0.067613795 -0.17586778 -0.12451521
0003b0 a2 21 34 be 14 c2 66 bd 87 bf ce 3b 62 63 0d 3d
       -0.17590955 -0.05633743 0.006309453 0.034518607
0003c0 e8 fb 3f 3c 45 86 fa bd 88 c2 01 be 9b ec b9 bd
       0.011717774 -0.12232641 -0.12671864 -0.09078332
0003d0 36 e5 d0 bd 9b 11 fc bb 96 5e c0 bd e9 67 a5 bc
       -0.101999685 -0.0076925284 -0.09393041 -0.02019115
0003e0 b8 a8 10 bc 41 94 9b bd b3 a9 a6 bd ae 4e 16 be
       -0.008829288 -0.075966366 -0.08137836 -0.14678451
0003f0 18 08 66 bd fd 5e 49 3c 0f e1 0a bd 3f 44 f7 ba
       -0.056160063 0.012290713 -0.03390604 -0.0018864943

weight f4 [128, 256]
000000 d3 89 a2 bd 08 1f 87 bd e4 83 43 3c 1e 25 50 3d
       -0.07936444 -0.065977156 0.011933301 0.050816648
000010 a8 7b 4d be 3a 6c 11 bd fa 7b 52 bd 3b 33 44 3c
       -0.20066702 -0.035503604 -0.051387765 0.011975105
000020 8f dd 3c bc 76 4a 89 bd 72 26 b5 3c dd bc da bc
       -0.011527433 -0.067036554 0.022113059 -0.026701385
000030 b2 0b 1a bd 26 95 c0 bd 62 ab e4 bc a3 1f 9f bc
       -0.03760881 -0.09403448 -0.027913753 -0.019424265
000040 74 e7 2e 3d be ce bc 3d 47 1e 3f bd e8 69 c7 bc
       0.0427012 0.092191204 -0.046659734 -0.024342492
000050 25 bc d6 3c 0a 2f bb 3d 2e fb bf bd 0a 19 19 3c
       0.026212761 0.09139831 -0.093740806 0.009344349
000060 59 98 2d bc da b6 33 39 a7 9e c9 bb 0a 8b 85 3d
       -0.010595405 0.00017138888 -0.006152946 0.0652066
000070 09 2b 32 3c 37 75 ce bd bb d4 6c bd 43 3d c6 bc
       0.010874518 -0.10080951 -0.057820063 -0.024199134
000080 3d 40 63 bd 28 5f 9c bd 09 a0 fd bd 00 e7 26 3d
       -0.055481184 -0.07635337 -0.1238404 0.040747643
000090 d8 0a f0 bd 33 ba e1 b9 0b 90 fb 3c db eb 1e be
       -0.11720818 -0.00043054073 0.030708333 -0.15519659
0000a0 31 53 d2 bd 17 21 da 3d af e4 e7 3a 78 19 d2 bd
       -0.10269774 0.10650843 0.0017692054 -0.10258764
0000b0 6c c4 d9 bd 64 fa 80 3d 8c dc 9a 3b c4 8b 09 be
       -0.106331676 0.06297758 0.0047259983 -0.13432223
0000c0 8a a7 7d 3d 47 87 87 bd 63 df 68 3d 35 8b 05 3b
       0.061927356 -0.06617599 0.056853663 0.0020377163
0000d0 c8 92 b7 3c 53 bd 32 3c 37 37 82 3d 63 d5 e9 bc
       0.022408858 0.010909396 0.06358188 -0.028544134
0000e0 e7 4e d8 3c 84 be 28 bd a8 ad 75 3d 9d b3 26 bd
       0.026404811 -0.041197315 0.059980065 -0.040698636
0000f0 f5 a9 7e 3b 2c 1b 22 3c b1 43 8d bd 29 a5 3d bd
       0.0038858627 0.009894174 -0.06897677 -0.046300087
000100 6f 55 13 be e0 02 09 bd 92 74 44 bd f0 d1 ad bd
       -0.14388059 -0.033450007 -0.047962733 -0.08487308
000110 78 20 89 bd 7c 88 47 3d 18 c5 af bc 20 56 3d bb
       -0.06695646 0.048714146 -0.021456286 -0.0028890446
000120 ef 3a e0 bb 1e 39 a7 bd f5 dc 7b 3d d5 5d 42 bd
       -0.006842963 -0.08165191 0.061490018 -0.047452766
000130 6c b3 e8 bd 18 2f 99 3d 48 98 4d 3d 95 42 d8 bd
       -0.11362347 0.074796855 0.050194055 -0.105595745
000140 80 00 ed bd 70 7f 6d bc cc d7 ff bc 2a 0c 36 bd
       -0.11572361 -0.0144957155 -0.03123083 -0.044445194
000150 b4 bc 97 bd f4 9d a4 3c 83 56 81 3d 11 36 ad bd
       -0.07409039 0.02009485 0.06315329 -0.08457578
000160 21 b5 f1 3d 7c ae db bd 1a 41 48 bd 79 c7 39 be
       0.11802126 -0.1072664 -0.04889021 -0.18142499
000170 c7 74 9d 3d 49 c7 36 3d 4a 48 c5 3c 22 0a 94 3d
       0.07688289 0.044623647 0.024082322 0.07228495
000180 90 57 dc bc 7c 8d a1 bd c4 d8 65 ba cf f8 39 bc
       -0.026897222 -0.07888314 -0.00087679573 -0.0113508245
000190 34 62 cf bd 3c 88 9a 3c 9c 6d 34 be b6 1c 27 be
       -0.10126153 0.01886379 -0.17619938 -0.16319546
0001a0 18 55 cf bd ae 15 65 bd 3c f5 27 bd a1 c5 b1 3c
       -0.10123652 -0.05592888 -0.041005358 0.021700682
0001b0 e8 6a ce 3d 84 9b 20 3e a7 64 03 3d 38 22 53 bc
       0.100789845 0.15684325 0.03207841 -0.012886576
0001c0 29 5e 48 3c 1c bb d9 bd 98 ac 3e bb 07 f7 97 3c
       0.012229481 -0.106313914 -0.0029094573 0.018550409
0001d0 bf 89 08 3d ac 4f 10 3d 87 6c 0a 3d fb 17 c3 3d
       0.03333449 0.03523223 0.033794906 0.09526058
0001e0 1f 23 b2 bd 1b 58 f1 bd 4f de 5d 3d 51 a0 26 bd
       -0.08698105 -0.11784383 0.054167088 -0.040680233
0001f0 8e 9b 53 bc ea b6 a0 3d 87 ba 13 bd 5b 9d 82 bc
       -0.012915505 0.07847388 -0.03606656 -0.015944174
000200 f8 f4 7a 3c cc c6 54 3c 58 1e e0 3d 87 7d f2 3c
       0.015317194 0.01298685 0.109432876 0.029600872
000210 70 a2 24 3d a8 74 ff bd 39 8a e4 3d c1 b9 0d 3e
       0.040193975 -0.12473422 0.111591764 0.1384039
000220 db c6 16 3c 41 d6 6a be c4 54 0f bd 64 d8 9b 3d
       0.009202684 -0.22933294 -0.03499295 0.076096326
000230 0f b6 bd bd ae 21 ac bd b7 67 41 3e 50 ba 40 bc
       -0.092632405 -0.084048614 0.1888722 -0.01176317
000240 50 68 14 be 35 0f 0c 3d 5e c4 33 3b af de e8 bc
       -0.14492917 0.03419419 0.0027430276 -0.028426496
000250 60 05 28 3d e0 b0 e9 3d d4 44 db 3d 5a e7 4b be
       0.04102075 0.11410689 0.10706487 -0.19912472
000260 1f 7b 6a 3a 1a ea bf 3d 2c 94 42 3c a7 8f a4 bc
       0.0008944738 0.09370823 0.011876147 -0.02008803
000270 67 de 39 3d de 63 f6 3b 21 9b bd 3d 57 cf 63 bc
       0.045378115 0.0075192293 0.09258104 -0.013904414
000280 81 6f 76 3e e3 e5 0a bd 75 f1 2f bb b9 13 a2 bd
       0.24065973 -0.033910643 -0.00268468 -0.07913918
000290 2f 03 12 3d 6b c9 91 bd 9f e8 01 3d 91 c6 4e 3c
       0.035647567 -0.071184956 0.031715985 0.012620584
0002a0 85 55 ea 3d c2 3c 20 bd 11 eb 86 3c aa 12 ba 3d
       0.11442093 -0.039120443 0.01646951 0.09085591
0002b0 ee 43 8b bd 21 85 9b bc bd c9 55 3d b8 8c ce bd
       -0.06800066 -0.01898438 0.052194346 -0.10085434
0002c0 34 e6 96 bc fa 44 e0 3d 24 f2 e7 3c 79 65 f0 3c
       -0.018420316 0.10950656 0.028313704 0.029345261
0002d0 63 aa 06 bc f9 e2 70 bd 1e ff 5c 3d de 1f cb bd
       -0.008219334 -0.058810208 0.053954236 -0.099181876
0002e0 87 70 5e bc 9b e6 28 bc c9 a1 29 bd 49 82 9d 3d
       -0.013576633 -0.010308887 -0.041414056 0.076908655
0002f0 ee 39 c5 bc a6 0f 8a bd 2b 95 42 3d ae be 32 bd
       -0.024075475 -0.06741266 0.04750554 -0.043638878
000300 a8 23 5e bd 06 e3 03 bc 99 ef c3 3d 7c c2 bc bd
       -0.054233223 -0.008049732 0.09567184 -0.092167825
000310 18 27 90 bd 42 58 e3 bd ca 0b 81 bd 21 a4 d0 bc
       -0.070387065 -0.11100818 -0.06301077 -0.025468888
000320 67 65 26 3d 28 2e 4e bd 9d a2 81 3d 45 fe 9d 3c
       0.04062405 -0.050336987 0.06329844 0.019286284
000330 ac af 12 be 8a 03 dc bc 27 8b 10 3c fd 6f 3d bd
       -0.14324826 -0.026857156 0.008822239 -0.04624938
000340 45 4d a8 3d 82 04 e3 bb b1 46 b1 bd c0 d9 8b 3b
       0.08217863 -0.0069280276 -0.086560614 0.004267901
000350 b9 4f 69 bd 81 75 8d bd e7 66 94 bc f5 90 e3 3d
       -0.056960795 -0.06907178 -0.018115474 0.11111633
000360 93 4d 39 3e c8 f1 0d be 9c ef a2 3d a5 1e ce bb
       0.18095998 -0.13861763 0.07955858 -0.006290274
000370 5a ae a4 bd 96 a8 de 3c 01 45 e1 3c f9 99 a6 bc
       -0.080410674 0.027179997 0.027498724 -0.020337092
000380 74 8d f4 3c 49 c9 00 bc 25 c5 e8 3b c9 74 ca 3b
       0.029852606 -0.00786049 0.0071035796 0.0061784727
000390 c0 cb 0c 3d 51 ca d4 3c 0f a0 9d bd 79 da 73 3c
       0.034374 0.025975378 -0.076965444 0.014883631
0003a0 39 22 fd 3d 50 73 4d 3d e7 b2 5b 3d 90 31 d4 3d
       0.12360043 0.0501588 0.05363741 0.10361016
0003b0 20 ca 2e 3c 6c 99 01 be 12 33 10 3e 01 25 19 be
       0.010668308 -0.12656182 0.14081982 -0.14955522
0003c0 54 0a e0 bd 42 84 b3 bd 1f be 0e be 58 06 07 bc
       -0.1093947 -0.087654606 -0.13939713 -0.008241259
0003d0 c4 c4 2a bd fe b6 3d bd 97 4d 0e bd 44 69 f1 bc
       -0.041691557 -0.046317093 -0.034741964 -0.02946914
0003e0 c1 25 64 3c ff 81 d0 bd da a4 4b be 0b c3 df 3c
       0.013925017 -0.10181045 -0.19887105 0.027314683
0003f0 70 63 38 bc 8c 7d bd 3a cb 77 10 3e 42 e9 8b bd
       -0.0112541765 0.0014456972 0.14108197 -0.068316

bias f4 [128]
000000 ec 41 28 be 42 1e c2 bc 9f dc 5b 3c 2f b4 cf bd
       -0.16431397 -0.023696069 0.013419299 -0.10141789
000010 d1 90 a3 bd b4 94 fa 39 f7 b1 4a be 03 3f d4 bc
       -0.07986606 0.00047794508 -0.1979445 -0.025908953
000020 63 22 bc bb 0c 89 b5 3c c8 a6 ca bd 78 3f 40 be
       -0.005741404 0.022160076 -0.09895092 -0.18774211
000030 3b 38 c0 bd 00 e5 68 bc 25 72 a0 bd 03 cb aa bd
       -0.09385725 -0.014214754 -0.07834271 -0.08339503
000040 f1 41 4e bd 1b 57 1a be 43 f2 0b bd 47 f2 87 bd
       -0.050355855 -0.1507229 -0.034166586 -0.066380076
000050 59 84 e5 bd dd cc b9 bd c6 1d 2e be 7b cb 5c bd
       -0.11206884 -0.09072278 -0.17003545 -0.05390499
000060 e8 4d d6 bd 9b 74 24 3c 88 57 17 bd 46 c7 cb bd
       -0.10464078 0.010037567 -0.03694871 -0.09950118
000070 fb bd c5 bd 7f f3 a7 bc cc 26 a3 bc de c0 dc bd
       -0.096553765 -0.02050185 -0.01991596 -0.10778974
000080 b7 14 10 bb ae 46 ca bc a2 a2 4b be d6 54 01 bd
       -0.0021985003 -0.024691906 -0.19886258 -0.031575046
000090 57 dc da bd 3f ef 28 be 31 3f 87 bd b6 2f d4 3b
       -0.10686558 -0.16497515 -0.0660385 0.006475414
0000a0 cd c4 9e bc 13 1d 14 be b8 62 36 be 9e e4 f3 bd
       -0.019380951 -0.14464216 -0.17811096 -0.1190884
0000b0 87 9f 2c be 29 24 61 3b 24 18 02 be f0 7b a4 bd
       -0.1685773 0.0034353829 -0.12704521 -0.08031452
0000c0 69 28 a8 bd 90 a3 13 be 0b d3 68 bd 06 bd 62 3c
       -0.082108326 -0.14417863 -0.05684189 0.013839012
0000d0 dc cc 82 3d 16 a7 f2 bd 93 a0 02 be fc 68 ae 3d
       0.0638673 -0.11848275 -0.12756567 0.08516118
0000e0 8a 20 2f bd d2 2c 4c bd f3 52 81 bc 44 3a 1b bd
       -0.04275564 -0.04984743 -0.015786624 -0.037897363
0000f0 8e de 69 3d b1 a6 51 bd ba bf 61 bd a8 61 89 bc
       0.05709701 -0.05118436 -0.055114485 -0.016770199
000100 8e 73 33 3c e2 39 01 bc 5a 33 89 3d 60 31 57 bd
       0.010952843 -0.0078873355 0.06699248 -0.052537322
000110 f7 96 50 3c 1c 48 7e 3d af 78 11 be 0b 7d 4d bd
       0.012731305 0.062080488 -0.14206193 -0.05016808
000120 27 f5 fe bd a0 f5 d1 bb 2a 35 82 bc 4d c2 70 bd
       -0.12449103 -0.0064074546 -0.015894491 -0.05877905
000130 95 73 ad bd 8a d2 df bd b2 37 9f bd 65 f4 69 bd
       -0.08469311 -0.10928829 -0.07774295 -0.05711784
000140 04 d9 dd bc 43 bc 53 3d 97 c1 cd bc 17 91 e2 bc
       -0.02708102 0.051693212 -0.025116725 -0.027657075
000150 cd 98 8b bd 93 7a 7e bd 5d a9 6c 3c f5 6c 02 bd
       -0.06816254 -0.062128615 0.014444676 -0.03184219
000160 a2 b1 f7 bc 23 4d 3c bd ac 5f 05 bd 1a f4 a9 3c
       -0.03023607 -0.045972 -0.032561943 0.02074628
000170 30 2a 20 bd 5b d2 b6 bd cc 9f cd bd 1d 4b 00 bc
       -0.039102733 -0.08926841 -0.100402445 -0.007830408
000180 ec e7 f7 bd 40 8a 0c bd b0 f6 91 3c 89 91 c2 bd
       -0.121047825 -0.034311533 0.017817825 -0.09500415
000190 98 10 f2 bd 0d bf f5 bd e8 55 b1 3c e2 70 15 bc
       -0.11819571 -0.11999331 0.021647409 -0.009121152
0001a0 1a 98 4c be 69 9f 38 be ad 93 35 be 6d 00 71 3d
       -0.19979897 -0.1802956 -0.17732115 0.058838297
0001b0 09 08 02 3c 27 38 77 be 7a d6 7d 3c 2b a0 01 be
       0.007936486 -0.24142514 0.01549303 -0.12658755
0001c0 9b 3b af bd 92 d3 10 bd 34 4b 17 be dd b5 6f bd
       -0.08556291 -0.03535802 -0.14774781 -0.058523048
0001d0 86 fc 7f bd 63 a5 9a 3d db bb 89 bd 71 24 19 bd
       -0.062496684 0.07551076 -0.06725284 -0.03738827
0001e0 f0 87 69 bd 36 04 16 bd 74 84 b9 bd 1e 1e 72 bb
       -0.057014406 -0.03662511 -0.090584666 -0.003694422
0001f0 42 35 ff 3b 91 57 80 bd 3d b4 31 3d 32 87 9e bd
       0.0077883312 -0.06266702 0.04338478 -0.0774063

weight f4 [12, 128]
000000 9f e5 c1 3c ab 8b 06 3d 4f e6 a8 3c eb 8e f0 3c
       0.023669062 0.03284804 0.020617632 0.029365024
000010 fa b6 e4 bb e1 21 64 3c 71 9e 17 3d d6 1a db 3c
       -0.0069798203 0.013924093 0.037016336 0.026746195
000020 6e 1c 68 bc 8f 8f 6e bb e0 8b 95 bc 9c 01 96 3c
       -0.014166934 -0.0036401486 -0.018255174 0.018311314
000030 1b f3 22 3b 9b 8b 57 bc 37 5c a2 bb d4 83 48 3d
       0.002486414 -0.013155843 -0.0049548405 0.048953846
000040 ea 27 40 3d 98 31 44 3c b1 1e 91 bd bc 8a 76 3d
       0.046913065 0.011974715 -0.07085932 0.0601909
000050 97 04 21 3d dc db 1c bd 65 98 04 3d 87 e3 d4 ba
       0.039311018 -0.03829561 0.032371897 -0.0016242125
000060 01 b7 58 3c 5c 74 d7 bc c0 de 53 bc 2d 6b cc bd
       0.013227225 -0.026300602 -0.012931526 -0.0998138
000070 25 03 23 bd 37 f6 2e 3d 28 f1 c4 bd b7 45 e5 bc
       -0.03979792 0.042715278 -0.096163094 -0.027987344
000080 1a 5f a2 3c ac 6e 3d 3d 13 13 ec 3d 79 bb 9d 3d
       0.019820739 0.046248123 0.115270756 0.07701773
000090 a3 07 80 bc 79 6c ec 3d 23 1a e2 bc 9f e4 74 bd
       -0.015628641 0.11544127 -0.027600354 -0.059788343
0000a0 07 fd c2 bb 71 df a8 3d 36 bf 29 3d 89 96 3e 3d
       -0.0059505734 0.08245743 0.04144212 0.04653028
0000b0 70 c0 13 3d 54 37 18 bc d7 8f e9 bb 5c 1f 47 bc
       0.036072195 -0.009290535 -0.0071277427 -0.012153473
0000c0 69 ba 24 bd 15 8e 62 3d 68 14 e9 bc ae 5a a7 3c
       -0.040216837 0.05531128 -0.028452113 0.020428982
0000d0 0b 96 11 3c e8 fb 4b 3b 6e 67 00 3d 13 67 b0 3a
       0.008885871 0.003112549 0.03134864 0.0013458453
0000e0 ee b9 80 3b 4a 8f de bc 7c 67 67 3d a2 e9 9d bc
       0.0039284145 -0.027167935 0.056495175 -0.019276444
0000f0 d8 2b 5a bd 08 b8 64 3d 93 84 88 bd 98 35 49 bd
       -0.05326447 0.05583957 -0.066659115 -0.049123377
000100 29 77 94 bc 95 90 66 bc 99 ba 42 bd cf 5f 9a bd
       -0.018123226 -0.014072557 -0.047541235 -0.07537805
000110 4b c2 a5 ba 60 d7 d7 3b 22 08 ce 3d ae e2 1f bd
       -0.0012646405 0.006586954 0.10060145 -0.039034538
000120 fd 47 8a 3c b3 99 0e bd 78 30 25 3d ca 59 53 3d
       0.01688003 -0.034814548 0.040329427 0.0515993
000130 34 22 58 bc 83 32 bd bc c8 59 25 bc 55 de 3d 3c
       -0.013191748 -0.023095375 -0.010092206 0.011588653
000140 32 39 07 3b fd 51 7d bb db 50 90 bd e9 4d ea bc
       0.0020633456 -0.0038653605 -0.07046672 -0.028601604
000150 48 42 44 3d 82 8d 10 bd bc 18 4b bd f1 ea 22 bc
       0.047914773 -0.035291202 -0.049584135 -0.00994371
000160 69 29 28 3d 46 95 49 bc f4 45 15 3d 91 1e 9d bc
       0.041055117 -0.012303656 0.036443666 -0.019179614
000170 c0 d2 4e bd 99 54 80 3a 86 76 91 bd 80 87 a2 bd
       -0.050493956 0.0009790837 -0.07102685 -0.07936001
000180 a5 0a a2 3d d2 c1 6e bc 50 13 8b 3c 45 2e 40 3d
       0.079121865 -0.014572578 0.016976982 0.046919126
000190 45 d3 1e 3d ca 3a 57 3b a4 71 6b ba 1f a3 07 bb
       0.0387757 0.0032841437 -0.00089814723 -0.0020696593
0001a0 62 6b 19 bd c8 9a bb 3c 5b 5c a7 3d bf 83 1a bd
       -0.037455924 0.022900954 0.08171912 -0.0377233
0001b0 25 0f 90 bb 01 67 e6 3c 3b ff 8d 3b 0f 9b 36 3d
       -0.0043963366 0.028125288 0.0043334044 0.04458147
0001c0 8a 17 72 bc 8c 54 1f bc 2e 4f 92 bc f7 3a a0 3c
       -0.01477612 -0.009724747 -0.017860021 0.019559367
0001d0 3a d7 d1 3c e5 ae 86 ba 6d 89 6e 3c 73 53 98 ba
       0.025615323 -0.0010275511 0.014559132 -0.001162155
0001e0 bf 7e 7c bc 2b 2c c9 3c 69 be 81 3b e9 6b 44 3d
       -0.015411078 0.024557194 0.0039594662 0.047954474
0001f0 0e 03 4e 3c 03 ae ae 3c 84 96 a9 bc 57 49 9a bc
       0.0125739705 0.02132321 -0.020701654 -0.0188338
000200 07 dc 81 bd 8e 70 b2 3b 87 63 66 3d ad 2e 81 3c
       -0.06340795 0.0054455465 0.05624726 0.015769327
000210 3e 9b 47 bc 87 e5 1c bc e2 90 8c 3c 43 62 13 3c
       -0.012183009 -0.009576208 0.01715893 0.008995595
000220 26 f9 af bc 96 0e 36 bd ea 40 01 bd 7e da 21 bc
       -0.021481108 -0.044447504 -0.031556047 -0.009878753
000230 e8 28 ea bc d3 39 9f 3b a6 7b 14 3c 9c 91 8c bd
       -0.028583959 0.004859188 0.009062683 -0.0686371
000240 19 3c 83 bc 5b 25 43 3d 0f 52 6c bc 57 f5 1a 3d
       -0.016019868 0.047643047 -0.014423861 0.03783163
000250 80 23 38 bd 89 05 e1 3c 61 5d 08 bc 6e 9e a4 3c
       -0.04495573 0.02746846 -0.0083230445 0.020095076
000260 39 eb 8b bd 19 81 2e bd 11 ac b7 3d 5c a7 69 3d
       -0.068319745 -0.042603586 0.08968366 0.057044372
000270 5b a6 a0 3c 02 cc 8a 3a e5 12 8c bc 6b 6e 8f bc
       0.019610574 0.0010589364 -0.017098853 -0.017508706
000280 8e e2 08 bc e1 de 02 bd d8 ee 80 bc 89 67 99 3d
       -0.008354796 -0.031950835 -0.01573889 0.07490451
000290 eb f9 ad 3c 25 4b f0 bc 30 94 be 3b e4 5f 7a 3c
       0.021237334 -0.029332707 0.005816005 0.015281651
0002a0 e1 8f b1 bc be 3d 8c 3b 54 e8 79 bd ef e4 e6 3c
       -0.021675052 0.004279821 -0.06101258 0.028185336
0002b0 91 75 0e bd 6b 07 59 3d d2 19 05 3d 4e f9 04 bd
       -0.03478009 0.05298559 0.032495327 -0.032464318
0002c0 6b 1a c2 3d 3c 1c 45 bd 91 2b b3 bc 51 68 58 3d
       0.09477695 -0.04812263 -0.02187136 0.05283386
0002d0 ff dd 2d 3d 38 61 67 3c 90 83 14 3c 06 52 3a 3d
       0.04244804 0.0141223 0.00906457 0.04548838
0002e0 e9 63 0e 3d 02 f8 c9 bc 00 8c 99 bc aa ea c6 3c
       0.03476325 -0.024654392 -0.018743515 0.024281818
0002f0 72 79 22 3d f4 fe e9 3c d8 48 37 3d 03 b3 98 bc
       0.0396666 0.028563954 0.044747204 -0.018640047
000300 fd 57 55 3c 6b ac fa 3c 02 6e 63 bb aa c5 92 ba
       0.013021466 0.030599793 -0.003470302 -0.0011197824
000310 64 39 1a bd fc 03 49 3b 3e 88 81 3d 50 c8 a5 3a
       -0.03765239 0.003067254 0.06324814 0.0012648199
000320 00 0a d2 bc a2 98 d3 3c cd e6 17 bc 96 ee c4 3d
       -0.025639534 0.025829617 -0.009271336 0.09615819
000330 47 f0 53 3c 73 4d a1 bd de 8f 81 bc c7 a6 65 3d
       0.012935705 -0.078761004 -0.015815672 0.056067254
000340 ec ec 6a 3d 3a 24 ae 3c 86 9b 34 3c 43 0b 8e 3c
       0.057354853 0.021257509 0.011023408 0.017339354
000350 10 e7 80 bd 41 0e 97 bc f6 e5 ca 3b 5a 05 bc bc
       -0.06294072 -0.018439414 0.0061919643 -0.02295177
000360 d0 8a 53 bd a5 64 7a 3d 91 1a 93 bc 89 cd 4d bb
       -0.051646054 0.06113114 -0.017957004 -0.0031403026
000370 3f 74 61 bd bf c8 ab 3b ef 9e 45 3b 4d 3c fd bb
       -0.0550425 0.0052424367 0.0030154546 -0.0077281357
000380 a0 a9 0a bd 40 71 15 bd 92 1a 13 3c b5 c2 82 bd
       -0.033853173 -0.036484957 0.008978503 -0.06384794
000390 73 fb df bc c2 15 ee bc cd c7 a5 3c 90 a9 59 3d
       -0.02734158 -0.02906311 0.020236874 0.053140223
0003a0 89 df 15 3d 58 6c 91 3c 89 5b 24 bd a3 ac 63 3d
       0.036590133 0.017751858 -0.040126357 0.05558456
0003b0 4d b7 45 3d 2c 38 96 bd 76 fc 78 3d 7a c6 9f 3d
       0.048270512 -0.07334933 0.06078764 0.07801528
0003c0 70 22 d9 3c e5 c0 72 3c e6 00 45 bc 41 83 f6 3c
       0.026505679 0.014816497 -0.01202414 0.030091884
0003d0 51 e6 84 bd d8 b5 b1 bc d1 ec 37 3d f2 09 68 bd
       -0.06489242 -0.021693155 0.04490358 -0.05665011
0003e0 94 41 06 3d f6 cd 42 3c ef 0b 22 bd db 9b 37 bd
       0.032777384 0.011889925 -0.039562162 -0.04482637
0003f0 db 21 43 3d 7a 4c c0 3c fa 42 1f bd cd 45 63 bb
       0.04763971 0.023473967 -0.038882233 -0.0034679056

bias f4 [12]
000000 57 c7 0f be 5a 1c 13 3d bb 38 03 be 43 31 25 3e
       -0.14040886 0.03591571 -0.1281461 0.16132073
000010 33 b5 b5 bc b5 d6 19 3c 08 28 b4 bb d0 91 4e 3c
       -0.02218113 0.009389569 -0.005497936 0.012608007
000020 b3 08 c0 3d 40 81 d6 3d 58 79 3f 3e 0e 8e 20 3e
       0.09376659 0.10473871 0.18698633 0.1567919
