assets/rslrl_ppo_7B_policy.pt (torch, 775648 bytes, 8 tensors)

weight f4 [512, 48]
0	0x3ebe7616	0.37199467
1	0x3e3a6b5e	0.1820502
2	0xbefc0374	-0.49221385
3	0xbddfdfaa	-0.109313324
4	0x3e8db4bd	0.27676955
5	0x3d74894d	0.059701253
6	0x3f77f01e	0.96850765
7	0xbf8bce9a	-1.0922425
8	0x3e8f5e82	0.2800179
9	0xbdce954e	-0.10087071
10	0xbdba544f	-0.09098112
11	0xbecab1d7	-0.39588806
12	0xbeeda13f	-0.46412084
13	0xbf053cb2	-0.5204574
14	0xbd99199e	-0.07475589
15	0xbe875f66	-0.2643997
16	0x3e2030bb	0.15643589
17	0x3ec29c2f	0.38009784
18	0x3d849291	0.06473268
19	0xbea1dcd2	-0.31613785
20	0x3d7ad398	0.061236948
21	0xbe1c6706	-0.15273675
22	0xbf0b9c4c	-0.54535365
23	0xbe7dcc54	-0.24784976
24	0x3ccfc30a	0.025361557
25	0xbd52bc91	-0.051449362
26	0xbd5ecb0e	-0.054392867
27	0x3cbc5476	0.022989493
28	0x3cf744e4	0.030184217
29	0x3c358e92	0.011081355
30	0x3cfc0d9c	0.030768208
31	0xbdb6fa1b	-0.089344226
32	0x3c4c26e2	0.012460442
33	0x3d1e2709	0.038611446
34	0x3d098b88	0.033580333
35	0xbcb60718	-0.02222018
36	0xbe1e34af	-0.15449785
37	0x3e0d657a	0.13808241
38	0xbda1fd05	-0.07909588
39	0x3e07b908	0.13254178
40	0x3e1a64aa	0.15077463
41	0x3d8adade	0.06780027
42	0x3c706500	0.014672518
43	0x3a4c210b	0.0007786906
44	0xbdbcf66a	-0.09226687
45	0xbded5f65	-0.11590461
46	0xbdbe94c7	-0.09305721
47	0x3d3c5b4d	0.04598551
48	0x3dddcb99	0.10829849
49	0x3e026383	0.12733273
50	0x3eae1d1d	0.34006587
51	0xbe09e9c8	-0.13468087
52	0x3dfff016	0.12496965
53	0xbcf75097	-0.030189795
54	0x3f47310e	0.77809227
55	0x3fadb990	1.3572254
56	0x3e7f8436	0.24952778
57	0x3e83da50	0.25752497
58	0xba9b587e	-0.0011851934
59	0xbe4ffc9f	-0.20311211
60	0xbf585664	-0.8450682
61	0xbf5b34b0	-0.8562727
62	0x3e2ad3f0	0.1668241
63	0xbecd958e	-0.40153164
64	0x3e5d0c24	0.21586663
65	0xbe40a712	-0.18813732
66	0xbd7cd510	-0.06172663
67	0x3eb6c8eb	0.35700163
68	0x3f189088	0.5959554
69	0xbc4bde90	-0.0124432
70	0xbe8a0dd1	-0.26963666
71	0x3e182cb2	0.148608
72	0x3c8b4cf1	0.017004462
73	0xbceb1d6d	-0.028700555
74	0x3bd696a5	0.00654872
75	0xbd0beb31	-0.034159843
76	0xbdd87610	-0.10569394
77	0x3c8ce582	0.017199282
78	0x3d448467	0.04797783
79	0x3d6d4334	0.057925418
80	0xbce47704	-0.027888782
81	0x3c4d7d08	0.012542017
82	0x3d2c488d	0.042061377
83	0x3946c4a6	0.00018956009
84	0x3c2bae65	0.010478591
85	0xbda9a7ad	-0.08283935
86	0xbdd4ec6a	-0.10396655
87	0xbd12550d	-0.035725642
88	0x3dee357d	0.11631296
89	0x3ca59676	0.020213347
90	0xbd9a037d	-0.075201966
91	0x3d86e32e	0.065863
92	0xbb86ff6c	-0.004119804
93	0x3dc0586c	0.09391865
94	0x3ceed0b6	0.029152256
95	0x3dd20a46	0.10255866
96	0x3e645d2e	0.2230117
97	0x3e473858	0.19455087
98	0x3e124c2e	0.14286873
99	0x3e26682d	0.16250677
100	0xbe4681a8	-0.19385397
101	0xbda41bc5	-0.08013109
102	0xbec4d3a4	-0.3844272
103	0x3f131764	0.57457566
104	0xbc8ccd4c	-0.017187737
105	0x3e462abe	0.19352242
106	0xbe3f454c	-0.18678778
107	0x3dbd4058	0.09240788
108	0x3eb8de66	0.36107177
109	0x3efc070c	0.49224126
110	0xbea6baf6	-0.32564515
111	0x3e85175b	0.2599438
112	0x3e8916d6	0.26775235
113	0xbeeecfab	-0.46642813
114	0x3d99bf7b	0.07507225
115	0x3ed23d46	0.41062373
116	0x3ec4e40b	0.38455233
117	0x3eb3eb52	0.35140473
118	0x3f2c7ec7	0.67380947
119	0x3dadc641	0.084850796
120	0x3cdfe66a	0.02733155
121	0xbc22b74c	-0.009931397
122	0xbcddacc0	-0.027059913
123	0x3d7fd134	0.06245537
124	0x3de02869	0.109452076
125	0xbe7b496f	-0.24539731
126	0x3d4e3528	0.050343663
127	0xbd633af1	-0.055476133
128	0xbc6b2611	-0.014352337
129	0xbd92ea9a	-0.07173653
130	0x3d0ead83	0.034833442
131	0x3c8f8b33	0.01752243
132	0xbd2a048b	-0.04150824
133	0x3de1426d	0.10998998
134	0xbe0da92d	-0.13834067
135	0x3ddd2c50	0.107994676
136	0xbd5b47ed	-0.05353539
137	0x3ce05d1b	0.027388146
138	0xbd4087ae	-0.047004394
139	0x3d81c3af	0.06336152
140	0xbd822cf0	-0.063562274
141	0x3de639be	0.11241482
142	0xbca62c3e	-0.020284768
143	0xbd068f1e	-0.03285133
144	0x3c0e1e18	0.008674167
145	0xbecc1d69	-0.39866188
146	0xbf12b40c	-0.5730598
147	0xbcfa2b20	-0.030538142
148	0xbe4774e3	-0.19478182
149	0x3e5ac4aa	0.21364084
150	0x3f98c654	1.1935525
151	0xbe390bfc	-0.18070978
152	0xbc73607e	-0.0148545485
153	0xbc315094	-0.010822434
154	0x3d211393	0.039325308
155	0x3db7bd1b	0.08971616
156	0xbf184dc3	-0.59493655
157	0x3e28cb6f	0.16483854
158	0xbebecc71	-0.3726535
159	0x3f2bfc36	0.6718172
160	0xbd4fcfb1	-0.05073518
161	0x3eda2676	0.42607468
162	0x3e095603	0.13411717
163	0xbeb26a3d	-0.34846678
164	0xbe6e6bf1	-0.23283364
165	0xbe5b8ba0	-0.21439981
166	0xbd320275	-0.043459374
167	0x3d64161d	0.05568515
168	0xbd478f83	-0.048720848
169	0x3d3e52e8	0.046465784
170	0xbe225e22	-0.15856221
171	0x3d8dd5b2	0.06925525
172	0xbc92a5e3	-0.017901367
173	0x3db17b58	0.08666104
174	0xbe170a47	-0.14750014
175	0xbccc8fa7	-0.024970843
176	0x3ce706e3	0.028201526
177	0x3cd51131	0.026009174
178	0xbd056087	-0.03256276
179	0xbd26e581	-0.040746216
180	0x3e2faddd	0.17156167
181	0xbe211e01	-0.15734102
182	0x3e864a58	0.26228595
183	0xbcde120b	-0.027108213
184	0xbcf4db8f	-0.02988985
185	0xbe41bace	-0.18918917
186	0x3cb0869a	0.021548558
187	0x3e41cd51	0.18925978
188	0x3c9eb58a	0.019373674
189	0x3e85c6da	0.26128274
190	0x3caad8fe	0.020855423
191	0xbd107857	-0.035271015
192	0xbe9b923a	-0.30385
193	0xbdbcfa1a	-0.092273906
194	0xbef6a318	-0.48171306
195	0xbcf14a29	-0.029454308
196	0x3df61c6f	0.12017142
197	0xbd07746f	-0.033070024
198	0x3f379b66	0.71721494
199	0xbf1f8bcb	-0.6232268
200	0xbe3bf19e	-0.18353888
201	0xbb1309bd	-0.0022436224
202	0x3ea57d82	0.32322317
203	0xbe5ea76a	-0.21743551
204	0xbee606e3	-0.4492713
205	0x3f02b894	0.51062894
206	0x3e545f75	0.20739539
207	0xbdf39028	-0.1189273
208	0x3e45ec76	0.19328484
209	0xbe4d2425	-0.2003332
210	0xbcc074c1	-0.023493173
211	0xbe28fea0	-0.16503382
212	0x3f072f1e	0.5280627
213	0x3ee717a9	0.4513524
214	0xbe860ebd	-0.2618312
215	0x3b9bd3dd	0.0047554807
216	0x3d814e31	0.06313742
217	0x3d918e2a	0.07107194
218	0xbe187c93	-0.14891271
219	0x3d2feb2f	0.042948898
220	0x3d05ee10	0.032697737
221	0x3dd5d323	0.10440662
222	0xbc83f6e4	-0.016108938
223	0xbc331774	-0.010930885
224	0x3d10ed4c	0.035382554
225	0xbc8fd88c	-0.017559312
226	0x3c8c06dc	0.017093115
227	0xbd95bb24	-0.07311085
228	0x3d90d8d6	0.07072608
229	0xbe2874b4	-0.16450769
230	0x3d4bce3c	0.049757227
231	0xbbd162c4	-0.0063899476
232	0x3d7a1afe	0.061060898
233	0xbd23b344	-0.039965883
234	0xbddb9d67	-0.107233815
235	0x3ccd5fac	0.025070034
236	0xbd2e9f18	-0.042632192
237	0x3db5e4f1	0.08881558
238	0xbd8752d4	-0.06607595
239	0x3daf6ca6	0.08565645
240	0x3e638a28	0.22220671
241	0xbdc48a98	-0.09596747
242	0xbf59344e	-0.84845436
243	0x3de13fe4	0.10998514
244	0x3e81f3f9	0.2538145
245	0x3e9d7bf6	0.30758637
246	0x402cecc4	2.701951
247	0xbfab4c6d	-1.3382698
248	0xbc17bca3	-0.009261283
249	0x3d9463ac	0.072455734
250	0x3e0f4035	0.13989337
251	0xbe57180b	-0.21005265
252	0xbe3521e4	-0.1768871
253	0x3dfe0155	0.12402598
254	0xbdc11309	-0.09427459
255	0x3f1ced5c	0.6129968

bias f4 [512]
0	0xbdffd0b0	-0.12490976
1	0xbda91202	-0.08255388
2	0x3dd64d84	0.10464004
3	0xbd16609b	-0.036713224
4	0x3e065f71	0.13122346
5	0xbd955efd	-0.07293508
6	0x3e44fa2f	0.19236062
7	0x3e07342f	0.132035
8	0x3d6d8263	0.057985675
9	0xbe2495dc	-0.16072792
10	0x3e2edc6a	0.17076269
11	0x3dd3f880	0.10350132
12	0x3d2cc919	0.04218397
13	0xbd64676d	-0.055762697
14	0xbe0517db	-0.12997381
15	0x3e112ad4	0.14176494
16	0xbe22c5fc	-0.15895838
17	0x3de4c0ae	0.11169563
18	0xbde7286a	-0.11287005
19	0x3dfb1cf8	0.12261385
20	0x3e00543b	0.12532131
21	0xbb88b7aa	-0.004172285
22	0xbdf9a46c	-0.12189564
23	0xbe17d652	-0.1482785
24	0x3df9efad	0.12203918
25	0x3de27579	0.110575624
26	0xbe03061b	-0.12795298
27	0xbd3582fa	-0.044314362
28	0x3e87b04a	0.26501685
29	0xbe50bccb	-0.20384519
30	0x3d980eff	0.07424735
31	0x3d930162	0.07177998
32	0x3e1b527d	0.15168186
33	0x3dc7e51e	0.097604975
34	0xbe14993e	-0.14511582
35	0x3cef39da	0.02920239
36	0xbe52b454	-0.20576602
37	0xbe2570ba	-0.16156283
38	0xbe45715a	-0.19281521
39	0xbca71ebd	-0.0204004
40	0x3d9cf799	0.07664413
41	0xbe6ff740	-0.23434162
42	0xbda02445	-0.07819418
43	0x3e5c8b7b	0.21537583
44	0xbeaad30d	-0.33364144
45	0x3e8a6c67	0.2703583
46	0x3cf11b6f	0.029432027
47	0xbc667aa5	-0.014067327
48	0xbd172606	-0.036901496
49	0xbedc8b89	-0.43075207
50	0xbbb6a8a9	-0.005574305
51	0x3b0b001a	0.0021209777
52	0xbe8b0095	-0.27148882
53	0x3dd7aa5a	0.10530539
54	0x3b9fe227	0.0048792544
55	0xbe597f92	-0.2124007
56	0x3c29c6a9	0.010362306
57	0x3bc9e7b2	0.0061616534
58	0x3d7ceb65	0.061747927
59	0xbe728652	-0.23684052
60	0x3e58c72a	0.21169725
61	0xbde2acef	-0.11068141
62	0x3bc6d09a	0.0060673477
63	0xbd9f566f	-0.07780158
64	0xbe925479	-0.28580073
65	0xbe9a3bca	-0.3012374
66	0x3c2d9617	0.010594866
67	0x3e360461	0.17775108
68	0xbd53f54d	-0.05174761
69	0xbe031dd8	-0.12804353
70	0xbe8161f8	-0.25270057
71	0xbe11a5ec	-0.1422345
72	0x3e80183d	0.25018492
73	0x3e0d2391	0.13783099
74	0xbe3f7bc9	-0.18699564
75	0xbdf04430	-0.11731756
76	0x3e1d5384	0.1536389
77	0x3dfbac69	0.12288744
78	0xbe34d373	-0.17658786
79	0xbe2be0b7	-0.1678494
80	0xbd7507ba	-0.05982182
81	0xbe82a5b3	-0.25517043
82	0x3e1137a7	0.14181386
83	0xbb85feeb	-0.0040892265
84	0xbd1eeffa	-0.03880308
85	0xbe2d1149	-0.16901125
86	0xbe579b4f	-0.2105534
87	0xbe029edc	-0.12755913
88	0xbd38612d	-0.04501455
89	0x3d11519f	0.03547823
90	0x3d0d3088	0.03447011
91	0x3db4f796	0.08836286
92	0xbe52ef2f	-0.20599054
93	0x3e084eda	0.1331133
94	0xbe2023b9	-0.15638627
95	0xbcd2b340	-0.025720239
96	0x3e0cced3	0.13750772
97	0xbca4d14b	-0.02011933
98	0xbd07800d	-0.033081103
99	0xbd9e40f0	-0.077272296
100	0x3d211020	0.03932202
101	0xbd6f939a	-0.058490373
102	0xbeabf4dd	-0.33585253
103	0x3c250f13	0.010074395
104	0x3d97fc94	0.07421222
105	0x3dcf0fa0	0.10110402
106	0x3d9874fb	0.07444187
107	0xbc09e262	-0.00841579
108	0x3da50a95	0.08058659
109	0xbd11f71c	-0.035636052
110	0xbe87db41	-0.26534465
111	0xbde4ca26	-0.11171369
112	0xbda8b259	-0.08237142
113	0x3d8c9d01	0.068658836
114	0xbe0e8ae2	-0.13920167
115	0x3d230cfa	0.039807297
116	0xbea0ea4d	-0.31428757
117	0x3c2d830f	0.010590329
118	0x3e9f8fa5	0.3116428
119	0xbd9930a4	-0.074799806
120	0xbe478d49	-0.1948749
121	0x3d7a95c6	0.06117799
122	0xbe5e76ac	-0.21724957
123	0xbe03ffe5	-0.12890585
124	0x3bf956d6	0.0076092286
125	0xbe3c86ba	-0.18410769
126	0x3e0f03b2	0.13966253
127	0xbd825005	-0.06362919
128	0x3d1fb14c	0.038987443
129	0xbd874986	-0.0660582
130	0x3ddd48fd	0.10804937
131	0x3df91e48	0.12163979
132	0x3df7475d	0.12074158
133	0xbe4bf94d	-0.1991932
134	0x3e3806ab	0.17971294
135	0xbd494d99	-0.04914627
136	0x3e77ae2c	0.24187535
137	0x3dca7afa	0.09886737
138	0x3e3538d1	0.17697455
139	0x3e215ca1	0.15757991
140	0xbdac61c9	-0.084170885
141	0xbe14a1a9	-0.14514793
142	0x3cb44fed	0.022010768
143	0xbd7bbf35	-0.061461646
144	0xbe13ed35	-0.14445956
145	0xbd8cf714	-0.06883064
146	0x3babd3f3	0.005243772
147	0xbd16c846	-0.03681209
148	0xbdc65e7b	-0.096859895
149	0x3dae4b7c	0.08510491
150	0x3e81af9a	0.25329286
151	0xbe4e7ecc	-0.20165557
152	0x3e11b8aa	0.142306
153	0x3c6f8444	0.014618937
154	0x3d4cca8b	0.049997848
155	0x3e6d7ce7	0.23192178
156	0x3d8cc916	0.068742916
157	0x3cc30267	0.023804856
158	0x3df7433e	0.12073372
159	0xbdff673c	-0.12470862
160	0xbe41b2a9	-0.1891581
161	0xbd2692aa	-0.040667213
162	0xbd837ead	-0.06420646
163	0xbe3d7789	-0.1850263
164	0x3d1b92e2	0.037981875
165	0xbe55b9b7	-0.20871626
166	0xbddb29c6	-0.10701327
167	0xbd89ee16	-0.067348644
168	0x3e6cfbe0	0.23142958
169	0xbd222a8c	-0.039591357
170	0x3df61cc2	0.12017204
171	0x3cd8b9ad	0.026455725
172	0xbe913088	-0.2835734
173	0xbe31d566	-0.17366561
174	0xbe081307	-0.13288508
175	0x3d1a0660	0.037603736
176	0x3c16139a	0.009159947
177	0xbe35ea50	-0.17765164
178	0x3c2cbc15	0.010542889
179	0x3df608f3	0.12013426
180	0x3daef77e	0.08543299
181	0xbe1e04f0	-0.15431571
182	0x3e832735	0.2561585
183	0x3e09e422	0.13465932
184	0xbca15896	-0.019695561
185	0xbe290fdd	-0.16509958
186	0x3d7bb2cf	0.061449822
187	0xbdf57b2c	-0.11986384
188	0xba49902c	-0.0007689025
189	0xbe0f834f	-0.14014934
190	0xbea79700	-0.3273239
191	0x3d56c5b8	0.052434653
192	0x3e69f0bf	0.22845744
193	0xbddd492f	-0.10804974
194	0x3e55bc96	0.20872721
195	0x3d9713eb	0.07376846
196	0x3e35c978	0.17752635
197	0xbd9e5a31	-0.077320464
198	0x3cde053f	0.02710211
199	0xbd3fe9ca	-0.046853818
200	0xbdd7b141	-0.105318554
201	0xbc945def	-0.018111197
202	0xbd086924	-0.033303395
203	0x3b2f5d1a	0.0026758374
204	0xbe8e4903	-0.2779008
205	0x3e08fbc2	0.13377288
206	0xbd898e9e	-0.06716655
207	0x3dece354	0.11566797
208	0xbe20c84f	-0.15701412
209	0xbdee52e7	-0.11636906
210	0xbe3cdc9c	-0.18443531
211	0xbe97808b	-0.29590258
212	0x3c213c30	0.00984101
213	0xbdb1af87	-0.08676057
214	0x3d7a2bd0	0.06107694
215	0xbe08cb88	-0.13358891
216	0xbd193cd0	-0.03741151
217	0x3dd0ac9e	0.10189174
218	0x3e3611af	0.17780183
219	0x3d17fc51	0.037105862
220	0xbe59b965	-0.21262129
221	0xbdb08f72	-0.0862111
222	0xbe57bd02	-0.21068195
223	0xbd4c6f24	-0.04991068
224	0xbe39ff8b	-0.18163888
225	0xbbeeea8c	-0.0072911438
226	0x3d4d6995	0.05014952
227	0x3e04feb4	0.12987787
228	0x3dbd2049	0.092346735
229	0x3d0da527	0.03458133
230	0x3ec75994	0.3893553
231	0x3be79d76	0.0070683314
232	0x3db4e123	0.08832004
233	0xbe520e31	-0.20513226
234	0xbe808cfe	-0.25107569
235	0x3e05c372	0.13062838
236	0xbd812929	-0.06306679
237	0xbe3153d9	-0.17317142
238	0xbdb88393	-0.09009471
239	0x3e03aa64	0.12857968
240	0xbe1f8ffe	-0.15582272
241	0xbc85620a	-0.0162821
242	0xbe23d3cc	-0.15998763
243	0xbd41c8e4	-0.047310725
244	0x3d256dd5	0.040387947
245	0xbcd6de11	-0.026228936
246	0xbe347dd4	-0.17626125
247	0xbe62cd6b	-0.22148673
248	0xbd048f54	-0.03236325
249	0x3d88c7f1	0.06678761
250	0x3d37201b	0.044708353
251	0x3b1b1aa7	0.002366701
252	0x3e031142	0.12799552
253	0x3e09d3b6	0.13459668
254	0xbd5fb13d	-0.054612387
255	0x3cff9f85	0.031203995

weight f4 [256, 512]
0	0xbaea10d7	-0.0017857802
1	0xbd72f5e1	-0.05931652
2	0xbd85abbf	-0.065268986
3	0xbe7092e2	-0.23493531
4	0xbd913361	-0.07089878
5	0xbdefdcae	-0.11712013
6	0x3bd7f015	0.0065898993
7	0xbdad29cb	-0.08455237
8	0xbdebc4e0	-0.1151216
9	0xbbaf12dd	-0.005342825
10	0x3c87f8c0	0.016598105
11	0xbdc4a658	-0.0960204
12	0xbda91be9	-0.082572766
13	0x3a291c08	0.00064510154
14	0xbd0048ea	-0.031319536
15	0xbe508f40	-0.20367146
16	0xbd5de0b7	-0.054169383
17	0x3cac351a	0.021021415
18	0xbd350645	-0.044195432
19	0xbe0e8f97	-0.13921963
20	0xbe8c12e7	-0.2735817
21	0x3cb0517f	0.021523235
22	0x3d3f8bd5	0.046764214
23	0xbd896b24	-0.067098886
24	0xbc6254af	-0.013814135
25	0xbdb416a5	-0.087933816
26	0x3be44827	0.006966609
27	0xbdd5d2ec	-0.10440621
28	0x3d1572b7	0.036486354
29	0xbcc28427	-0.023744656
30	0xbdb28b69	-0.087179966
31	0x3d18d2ac	0.037310287
32	0xbd2ac7a6	-0.041694306
33	0xbd0a4c05	-0.033763904
34	0xbc4822be	-0.012215314
35	0x3b97dd03	0.004634501
36	0xb9db3a87	-0.0004181454
37	0x3dd1cc57	0.10244053
38	0x3c817a78	0.015805468
39	0xbbcec822	-0.006310479
40	0xbe1fb956	-0.15598044
41	0x3d44c7ee	0.04804223
42	0x3cea70e5	0.028618285
43	0x3d4316e2	0.047629245
44	0xbc9c786b	-0.019100389
45	0xbe1ecfb6	-0.15508923
46	0xbd6fecb3	-0.058575343
47	0x3cd7ac32	0.026327226
48	0x3a047795	0.00050532195
49	0xba88f995	-0.0010450358
50	0xbde8b4f8	-0.11362642
51	0xbbf803bd	-0.007568805
52	0x3e2576d9	0.16158618
53	0xbd8548fb	-0.065080605
54	0x3c81f29b	0.015862754
55	0xbd2cd96f	-0.04219955
56	0xbd27e68f	-0.040991362
57	0x3c84c136	0.016205411
58	0xbdce936b	-0.100867115
59	0x3d881e60	0.066464186
60	0xbe750321	-0.23926975
61	0x3d53445f	0.051578876
62	0xbe27720b	-0.16352098
63	0x3bc779c2	0.0060875127
64	0x3d4f5521	0.050618295
65	0xbd0f82d1	-0.035036866
66	0x3d6d395c	0.05791603
67	0xbde50c8c	-0.11184034
68	0x3c509d7b	0.012732859
69	0x39b8a360	0.0003521694
70	0x3d7d1c3c	0.061794505
71	0xbd965872	-0.07341088
72	0xbc503ca8	-0.012709774
73	0xbe4c2ebb	-0.19939701
74	0x3d838f0f	0.06423771
75	0x3cd10b81	0.02551818
76	0xbd5b54b4	-0.053547576
77	0xbce2a652	-0.027667198
78	0x3c32010c	0.010864507
79	0x3d12f788	0.035880595
80	0xbe0bee1a	-0.13665047
81	0xbc65ca09	-0.01402522
82	0xbe5ea50d	-0.2174265
83	0x3c75c65b	0.015000905
84	0x3d5f6060	0.05453527
85	0x3e13e82e	0.14444038
86	0xbdcea14f	-0.10089361
87	0xbe103876	-0.14084038
88	0xbe80124c	-0.2501396
89	0xbd9e3dbf	-0.07726621
90	0xbcff50ce	-0.03116646
91	0x3ba64a74	0.0050747935
92	0xbd9283c6	-0.0715404
93	0x3d9b2478	0.07575315
94	0x3d2432fc	0.040087685
95	0x3b48a55c	0.003061614
96	0x3d362c58	0.044475883
97	0x3c16c477	0.009202114
98	0xbca46e4d	-0.020072127
99	0x3d37b7ff	0.044853207
100	0xbe08d3f4	-0.13362104
101	0xbe7f3877	-0.24923883
102	0xbdb2e0e7	-0.08734303
103	0x3d15152c	0.036397144
104	0xbdbf0297	-0.09326666
105	0xbcad6617	-0.021166844
106	0xbd53f66a	-0.05174867
107	0x3c8ca4c7	0.017168416
108	0x3df6e331	0.12055052
109	0xbe217882	-0.15768626
110	0xbd50e63b	-0.051000815
111	0xbd42cf22	-0.04756082
112	0x3ad6860b	0.0016366852
113	0xbda9c4ee	-0.082895145
114	0xba5f4d7e	-0.0008518322
115	0xbdc4097e	-0.09572123
116	0xbd809667	-0.06278687
117	0xbcdced28	-0.026968554
118	0xbe0af1a8	-0.13568747
119	0x3e170579	0.14748181
120	0x3d8aab9d	0.06771014
121	0xbc2729f7	-0.010202876
122	0xbde47d7d	-0.111567475
123	0xbca9da05	-0.020733843
124	0xbd5181c1	-0.051149134
125	0xbd9c333e	-0.07626961
126	0xbdfbc922	-0.122942224
127	0x3c1cc4a1	0.009568364
128	0xbe1b822e	-0.15186378
129	0xbdc54f13	-0.09634223
130	0xbdb468b4	-0.08809033
131	0xbe0783da	-0.13233891
132	0xbe124922	-0.1428571
133	0x3d5e7adf	0.054316398
134	0xbdf1181a	-0.11772175
135	0xbe136684	-0.14394575
136	0xbd6c4ad7	-0.05768856
137	0xbdaa6608	-0.08320242
138	0xbd4007dc	-0.046882495
139	0xbda0b192	-0.07846369
140	0xbcf75501	-0.0301919
141	0x3e08b94b	0.13351934
142	0x3c3745af	0.011186047
143	0x3ce2169d	0.027598673
144	0x3d1d630e	0.038424544
145	0x3d15b300	0.03654766
146	0xbd65eb12	-0.056132384
147	0x3d5e9aa3	0.05434669
148	0xbdc18cfc	-0.09450719
149	0xbdc96385	-0.09833435
150	0xbe07fd3a	-0.13280192
151	0xbe1f2a07	-0.15543376
152	0xbc237fd7	-0.00997921
153	0x3d542d99	0.051801298
154	0x3dadd58d	0.08487997
155	0xbe535ed9	-0.2064165
156	0xbda85a9f	-0.082204096
157	0xbdc1f78a	-0.094710425
158	0xbd9cc895	-0.076554455
159	0xbdd8acaa	-0.10579808
160	0xbd8d96ef	-0.06913554
161	0x3d2075de	0.039174907
162	0xbd0c5b66	-0.03426685
163	0x3dc139e3	0.09434869
164	0xbd1fbd8c	-0.038999125
165	0x3d3310de	0.043717258
166	0x3d84a76f	0.06477248
167	0x3d695cec	0.056973383
168	0x3c37ced0	0.011218742
169	0xbc11cea2	-0.008899363
170	0xbe15353b	-0.14571087
171	0x3d80eb92	0.062949315
172	0xbd6b429a	-0.057436563
173	0x3ceee1e6	0.029160451
174	0xbd5bb56a	-0.053639807
175	0xbd3cb531	-0.046071235
176	0xbda7487b	-0.081681214
177	0xbdb6219d	-0.0889313
178	0x3d7443e4	0.059635058
179	0xba271c66	-0.0006374776
180	0xbd11af29	-0.035567436
181	0xbdadb86e	-0.08482443
182	0xbc2311fe	-0.00995302
183	0x3db0d5f9	0.08634562
184	0xbdd344b7	-0.10315841
185	0xbe22aad8	-0.15885484
186	0xbd9aa831	-0.07551611
187	0xbd051bf7	-0.032497372
188	0xbe5c469f	-0.21511315
189	0x3c348d39	0.011019998
190	0x3e006360	0.12537909
191	0x3cb5411e	0.022125777
192	0xbe697183	-0.22797208
193	0xbe0370fa	-0.12836066
194	0xbd8097c9	-0.06278951
195	0xbe34bcb3	-0.17650108
196	0xbd2c9c23	-0.04214109
197	0x3cf8c05c	0.030365162
198	0xbc525594	-0.012837786
199	0xbe0d24a0	-0.13783503
200	0xbdab8221	-0.083744295
201	0xbd4c3327	-0.04985347
202	0xbdb42834	-0.08796731
203	0xbb8798c2	-0.004138083
204	0xbd890fec	-0.0669249
205	0xbdb7085d	-0.08937142
206	0x3cc98788	0.02460076
207	0xbe4f13e5	-0.20222433
208	0xbe5753b9	-0.21028031
209	0xbc332934	-0.010935117
210	0xbc041679	-0.0080619985
211	0xbd187a79	-0.037226174
212	0x3dbebc02	0.093132034
213	0x3d680448	0.056644708
214	0xbd8ea1ea	-0.069644764
215	0x3d1034ea	0.035206713
216	0x3ce76d68	0.028250411
217	0xbdc59974	-0.096484095
218	0xbe086de8	-0.13323176
219	0xbe0f5d3f	-0.14000414
220	0xbc11c12c	-0.008896153
221	0xbd5b8687	-0.053595092
222	0xba86da72	-0.001028849
223	0xbdde6062	-0.10858227
224	0xbc57c4c3	-0.01316947
225	0xbc9ae870	-0.018909663
226	0xbea49448	-0.3214438
227	0xbde7c66f	-0.11317145
228	0xbdedced3	-0.11611714
229	0xbc9e76d3	-0.01934377
230	0xbd9d2346	-0.076727435
231	0x3d127cfc	0.035763726
232	0xbe21d961	-0.1580558
233	0xbca1fb9f	-0.019773303
234	0x3e1d41e7	0.15357171
235	0xbd5a6aad	-0.05332439
236	0xbdefcdf3	-0.117092036
237	0xbe084972	-0.13309267
238	0x3d7cf0e7	0.06175318
239	0xbe0ad632	-0.13558272
240	0xbd217fda	-0.03942857
241	0xbd1d82c7	-0.038454797
242	0x3b8e0f39	0.004335311
243	0xbde91b33	-0.11382141
244	0xbeaa6f35	-0.3328797
245	0xbc9be6e7	-0.019031001
246	0xbab3a57f	-0.0013705938
247	0xbd821f9b	-0.063536845
248	0xbdf8fab0	-0.1215719
249	0xbd8954d3	-0.06705632
250	0xbb5831f0	-0.003298875
251	0xbdc04e79	-0.093899675
252	0xbdf87017	-0.121307544
253	0xbe681139	-0.2266282
254	0x3ca39dea	0.01997276
255	0xbe03ef80	-0.12884331

bias f4 [256]
0	0xbd88368b	-0.06651028
1	0xbdac7b23	-0.08421924
2	0xbd87863f	-0.06617402
3	0xbe79c2fd	-0.24390788
4	0x3d57ff31	0.052733604
5	0xbe33d34d	-0.17561074
6	0x3bb7b9a5	0.0056068473
7	0xbdb1dab2	-0.08684291
8	0xbdbc3070	-0.09188926
9	0xbe836611	-0.25663808
10	0xbda8e9c1	-0.0824771
11	0xbc859607	-0.01630689
12	0x3cd36164	0.025803275
13	0xbd9dee75	-0.07711498
14	0xbd89bebd	-0.067258336
15	0x3d49acb3	0.049236964
16	0xbd9094e2	-0.07059647
17	0xbd123b20	-0.035700917
18	0xbe41dc56	-0.18931708
19	0xbe0c3522	-0.13692144
20	0xbdfc5c0f	-0.12322246
21	0xbdca4ea6	-0.09878282
22	0xbe365ad8	-0.17808092
23	0x3daf2a0a	0.0855294
24	0xbd8dc29b	-0.06921884
25	0xbdab45a7	-0.083628945
26	0xbd36978c	-0.04457812
27	0xbd8f62dd	-0.070012785
28	0xbd18978d	-0.037253905
29	0xbd8c0e78	-0.06838697
30	0xbd5db086	-0.054123424
31	0xbd4c0248	-0.049806863
32	0xbda4246b	-0.08014759
33	0xbe40e063	-0.18835597
34	0xbdbc092a	-0.091814354
35	0xbda0b10d	-0.0784627
36	0xbdbcf6a3	-0.0922673
37	0xbe256eaf	-0.16155504
38	0xbda43de4	-0.08019617
39	0xbd8b38fc	-0.06797978
40	0xbdd79eff	-0.10528373
41	0xbe13b20c	-0.14423388
42	0xbdb78d19	-0.08962459
43	0xbde41a74	-0.11137858
44	0xbd9eee06	-0.07760243
45	0xbe500947	-0.20316039
46	0xbe24e150	-0.16101575
47	0x3cbf135e	0.023324665
48	0xbbc95d98	-0.0061451904
49	0xbdbb2f74	-0.0913991
50	0xbd906b5e	-0.07051729
51	0xbe9942ff	-0.29933926
52	0xbd2f1160	-0.04274118
53	0x394107f3	0.00018408876
54	0xbe224c44	-0.15849406
55	0xbc92d7de	-0.0179252
56	0x3c620f39	0.013797575
57	0xbdf16cec	-0.11788353
58	0xbe49e5af	-0.19716524
59	0xbde23e3a	-0.11047025
60	0x3d7e648e	0.062107615
61	0xbcb26ea8	-0.02178128
62	0xbe3f6636	-0.18691334
63	0xbd7b7a3a	-0.06139586
64	0x3a6e98e9	0.0009101765
65	0xbdff242e	-0.124580726
66	0xbdbe54f3	-0.092935465
67	0x3dd17a6c	0.10228428
68	0xbd236ba6	-0.039897583
69	0xbe443cd8	-0.19163835
70	0xbe01a88f	-0.12661956
71	0xbdbf2f1f	-0.093351595
72	0x3d1260a8	0.03573671
73	0xbdeaefa0	-0.11471486
74	0xbe010792	-0.12600544
75	0xbdef7178	-0.11691564
76	0xbdcef09c	-0.10104486
77	0x3d80d311	0.06290258
78	0x3c9a9b93	0.018873012
79	0xbda4ef82	-0.08053495
80	0xbdd74c81	-0.10512639
81	0x3d09acc2	0.03361202
82	0xbe6f3525	-0.23360117
83	0xbd22a0e7	-0.03970423
84	0xbd7df862	-0.062004454
85	0xbdda89fa	-0.10670848
86	0xbdaaa1aa	-0.08331616
87	0xbe08a839	-0.13345422
88	0xbe133938	-0.14377296
89	0xbddcba63	-0.10777738
90	0xbd103df7	-0.035215344
91	0x3c243bfa	0.010024065
92	0xbe3c8288	-0.18409169
93	0xbe34f513	-0.17671613
94	0xbc9e8d49	-0.01935448
95	0xbd5ff422	-0.054676183
96	0xbe55c5ce	-0.20876238
97	0xbcf25885	-0.029583225
98	0xbe21bf6f	-0.15795682
99	0xbba3829f	-0.0049899365
100	0xbbd03c90	-0.006354876
101	0xbe1004ca	-0.14064327
102	0xbd4104f7	-0.047123875
103	0xbd6737b8	-0.056449622
104	0xbd66cef5	-0.056349713
105	0xbd9361e7	-0.07196408
106	0xbd3d4e3d	-0.046217192
107	0xbca0c250	-0.019623905
108	0xbc18bf31	-0.009322927
109	0xbe35e1aa	-0.17761865
110	0xbe0738cc	-0.1320526
111	0xbc0c328e	-0.008556975
112	0xbe23016e	-0.15918514
113	0xbdf7ff49	-0.12109239
114	0xbcf09f7e	-0.029372927
115	0xbdcd2fb0	-0.10018861
116	0x3cc6982e	0.024242487
117	0xbd17d427	-0.03706756
118	0xbb6e024e	-0.0036317292
119	0xbdc77ad7	-0.09740227
120	0x3c051e00	0.008124828
121	0x3b820c77	0.003968771
122	0xbbf5f633	-0.007506156
123	0xbe1f1324	-0.15534645
124	0xbe56a3d0	-0.20960927
125	0xbe0fb171	-0.14032532
126	0x3d1a6583	0.037694465
127	0xbdbb2825	-0.09138516
128	0xbdead1b2	-0.114657775
129	0xbc9c3032	-0.01906595
130	0xbda91054	-0.082550675
131	0xbd5d220f	-0.05398756
132	0xbe4dc5c5	-0.20094974
133	0xbdd8602e	-0.1056522
134	0xbdebed6c	-0.11519894
135	0xbe07b948	-0.13254273
136	0x3b2ee4c4	0.0026686648
137	0xbe341cbe	-0.1758909
138	0xbdb4f25f	-0.08835291
139	0xbd98a5e0	-0.07453513
140	0xbd0fe162	-0.03512705
141	0xbdb35f2b	-0.08758386
142	0xbd7d9cd1	-0.06191713
143	0xbdb20010	-0.08691418
144	0x3d4781d9	0.048707817
145	0xbd98614c	-0.07440433
146	0xbd6fdbf6	-0.05855938
147	0xbe19786a	-0.1498734
148	0xbd6f11d9	-0.05836663
149	0xbe023d62	-0.12718728
150	0xbe422b1d	-0.18961759
151	0xbe6814cf	-0.22664188
152	0x3d940861	0.07228161
153	0xbdf4a8b0	-0.11946237
154	0xbe5206fb	-0.20510475
155	0xbe64a52c	-0.22328633
156	0xbe24af4d	-0.16082497
157	0xbd9730e6	-0.073823735
158	0xbcdf5979	-0.027264344
159	0xbe33c9a3	-0.17557387
160	0xbd52c312	-0.051455565
161	0xbe06b9ba	-0.13156787
162	0xbe2ebe4f	-0.17064784
163	0xbe565ffb	-0.20935051
164	0xbcb1003f	-0.021606563
165	0xbe2cc013	-0.16870145
166	0xbdfce64b	-0.123486124
167	0xbe6dbc80	-0.23216438
168	0xbe83736a	-0.2567399
169	0xbdeca98b	-0.11555775
170	0xbdb24920	-0.08705354
171	0xbd31f3b5	-0.043445308
172	0xbd80cd1a	-0.0628912
173	0xbd99c6bf	-0.07508611
174	0xbe0a641a	-0.13514748
175	0xbd7383cf	-0.059451874
176	0xbd785062	-0.060623534
177	0xbe868b1c	-0.26278007
178	0xbd2653e1	-0.040607337
179	0xbd6d3c6f	-0.057918962
180	0xbd89e2b5	-0.06732694
181	0xbdc38aba	-0.09547944
182	0x3ca1b366	0.019738864
183	0xbdc96d89	-0.09835345
184	0xbd79a95c	-0.06095253
185	0xbe3daf17	-0.18523823
186	0xbe0655e2	-0.13118699
187	0xbdc9361e	-0.09824775
188	0xbd99b007	-0.07504278
189	0xbe3dfb04	-0.18552786
190	0xbdb9f4ff	-0.090799324
191	0xbd37786d	-0.04479258
192	0xbd5d7b00	-0.05407238
193	0xbc3dcaa1	-0.011583955
194	0x3dcf75ea	0.10129912
195	0xbd597dc2	-0.053098448
196	0xbdc1f82c	-0.09471163
197	0xbdc181e6	-0.09448604
198	0xbcc0c712	-0.023532424
199	0xbe339248	-0.1753627
200	0xbe3b42c2	-0.18287185
201	0xbe90d132	-0.28284603
202	0xbdc1ac43	-0.094566844
203	0xbdb6fd66	-0.08935051
204	0xbdedf33f	-0.11618661
205	0x3bade8a8	0.005307276
206	0xbdf5cc34	-0.12001839
207	0xbdc5f746	-0.09666304
208	0xbaa5ecd9	-0.0012659087
209	0xbda81f86	-0.082091376
210	0xbd9cdebc	-0.07659671
211	0xbd9ab331	-0.07553709
212	0xbc1eb8b6	-0.009687593
213	0xbd27a7ff	-0.040931698
214	0xbde72981	-0.11287213
215	0xbe050045	-0.12988384
216	0xbe7759af	-0.24155305
217	0xbda79ca2	-0.08184172
218	0xbdec6952	-0.11543526
219	0x3cbc529e	0.022988614
220	0xbe0bb09a	-0.13641587
221	0xbdd09141	-0.10183955
222	0xbe39c5e1	-0.18141891
223	0xbdb379c2	-0.08763458
224	0xbe6b8024	-0.229981
225	0xbe0192bc	-0.12653631
226	0xbd01fcdb	-0.031735282
227	0xbde26a98	-0.110554874
228	0x3d31307e	0.043259136
229	0xbdfc9e96	-0.12334935
230	0xbda2b929	-0.07945473
231	0xbd9b95fd	-0.07596967
232	0xbe261d83	-0.16222195
233	0x3da310f7	0.0796222
234	0xbc71b4bf	-0.014752566
235	0xbd8c8f66	-0.068632886
236	0x3c184cb9	0.009295636
237	0xbdd4f069	-0.10397417
238	0xbe18197c	-0.14853472
239	0xbd8101a5	-0.06299142
240	0xbe3da130	-0.1851852
241	0xbe351ee2	-0.17687562
242	0xbe2a24df	-0.16615628
243	0x3b14ca15	0.0022703458
244	0xbe5df5f7	-0.2167586
245	0xbdaded01	-0.084924705
246	0xbe3107d4	-0.17288142
247	0xbd11e68b	-0.035620254
248	0xbcc183ce	-0.02362242
249	0xbde91abd	-0.11382053
250	0xbe4736bb	-0.19454472
251	0x3be959c4	0.0071212966
252	0xbc3324bf	-0.010934054
253	0xbd96d33c	-0.073645085
254	0xbe3fd995	-0.18735345
255	0xbdcb5337	-0.09927981

weight f4 [128, 256]
0	0x3d85ea94	0.06538883
1	0xbc867264	-0.016411968
2	0x3dc8e91c	0.09810087
3	0xbdb751ec	-0.08951172
4	0xbcfe0881	-0.031009914
5	0xbc7ce4b9	-0.015435391
6	0xbd99274c	-0.074781984
7	0x3e212adc	0.15739006
8	0x3d6ddc88	0.058071643
9	0xbb1e7c57	-0.0024183
10	0x3da019ea	0.07817443
11	0xbd4e2a8c	-0.050333545
12	0x3dad642e	0.084663734
13	0x3cda55f1	0.026652308
14	0xbe6ac6fb	-0.22927468
15	0xbe20e1c5	-0.15711124
16	0xbe271432	-0.16316298
17	0xbdc48a76	-0.09596722
18	0x3dd33cf7	0.103143625
19	0x3dfd390e	0.12364398
20	0x3dcab21d	0.09897254
21	0xbdf57c08	-0.11986548
22	0xbde48669	-0.11158449
23	0xbc08e995	-0.008356472
24	0xbdb4a86d	-0.08821187
25	0x3d47a2bc	0.04873918
26	0x3cfa857b	0.030581227
27	0x3cad7a4b	0.021176478
28	0x3d3d2617	0.046178903
29	0xbdfe2b91	-0.124106534
30	0x3e1a918c	0.15094584
31	0x3d68d7c9	0.056846414
32	0xbdbc2573	-0.0918683
33	0x3cfa43d2	0.030549917
34	0x3b4d4c29	0.0031325913
35	0x3d41df1c	0.047331914
36	0xbbdfd270	-0.006830506
37	0xbd9f9728	-0.07792503
38	0xbc81a1e0	-0.015824258
39	0xbe07c2e9	-0.13257946
40	0x3cd830f8	0.026390538
41	0x3daa84b9	0.08326096
42	0xbc205fa9	-0.009788432
43	0xbe26fd5d	-0.16307588
44	0x3d085fac	0.033294365
45	0x3cb3353c	0.02187597
46	0xbc99c46c	-0.018770419
47	0xbd0b6d63	-0.034039866
48	0x3dc5eb6f	0.09664046
49	0xbd0f85b8	-0.035039634
50	0x3df01599	0.117228694
51	0x3e0d9037	0.13824545
52	0xbcf0dc13	-0.029401815
53	0xbc98f698	-0.018672273
54	0x3c0c66fe	0.008569477
55	0x3dc696cc	0.09696731
56	0x3dce225c	0.10065147
57	0x3db64da7	0.0890153
58	0x3db22aec	0.08699593
59	0xbae832cf	-0.0017715337
60	0x3df9970d	0.12187014
61	0xbd3a5c90	-0.04549843
62	0x3d58fed8	0.052977413
63	0x3b70f851	0.0036769102
64	0xbe0f03aa	-0.13966241
65	0xbd93f58d	-0.072245695
66	0x3d441473	0.047871064
67	0x3ccdad05	0.025106916
68	0x3d105c37	0.035244193
69	0x3c9ac7d3	0.018894112
70	0xbd39de0f	-0.045377787
71	0x3d87954a	0.066202715
72	0xbdcb731a	-0.09934063
73	0xbd20eee0	-0.03929031
74	0x3cd12f14	0.025535144
75	0xbf4e9af9	-0.8070522
76	0xbd5908bd	-0.05298685
77	0xbc2840c0	-0.010269344
78	0xbd8cf3bd	-0.06882427
79	0xbde05732	-0.10954131
80	0xbec3cb52	-0.3824106
81	0xbc81309b	-0.015770247
82	0x3cae605f	0.021286188
83	0x3d2139d7	0.0393618
84	0xbd932b77	-0.07186025
85	0xbd8662e2	-0.06561829
86	0xbe42bec9	-0.19018091
87	0x3dfcb993	0.12340083
88	0x3df3a478	0.11896604
89	0xbd8893f4	-0.06668845
90	0x3d4df8ac	0.05028598
91	0xbdbb074b	-0.091322504
92	0xbf45d9fb	-0.77285737
93	0xbd9165a7	-0.07099467
94	0x3d1db3b1	0.038501445
95	0x3c95181b	0.018199971
96	0x3dbcb061	0.09213329
97	0x3b934f84	0.004495563
98	0x3d537ab4	0.05163069
99	0x3d4d0534	0.05005379
100	0x3cc1e8a6	0.023670506
101	0x3e5d540c	0.21614093
102	0xbdd74b01	-0.10512353
103	0x3cffc2d4	0.031220831
104	0x3a871730	0.0010306593
105	0xbc77d9b9	-0.015127593
106	0x3d25df35	0.04049607
107	0xbe32c030	-0.17456126
108	0xbd5af287	-0.05345395
109	0x3df65ab8	0.12029022
110	0x3db65a63	0.08903959
111	0x3e19510c	0.14972323
112	0xbd6ab898	-0.05730495
113	0xbe240dac	-0.1602084
114	0xbdd2b09f	-0.10287594
115	0xbd8dd3a2	-0.069251314
116	0x3d3bcf90	0.045852244
117	0x3b6a6a8b	0.003576907
118	0xbdbbf6c4	-0.09177926
119	0x3d60d862	0.05489386
120	0x3b44bbbd	0.0030019127
121	0x3b37d655	0.0028051336
122	0xbd74ca32	-0.05976314
123	0x3d6c075f	0.057624217
124	0x3d68fa86	0.056879543
125	0xbd99817b	-0.074953996
126	0x3d1a24d9	0.037632797
127	0x3d71dfaa	0.059051193
128	0xbd0162a2	-0.031588204
129	0x3d4c51f2	0.049882837
130	0xbc4b3698	-0.012403153
131	0xbb8f9fd9	-0.004383069
132	0xbe0c53bb	-0.13703816
133	0xbd94a82a	-0.07258637
134	0xbd97530b	-0.07388886
135	0x3e0cb206	0.13739786
136	0xbcbb1da7	-0.022841288
137	0xbe0843a4	-0.13307053
138	0x3c943acd	0.018094445
139	0x3c2e0bc5	0.010622923
140	0xbc5c42e9	-0.013443687
141	0xbd3ae3cd	-0.045627404
142	0x3d2c76f5	0.042105634
143	0xbe26d86a	-0.16293493
144	0xbe1e84f3	-0.15480404
145	0xbbf14d69	-0.0073639643
146	0x3d45e646	0.04831531
147	0xbdb0bf5b	-0.08630248
148	0xbe5bfc64	-0.21482998
149	0x3e15e40a	0.14637771
150	0xbc9c1c8d	-0.019056583
151	0xbd9f5781	-0.07780362
152	0xbdd8392b	-0.10557779
153	0xbe1ae24e	-0.15125391
154	0x3dc456bb	0.09586855
155	0x3dfbbc60	0.12291789
156	0xbda706a2	-0.08155562
157	0x3d22094d	0.03955965
158	0xbd71ae04	-0.059003845
159	0xbbc8d713	-0.0061291545
160	0x3e533fac	0.20629758
161	0x3d9ef140	0.077608585
162	0xbd692e23	-0.056928765
163	0xbdce73a3	-0.1008065
164	0x3d045e65	0.032316584
165	0x3cfbbf57	0.030730886
166	0xbdc04ce4	-0.09389666
167	0x3d9f28fa	0.077714875
168	0xbeae5847	-0.34051725
169	0xbdaf4594	-0.08558193
170	0x3d139b7a	0.036036946
171	0xbe01ab47	-0.12662993
172	0xbdb239d6	-0.087024376
173	0xbc75dc9c	-0.015006211
174	0xbcccdb4c	-0.025006913
175	0xbd88b060	-0.06674266
176	0xbe8d7a5e	-0.2763242
177	0x3ce988b2	0.028507564
178	0x3bfdb6b9	0.0077427295
179	0x3d02dda7	0.031949665
180	0x3d8dfe7a	0.06933303
181	0xbd10b0fb	-0.03532503
182	0xbe0b3eb0	-0.13598132
183	0x3dc8f3e2	0.09812142
184	0xb9797fe5	-0.00023794135
185	0x3d586c08	0.0528374
186	0x3cc90ddf	0.024542747
187	0xba8c4a8e	-0.0010703371
188	0xbd85fd9f	-0.06542515
189	0xbbbcfd0c	-0.00576747
190	0x3e567006	0.20941171
191	0xbdf51743	-0.119673274
192	0xbe4b72bb	-0.19867985
193	0x3cfa4465	0.030550191
194	0xbd2e1f16	-0.042510115
195	0x3dd42b1d	0.10359786
196	0x3d4081a9	0.046998654
197	0xbce3d920	-0.027813494
198	0x3d82ab4a	0.06380327
199	0xbe2602f1	-0.1621206
200	0x3cebdc1c	0.02879148
201	0x3d882517	0.06647699
202	0xbbff6c9b	-0.007794929
203	0xbc917bac	-0.017759167
204	0xbf60253a	-0.87556803
205	0xbdee0390	-0.11621773
206	0x3d7e29e2	0.06205166
207	0x3da0df15	0.078550495
208	0x3d20497a	0.039132573
209	0x3cb673ba	0.02227198
210	0xbd8b8bfd	-0.0681381
211	0xbd12ddf7	-0.035856213
212	0x3e120cc2	0.14262679
213	0xbcae6499	-0.021288203
214	0x3d31e5e2	0.043432124
215	0x3d60753b	0.0547993
216	0x3d9eb58e	0.077494726
217	0x3dd047ad	0.10169921
218	0xbea2ba07	-0.31782553
219	0xbcc66194	-0.02421645
220	0xbd4fdac7	-0.05074575
221	0x3e0b753f	0.13618945
222	0xbcc37507	-0.023859514
223	0x3dfb545d	0.122719504
224	0x3d0c7eef	0.03430074
225	0x3d19758d	0.03746562
226	0xbe312c55	-0.17302068
227	0x3ca89031	0.020576568
228	0x3d750535	0.05981942
229	0x3de80e3d	0.11330841
230	0x3d66dc6a	0.056362547
231	0xbd3a1535	-0.04543038
232	0xbb67df09	-0.0035380742
233	0x3d70fcb2	0.05883474
234	0xbb0b39ab	-0.002124409
235	0xbd02ee5b	-0.031965595
236	0xbcd176e2	-0.025569383
237	0x3e01b35d	0.12666078
238	0xbd0c054f	-0.03418475
239	0xbda4e9a1	-0.08052374
240	0xbca931df	-0.020653663
241	0xbb8918ce	-0.004183865
242	0xbea3dcba	-0.32004339
243	0x3cf7869d	0.030215556
244	0xbd909045	-0.07058767
245	0xbd6d209f	-0.057892438
246	0x3c3f9751	0.0116937915
247	0x3b32c26b	0.0027276527
248	0xbe136341	-0.14393331
249	0xbc332f49	-0.010936567
250	0x3daa6c72	0.083214656
251	0xbc479bba	-0.012183124
252	0xbd258650	-0.040411294
253	0xbd673a08	-0.056451827
254	0x3dadb429	0.084816284
255	0xbc05b814	-0.008161563

bias f4 [128]
0	0xbdf89363	-0.12137487
1	0x3d26cde9	0.040723715
2	0xbdf2e487	-0.118599944
3	0xbcb7ec97	-0.022451682
4	0xbd4eaf54	-0.050460175
5	0xbc9be43b	-0.019029727
6	0xbe3dd0d5	-0.18536694
7	0xbd426b13	-0.047465395
8	0xbe23a9f3	-0.15982799
9	0x3cace035	0.021103004
10	0xbd48e5a8	-0.049047142
11	0xbb556e73	-0.0032567054
12	0xbd7fe83d	-0.06247734
13	0x3cb7a3fa	0.022417057
14	0xbb420bf9	-0.0029609187
15	0xbcb72e0a	-0.02236082
16	0xbe0d307d	-0.13788028
17	0x3c445b62	0.011984678
18	0xbdbc975d	-0.09208558
19	0xbdc8c6d8	-0.098035514
20	0xbc404147	-0.011734313
21	0xbda8e273	-0.08246317
22	0x3d957b87	0.072989516
23	0xbd661f1f	-0.056182023
24	0x3c665a95	0.014059682
25	0x3cedccdb	0.029028347
26	0x3ce8d1de	0.028420385
27	0xbd29da8d	-0.041468192
28	0x3ba3dc78	0.005000647
29	0xbe0c1b0d	-0.13682194
30	0xbce32f66	-0.027732562
31	0xbe4f78dd	-0.2026095
32	0xbda4b9fd	-0.08043287
33	0xbdd7d931	-0.10539473
34	0x3ccb5a4e	0.024823334
35	0xbdb9e1a2	-0.09076239
36	0x3c634312	0.013870971
37	0xbd815be8	-0.06316358
38	0xb99b7214	-0.000296489
39	0x3da82942	0.08210994
40	0xbe33bad7	-0.17551742
41	0xbdcd1b2b	-0.100149475
42	0xbe7aa798	-0.24477994
43	0xbd81b55d	-0.063334204
44	0x3c63fa9f	0.013914733
45	0xbd0ebf6e	-0.03485053
46	0xbcbaf408	-0.022821441
47	0xbe058f9d	-0.13043065
48	0xbdc76ea4	-0.097379
49	0xbdc9907f	-0.098420136
50	0x3d2d38cc	0.042290494
51	0xbd9fbc84	-0.077996284
52	0xbe114d93	-0.14189748
53	0xbe40a405	-0.18812568
54	0xbd882363	-0.066473745
55	0xbdf79a97	-0.120900325
56	0xbbfa84a4	-0.0076452065
57	0xbe1235a2	-0.14278272
58	0xbd719f16	-0.058989607
59	0xbda4c894	-0.0804607
60	0xbdb40509	-0.08790023
61	0xbe18676d	-0.14883204
62	0xbd831e50	-0.06402266
63	0xbd657519	-0.056019876
64	0x3b4f4499	0.003162658
65	0xbcda5686	-0.026652586
66	0x3d329e71	0.043608133
67	0x3d0441ef	0.03228944
68	0xbe1d43b2	-0.15357855
69	0xbc81ebe5	-0.015859554
70	0x3c3de97e	0.011591313
71	0xbd95b33b	-0.07309576
72	0x3d289fe6	0.041168116
73	0xbd92288c	-0.0713664
74	0x3aa46043	0.0012540895
75	0xbdcd011c	-0.10009977
76	0xbc4f9c58	-0.012671553
77	0xbe24c82a	-0.16091982
78	0x3d33e2e8	0.043917567
79	0xbdf9d524	-0.121988565
80	0xbc8ca021	-0.0171662
81	0xbda672cb	-0.08127364
82	0x3b83ebbe	0.0040259054
83	0xbe5b6e02	-0.21428683
84	0xbd6dd20c	-0.058061644
85	0xbe34af6b	-0.17645042
86	0xbde16981	-0.110064514
87	0xbda8868f	-0.0822879
88	0xbd39fc2b	-0.0454065
89	0xbdbed381	-0.09317685
90	0xbc739fc0	-0.01486963
91	0xbad199c4	-0.001599126
92	0x3ab344a6	0.0013677075
93	0xbe3b01d8	-0.18262422
94	0xbe0cdc1d	-0.13755842
95	0x3b3e10e0	0.0029001758
96	0xbe044e84	-0.12920576
97	0xbe175d53	-0.14781694
98	0xbd570f4e	-0.05250483
99	0xbd80c78b	-0.0628806
100	0x3b8e5db3	0.004344666
101	0xbcf3b6d7	-0.02975027
102	0xbdb15f45	-0.08660749
103	0xbdba4c22	-0.090965524
104	0xbcb45b47	-0.02201618
105	0xbcde8bc6	-0.027166259
106	0xbd0c7917	-0.034295168
107	0xbcd48a67	-0.025944902
108	0xbd09566b	-0.03352968
109	0xbd7606fe	-0.060065262
110	0xbdc6d9c2	-0.09709503
111	0xbe08243a	-0.1329507
112	0xbaaec3cf	-0.0013333502
113	0xbd211f85	-0.0393367
114	0xbd6efce0	-0.05834663
115	0xbdec23df	-0.11530279
116	0xbe525268	-0.20539248
117	0xbd70e445	-0.058811445
118	0x3c486b41	0.012232603
119	0xbd14cb3d	-0.036326636
120	0xbd489d9c	-0.048978433
121	0xba9b3a73	-0.0011842981
122	0xbe162d94	-0.14665824
123	0xbc806286	-0.01567198
124	0x3a8844a1	0.001039643
125	0xbe026bb7	-0.12736402
126	0xbc8ee22b	-0.01744183
127	0xbd6340d9	-0.055481765

weight f4 [12, 128]
0	0xbc2ea79c	-0.010660078
1	0x3cf02829	0.029316025
2	0xbcc3cfd3	-0.02390281
3	0x3bedac76	0.007253225
4	0xbd5b3333	-0.053515624
5	0x3c230193	0.009949106
6	0xbc9da403	-0.019243246
7	0xbcbf2e76	-0.023337584
8	0x3a1f9e7d	0.0006088985
9	0x3c98f377	0.01867078
10	0xbbd96929	-0.0066348505
11	0xbd4141ed	-0.047182012
12	0xbd4025d5	-0.04691108
13	0xbdd75852	-0.10514893
14	0xbc6a4409	-0.014298447
15	0x3d19fa42	0.03759218
16	0xbd9c5c69	-0.07634813
17	0xbb2d643d	-0.0026457452
18	0x3cd3ee31	0.025870414
19	0xbd9bf7d6	-0.0761563
20	0xbc874423	-0.016511982
21	0x3d60fc99	0.054928396
22	0x3aa6ff83	0.0012740943
23	0xbdb551bd	-0.08853481
24	0x3c6603b9	0.0140389735
25	0xbcb7fd64	-0.022459693
26	0x3cbe62f1	0.023240538
27	0xbd1c3559	-0.038136814
28	0x3cbb2dd0	0.022848994
29	0x3d88d5a4	0.06681374
30	0xbd667c18	-0.05627069
31	0xbbeb0f53	-0.0071734576
32	0x3c8c631d	0.017137105
33	0xbd1cf072	-0.038315244
34	0x3d138d43	0.03602339
35	0xbc88e547	-0.01671089
36	0xbd87945d	-0.06620095
37	0xbbae92b9	-0.0053275493
38	0x3ce3282b	0.027729115
39	0xbd069544	-0.032857195
40	0xbd2b4198	-0.041810602
41	0x3d081025	0.03321852
42	0xbcc3ef07	-0.023917688
43	0x3c8ae03c	0.016952626
44	0xbccf833d	-0.025331134
45	0xbd09b0fb	-0.033616047
46	0xbd495139	-0.049149726
47	0xbd76cf66	-0.060256384
48	0xbc4aa68b	-0.0123688085
49	0xbc0b57f4	-0.008504856
50	0xbd113945	-0.035455007
51	0x3d2097b8	0.03920719
52	0x3d43d565	0.04781093
53	0x3b97f82a	0.0046377378
54	0x3d2d7725	0.042349953
55	0xbc6f37f9	-0.014600747
56	0x3cabfe40	0.02099526
57	0xbcee503a	-0.02909099
58	0x3cb31775	0.021861771
59	0x3d0efaf3	0.034907293
60	0xbbd388ba	-0.006455508
61	0x3df409f9	0.11915965
62	0xbc5a797e	-0.01333463
63	0x3c09654c	0.008385967
64	0xbc8b8a54	-0.017033733
65	0xbda8b7a7	-0.08238154
66	0xbd12eec3	-0.035872232
67	0xbd1c6960	-0.03818643
68	0xbcade56b	-0.02122756
69	0xbcf3dd9f	-0.029768763
70	0xbc998814	-0.018741645
71	0x3da887e9	0.08229048
72	0xbccea2d8	-0.025224134
73	0x3cd10916	0.025517028
74	0x3b9a4c0c	0.0047087725
75	0xbb5b9692	-0.0033506495
76	0xbd753f79	-0.059874985
77	0xbd8c0b9b	-0.06838151
78	0xbd25b829	-0.040458832
79	0x3dec0420	0.11524224
80	0x3c12fe16	0.008971712
81	0x3ceaef2d	0.028678501
82	0xbca4e513	-0.020128762
83	0x3d2b73c0	0.041858435
84	0xbd24dedf	-0.04025161
85	0xbd28150f	-0.041035708
86	0xbc88ea2e	-0.016713228
87	0x3d1ea75b	0.03873382
88	0xbb4c9e9f	-0.0031222475
89	0x3c8e8a0d	0.017399812
90	0xbd032f36	-0.032027446
91	0x3cf662f4	0.030076481
92	0xbaa369ff	-0.0012467502
93	0xbca37bed	-0.019956553
94	0x3dacf6c0	0.08445501
95	0xbc842ac9	-0.016133683
96	0x3d46cef3	0.048537206
97	0x3c96bd43	0.018400794
98	0xbd67aea9	-0.056563053
99	0x3db60b13	0.08888831
100	0x3cb1d085	0.021705875
101	0xbd17dc85	-0.03707554
102	0xbca389e8	-0.01996322
103	0xbcc7aabe	-0.024373408
104	0x3d9fa9b0	0.07796037
105	0x3c192047	0.009346074
106	0xbc689765	-0.0141962515
107	0x3c7fc8bd	0.015611825
108	0x3c97b350	0.01851812
109	0x3cadb378	0.021203741
110	0x3d15d7e0	0.036582828
111	0xbc89dcac	-0.016828857
112	0x3cfea2db	0.031083515
113	0x3c9a76f8	0.018855557
114	0xbc276c3e	-0.010218678
115	0x3d327dde	0.043577068
116	0x3c1c5929	0.009542742
117	0xbceb7b15	-0.028745214
118	0xbd030dd8	-0.031995624
119	0xbcb7856b	-0.022402486
120	0x3d3951a5	0.045243878
121	0xbdae3b5c	-0.08507416
122	0x3d041ff7	0.032257047
123	0xbc04e210	-0.008110538
124	0x3d541a8c	0.05178313
125	0xbb3e361f	-0.0029023958
126	0xbb72c31c	-0.0037042564
127	0xbbc4cf30	-0.006006144
128	0xbd83e718	-0.06440562
129	0x3d548e0a	0.05189327
130	0xbd1b91eb	-0.037980955
131	0xbc9881a5	-0.018616507
132	0x3cda9499	0.026682185
133	0xbd2998ad	-0.04140537
134	0xbd0cfeb4	-0.03442259
135	0xbcdb99c1	-0.026806714
136	0x3c9bda18	0.019024894
137	0x3cb7de9f	0.022445021
138	0x3c7cc246	0.015427178
139	0xbd56c9c8	-0.052438527
140	0x3c836ae1	0.016042175
141	0xbc4de273	-0.012566197
142	0x3d6f17e7	0.058372404
143	0x3d92abdb	0.07161685
144	0xbca5e6a0	-0.020251572
145	0x3d0937f4	0.033500627
146	0xbc654724	-0.013994012
147	0xbd4ff11f	-0.05076706
148	0xbd18b4cf	-0.037281808
149	0xbcf90394	-0.030397214
150	0x3d1d1630	0.038351238
151	0x3b665a9d	0.0035149225
152	0x3ae8a561	0.0017749482
153	0xbcd32150	-0.02577272
154	0x3cdbbf8e	0.026824739
155	0x3d071a35	0.032983977
156	0x3d6d78d5	0.057976563
157	0x3c770db1	0.015078948
158	0x3ca05484	0.01957155
159	0xbd962594	-0.07331386
160	0xbd55d87e	-0.052208416
161	0xbda03982	-0.07823469
162	0xbcf3b6cf	-0.029750256
163	0xbcb44eb3	-0.022010183
164	0x3c70a505	0.014687781
165	0xbd78ee8e	-0.06077438
166	0xbcb5f30b	-0.022210618
167	0x3db85905	0.09001354
168	0xbd5541e8	-0.052064806
169	0xbc640db0	-0.013919279
170	0xbd176fe6	-0.03697195
171	0xbbaf1f8c	-0.005344337
172	0x3c5db36b	0.013531546
173	0xbc45f0c2	-0.012081327
174	0x3d56d25c	0.052446708
175	0xbc95b376	-0.01827405
176	0xbc78f897	-0.015195987
177	0xbd8f7f2b	-0.07006677
178	0x3d3bdfa0	0.045867562
179	0xbcfa10bb	-0.030525556
180	0xbde5461e	-0.111950144
181	0xbcc5c5fc	-0.024142258
182	0x3d1bc464	0.03802909
183	0xbbdcb140	-0.006734997
184	0xbc0f0821	-0.008729965
185	0x3c09c026	0.008407628
186	0x3ab17698	0.0013539372
187	0xbd8807fb	-0.06642147
188	0xbc4bab37	-0.0124309575
189	0xbd217eb9	-0.039427493
190	0x3d2e0384	0.04248382
191	0xbd383ea8	-0.04498163
192	0x3d4b058e	0.049565844
193	0xbd8fc4c0	-0.07019949
194	0xbc0a88f5	-0.008455505
195	0x3cc2b78a	0.023769159
196	0xbc1b477a	-0.009477491
197	0x3d19c4ca	0.03754119
198	0xbb9a2abb	-0.004704801
199	0xbd1474a8	-0.036244065
200	0xbc24c5bc	-0.010056909
201	0x3d65ae7c	0.056074604
202	0xbb224b24	-0.0024764026
203	0xbd13b3f4	-0.03606029
204	0x3c4ac7c0	0.012376726
205	0x3d853035	0.065033354
206	0xbc8256c3	-0.015910512
207	0xbc85410b	-0.016266366
208	0x3c1c52fb	0.009541268
209	0xbdb061d0	-0.08612406
210	0x3d53a806	0.05167391
211	0xbd7114a3	-0.05885757
212	0x3c63de1a	0.013907934
213	0xbc57a6c6	-0.0131623205
214	0x3d456108	0.04818824
215	0xbcbfd6a9	-0.023417788
216	0xbd2a6a86	-0.041605495
217	0xbbd0cf7f	-0.0063723917
218	0xbaceb356	-0.0015769999
219	0xbd2d6a58	-0.042337745
220	0x3d09b81f	0.033622857
221	0xbd531d95	-0.051541883
222	0xbd4580b6	-0.04821845
223	0x3d9a5d99	0.075373836
224	0xbcb389a4	-0.021916218
225	0xbcf9aae9	-0.030477004
226	0xba1c9f25	-0.0005974642
227	0x3c5280a2	0.012848051
228	0xbc164755	-0.00917228
229	0x3b09218d	0.002092454
230	0x3cdd13da	0.026987005
231	0x3cb9e856	0.022693794
232	0xbd343b29	-0.044001732
233	0xbc0596fd	-0.008153674
234	0x3bf26317	0.0073970663
235	0xbc1e1274	-0.009647954
236	0x3bbf46bd	0.00583729
237	0x3d29c1a1	0.041444425
238	0xbd8dca0b	-0.06923302
239	0x3c8369f8	0.01604174
240	0x3a2e5c24	0.0006651303
241	0xb91a4e00	-0.00014715642
242	0xbc91653b	-0.017748466
243	0xbba94130	-0.0051652417
244	0xbdc3f82f	-0.09568822
245	0x3c8928b0	0.016743034
246	0x3cc2303e	0.023704644
247	0xbbcf5dde	-0.0063283285
248	0xbd392d85	-0.045209426
249	0x3dd9a5d8	0.10627335
250	0xbcac990a	-0.021069068
251	0x3c9ffb05	0.019528875
252	0x3b188bb2	0.0023276624
253	0xbd1429d9	-0.03617272
254	0x3d092c54	0.03348954
255	0x3c87361d	0.016505295

bias f4 [12]
0	0xbd4ee714	-0.050513342
1	0x3de9c3ed	0.11414323
2	0xbe2644b6	-0.16237149
3	0x3c3f657f	0.011681913
4	0xbd746c6a	-0.059673704
5	0xbd24a304	-0.040194526
6	0xbd577265	-0.05259933
7	0xbdcec53c	-0.10096213
8	0x3e3d23c3	0.18470673
9	0x3e21d3e8	0.15803492
10	0x3e03e5ad	0.12880583
11	0x3e286d1a	0.16447869
