assets/spot_policy_custom_rslrl.pt (torch, 775456 bytes, 8 tensors)

weight f4 [512, 48]
0	0x3ba54f39	0.0050448445
1	0xbd8fbd0e	-0.07018481
2	0xbdbe4581	-0.092906006
3	0xbd48a513	-0.048985552
4	0xbe558655	-0.20852025
5	0xbd3f26fb	-0.046668034
6	0xbeea4872	-0.45758396
7	0x3e50f436	0.20405659
8	0x3dadadcd	0.084804155
9	0xbd9a38c1	-0.07530356
10	0x3eb676dd	0.3563756
11	0x3de1684b	0.110062204
12	0xbe6bde35	-0.23033984
13	0xbeee3eec	-0.4653238
14	0xbe880d9e	-0.2657289
15	0xbec98575	-0.39359632
16	0xbd261ee3	-0.0405568
17	0x3dbd4018	0.092407405
18	0x3e84a924	0.25910294
19	0xbf2bc8ef	-0.67103475
20	0xbecd5c77	-0.40109608
21	0x3ec0bca0	0.3764391
22	0x3e64895e	0.22318026
23	0x3ebacc94	0.36484206
24	0x3d3ac088	0.04559377
25	0xbd0e6269	-0.03476182
26	0x3cb6e60b	0.02232649
27	0xbc4e7377	-0.012600771
28	0x3c94d42a	0.018167574
29	0x3ab6163e	0.0013892127
30	0xbdc1ea83	-0.09468558
31	0x3d154260	0.036440253
32	0x3d9431ec	0.07236084
33	0x3d38b056	0.045090042
34	0xbda5ddd2	-0.080989495
35	0xbcad2b69	-0.021138864
36	0xbcd668fc	-0.026173107
37	0xbea3d1a6	-0.31995887
38	0x3b60a87b	0.003428011
39	0xbdc79e6e	-0.09747015
40	0xbd608333	-0.05481262
41	0xbe168f9e	-0.14703223
42	0x3d994788	0.07484347
43	0xbe1d507f	-0.15362738
44	0x3ce0f85a	0.027462173
45	0xbe0385a5	-0.1284395
46	0x3d83856f	0.06421935
47	0x3cb9127b	0.02259182
48	0x3c58f139	0.013241106
49	0xbf0fe2b1	-0.5620528
50	0xbdd4836c	-0.10376629
51	0xbe09cfdf	-0.13458203
52	0xbe1976b1	-0.14986683
53	0x3ec1bd94	0.3783995
54	0x3e4078d0	0.18796086
55	0x3e32ab0d	0.17448063
56	0x3d8cbb80	0.068717
57	0x3dbf0fdb	0.09329196
58	0x3e232b1a	0.1593441
59	0x3ed6b847	0.41937467
60	0xbc678200	-0.0141301155
61	0xbf151b42	-0.5824472
62	0xbe04cafd	-0.12968059
63	0x3e3bb8dd	0.18332238
64	0x3e276974	0.16348821
65	0x3e0489ff	0.12943266
66	0xbe9482a0	-0.2900591
67	0x3e5f906f	0.21832441
68	0x3d3de9f4	0.046365693
69	0x3e58ea3a	0.211831
70	0x3ed98956	0.42487592
71	0x3e4ae138	0.19812477
72	0xbd4869f1	-0.04892916
73	0x3bcf1bc2	0.0063204477
74	0xbcf88a47	-0.030339373
75	0xbd81942e	-0.06327091
76	0xbd100d31	-0.03516883
77	0xbcd01ef2	-0.02540538
78	0xbca05264	-0.019570537
79	0x3d51f00b	0.051254313
80	0xb8ff6b4d	-0.00012179334
81	0xbcf92f58	-0.030418083
82	0xbc987c91	-0.018614085
83	0x3ce734f0	0.028223485
84	0xbc70c5ce	-0.014695598
85	0x3dd14e01	0.10219956
86	0x3d85c5b7	0.06531852
87	0xbdf15743	-0.11784222
88	0x3ddd392c	0.1080192
89	0xbe0c6041	-0.13708593
90	0x3cd62582	0.026140932
91	0x3d10e95a	0.03537879
92	0xbd6570b0	-0.05601567
93	0x3d08dc1e	0.033413045
94	0x3cf88e8a	0.030341405
95	0xbe215a7c	-0.15757173
96	0xbc854e89	-0.0162728
97	0x3e37e78e	0.17959425
98	0xbd05ae9b	-0.03263722
99	0x3e03edb2	0.12883642
100	0x3e5cd404	0.21565253
101	0xbe8bd418	-0.27310252
102	0x3f53b96f	0.82704824
103	0xbf85cb22	-1.0452616
104	0x3d98a0fc	0.0745258
105	0x3ba8d295	0.0051520565
106	0x3d9fc352	0.07800926
107	0x3dd8e358	0.105902374
108	0x3f20e1e4	0.6284468
109	0x3d92a188	0.07159716
110	0x3f0477e3	0.5174543
111	0x3eeb6e66	0.45982665
112	0xbe25c08f	-0.16186737
113	0x3dcacc5c	0.0990226
114	0x3e9e4766	0.30913848
115	0x3e917eef	0.28417155
116	0xbbe23b3f	-0.0069040353
117	0xbd97599e	-0.0739014
118	0xbbea8186	-0.0071565537
119	0xbcdf881a	-0.027286578
120	0xbc7d8232	-0.0154729355
121	0x3d497fc8	0.049194127
122	0xbcd45f9e	-0.0259245
123	0x3ca10e41	0.019660117
124	0xbdf1a0bc	-0.11798236
125	0xbdc98259	-0.09839315
126	0x3d73f2a8	0.059557587
127	0x3c9a5bf2	0.018842671
128	0x3b0edfe5	0.0021800932
129	0xbc0b9244	-0.008518759
130	0xbc0818f5	-0.0083067315
131	0x3d6c60bb	0.057709437
132	0x3eb8a213	0.36061153
133	0x3d35a7f7	0.044349637
134	0x3cd0f33d	0.02550661
135	0x3baf9a75	0.005358989
136	0x3dc6af8e	0.09701453
137	0xbdf9645c	-0.12177345
138	0xbdc96391	-0.09833444
139	0xbb7ef0e4	-0.0038900906
140	0xbd25ff5b	-0.04052673
141	0xbdbc1a91	-0.09184755
142	0xbe401f92	-0.18762043
143	0xbd198c4a	-0.037487306
144	0xbe10041f	-0.14064072
145	0xbe5c9371	-0.2154062
146	0xbe4956e6	-0.19662055
147	0x3d8f2b1e	0.06990646
148	0xbcba5558	-0.022745773
149	0x3f06bcc9	0.52631813
150	0xbf0313aa	-0.5120188
151	0xbece9d52	-0.403544
152	0xbdb91aea	-0.090383366
153	0x3dbd46d6	0.092420265
154	0x3e31782b	0.17330997
155	0xbd8a079c	-0.067397326
156	0x3dfe3ea0	0.124142885
157	0x3ed24098	0.41064906
158	0xbeb0c0ee	-0.34522194
159	0x3d1c9210	0.038225234
160	0xbd81c362	-0.063360944
161	0xbf083a4a	-0.5321394
162	0xbdb15891	-0.08659471
163	0xbe9aa5cc	-0.30204618
164	0x3efad899	0.48993376
165	0xbdd9f5a9	-0.10642559
166	0x3e58265f	0.21108387
167	0x3ea71ee1	0.32640746
168	0x3db4418e	0.08801566
169	0xbccf20e4	-0.025284238
170	0x3d5548d4	0.052071407
171	0xbdfe2787	-0.12409883
172	0x3d6f50b1	0.058426563
173	0xbd1264f9	-0.035740826
174	0x3db31068	0.087433636
175	0x3db5c665	0.088757314
176	0x3d161d56	0.03664907
177	0xbd81b0ef	-0.063325755
178	0x3b8753bc	0.004129855
179	0x3d33f76e	0.04393714
180	0x3da6233b	0.081121884
181	0xbdf3d6bb	-0.11906191
182	0xbbd79716	-0.00657929
183	0xbddad2ae	-0.10684715
184	0x3d522165	0.05130138
185	0x3d72d82f	0.0592882
186	0x3e32c9e7	0.17459832
187	0xbe1120c8	-0.14172661
188	0xbcc81a4c	-0.024426602
189	0x3df961f5	0.12176887
190	0xbdeb109c	-0.11477777
191	0x3cf40fae	0.029792633
192	0xbef7ef63	-0.48424825
193	0xbe97f9ac	-0.29682672
194	0xbeb0984d	-0.34491196
195	0xbe264263	-0.16236262
196	0xbdc6a8a5	-0.09700135
197	0xbac4df3c	-0.0015020142
198	0xbf83b1bb	-1.0288614
199	0xbd8194c0	-0.063272
200	0x3de9c7c9	0.11415059
201	0x3ddf5562	0.10904957
202	0xbd9cf579	-0.07664008
203	0x3c904c85	0.017614612
204	0xbe132378	-0.14368999
205	0x3e76f23e	0.24115846
206	0x3e6c2659	0.23061503
207	0xbe755063	-0.23956446
208	0xbe0602b6	-0.13086972
209	0xbf650b9b	-0.89470834
210	0xbeaac6d8	-0.3335483
211	0x3d646585	0.05576088
212	0x3ea7cd85	0.32773986
213	0xbf22f2af	-0.63651556
214	0x3e48ea85	0.19620712
215	0xbef3d71b	-0.4762505
216	0x3e12884b	0.14309804
217	0xbdf29684	-0.11845115
218	0x3d30c80b	0.043159526
219	0xbde90485	-0.11377815
220	0xbd6a78ef	-0.057244238
221	0x3cd6f318	0.026238963
222	0xbd9a0ff7	-0.07522576
223	0x3d284967	0.041085627
224	0x3e071b03	0.13193898
225	0xbd93a616	-0.07209413
226	0x3cc244fa	0.023714531
227	0xbd79af37	-0.060958114
228	0xbd231aa8	-0.039820343
229	0xbb1c426f	-0.0023843308
230	0xbd8cffb5	-0.0688471
231	0x3dfcc4e0	0.123422384
232	0xbd63022a	-0.055421986
233	0xbd1aca23	-0.03779043
234	0x3d2452ba	0.040117957
235	0xbd3df05a	-0.046371795
236	0xbbddb59f	-0.0067660357
237	0x3d0db59c	0.034597024
238	0x3c8aa568	0.016924575
239	0x3de09bae	0.109671935
240	0x3d0720cc	0.032990262
241	0xbcce4577	-0.025179608
242	0xbe3d39fe	-0.18479154
243	0x3e0a0258	0.13477457
244	0xbc680445	-0.014161174
245	0x3e5f171c	0.2178616
246	0x3f634587	0.88777965
247	0xbf2a0d60	-0.6642666
248	0x3e6cb03d	0.23114105
249	0xbdd18268	-0.10229951
250	0xbda5daf7	-0.08098405
251	0xbe9ab590	-0.30216646
252	0x3eefea77	0.4685857
253	0x3e5b1e4d	0.21398278
254	0x3c771bcf	0.015082314
255	0xbdd8c5c1	-0.105845936

bias f4 [512]
0	0xbe11d441	-0.14241125
1	0xbdebe86f	-0.115189426
2	0x3deca59f	0.11555027
3	0xbdb1d921	-0.08683992
4	0x3cc02967	0.023457242
5	0x3ca5de5a	0.020247627
6	0xbd92dfa0	-0.07171559
7	0xbcd1e32f	-0.025621025
8	0x3d2ce766	0.042212866
9	0x3cf8961e	0.030345019
10	0x3ac06a92	0.0014680198
11	0xbe4d607a	-0.20056334
12	0xbcd9f5e3	-0.026606506
13	0x3e544bb9	0.20732011
14	0xbd4a7bde	-0.049434535
15	0x3e32edd0	0.17473531
16	0x3d6ba164	0.05752696
17	0xbc471c05	-0.0121526765
18	0xbcb148c1	-0.021641137
19	0xbc46b607	-0.01212836
20	0xbc88e81e	-0.016712245
21	0xbde33cd1	-0.11095584
22	0xbd544a4f	-0.05182868
23	0xbdd3ec15	-0.103477634
24	0x3d8c64f1	0.068551905
25	0x3c5b7cfb	0.013396497
26	0x3dee4d52	0.116358414
27	0xbdf5180e	-0.11967479
28	0x3d0c43e9	0.03424445
29	0x3da09f65	0.07842902
30	0xbe15f14c	-0.14642829
31	0xbd8e6d01	-0.069543846
32	0xbda99527	-0.08280402
33	0x3dc72315	0.09723488
34	0x3dc89bcf	0.09795343
35	0xbe8712e7	-0.2638161
36	0xbd518a56	-0.051157318
37	0xbe18425a	-0.14869061
38	0x3e572aec	0.21012467
39	0xbc87ef6c	-0.016593657
40	0x3d237e2b	0.039915245
41	0xbde0ce2f	-0.109768264
42	0x3e5731ed	0.21015139
43	0xbe5b8721	-0.21438266
44	0xbda19934	-0.07890549
45	0x3d308d2d	0.043103386
46	0x3e1eaac1	0.15494825
47	0xbcb83071	-0.022484036
48	0x3e024869	0.12722935
49	0xbd7337ea	-0.059379496
50	0x3d1cbfa8	0.038268715
51	0x3dbd3487	0.092385344
52	0x3d7733b1	0.06035203
53	0xbe345b03	-0.17612843
54	0xbd809336	-0.06278078
55	0xbd50ebfa	-0.051006295
56	0x3ddf50fc	0.109041184
57	0x3e5b5722	0.21419957
58	0xbe531d6b	-0.20616691
59	0xbe4abfe1	-0.19799758
60	0xbd6d55cf	-0.05794316
61	0xbcce1af2	-0.025159333
62	0x3dca6c66	0.098839566
63	0x3d888a3f	0.06666993
64	0x3e1efbd6	0.15525755
65	0x3caa957c	0.020823233
66	0x3c3bd006	0.011463171
67	0x3d5f5fde	0.054534785
68	0x3e0c3a79	0.1369418
69	0xbdf25577	-0.118327074
70	0x3d80a28c	0.06281003
71	0x3d3b70a0	0.045761704
72	0x3bf187fd	0.0073709474
73	0x3d0f188a	0.03493551
74	0x3e84dc7d	0.2594947
75	0x3d0d4fe6	0.034500025
76	0x3e702ef0	0.23455405
77	0xbcd7b41d	-0.026331002
78	0xbd9dd401	-0.07706452
79	0x3d53abee	0.051677637
80	0xbd8834ea	-0.066507176
81	0xbdbe48a8	-0.09291202
82	0xbe106b0b	-0.14103334
83	0xbd45ec89	-0.04832128
84	0x3cdd95b4	0.027048923
85	0x3e385029	0.17999329
86	0x3d3854ac	0.045002624
87	0x3cf4b324	0.029870577
88	0xbbe6c3ee	-0.0070423996
89	0xbe236363	-0.15955882
90	0xbda7eba0	-0.08199239
91	0x3db1922f	0.086704604
92	0x3db4a6a9	0.088208504
93	0x3e4b25a0	0.19838572
94	0x3df60501	0.12012673
95	0x3e1ebeaa	0.1550242
96	0xbe6e5532	-0.23274687
97	0x3e288a84	0.1645909
98	0x3e39750a	0.18111053
99	0xbe6958aa	-0.22787729
100	0xbd038489	-0.032108817
101	0x3e3294cb	0.17439573
102	0xbe0a267f	-0.13491248
103	0xbdd07b4a	-0.101797655
104	0x3b5a7844	0.0033335844
105	0x3d97f727	0.074201874
106	0xbe05eed6	-0.1307939
107	0xbd7f548d	-0.062336493
108	0xbdd6ab8f	-0.10481941
109	0xbe37c6dc	-0.17946953
110	0xbd980993	-0.07423701
111	0xbdca634b	-0.0988222
112	0xbcaab511	-0.020838292
113	0xbe21b045	-0.15789898
114	0xbdcdbcf8	-0.100458086
115	0xbd9eb55c	-0.07749435
116	0x3e396e0a	0.18108383
117	0xbd03dfa1	-0.03219569
118	0xbdc249af	-0.0948671
119	0x3d807530	0.06272352
120	0x3e63e138	0.22253883
121	0xbe23962f	-0.15975259
122	0xbe1c96aa	-0.15291849
123	0xbd36cdbc	-0.044629797
124	0xbd802f78	-0.06259054
125	0xbd12f1d1	-0.035875145
126	0x3d2ca5cb	0.0421503
127	0xbe43cd83	-0.19121365
128	0xbc06abe4	-0.008219693
129	0x3de0918e	0.10965262
130	0x3cdf93c3	0.027292138
131	0x3c91af95	0.01778392
132	0xbd819eac	-0.063290924
133	0x3dec600c	0.11541757
134	0xbcccd2d2	-0.02500287
135	0x3d79099f	0.06080019
136	0xbdb4fe20	-0.08837533
137	0x3e28b9c1	0.1647711
138	0xbdd99b61	-0.10625339
139	0xbe024b28	-0.12723982
140	0x3e384411	0.17994715
141	0xbdecd54d	-0.115641214
142	0x3cf11556	0.02942912
143	0xbd147cd0	-0.036251843
144	0x3e442e12	0.191582
145	0xbaec2e6a	-0.0018019204
146	0xbdb803eb	-0.08985122
147	0xbe48b114	-0.195988
148	0x3e3a622f	0.18201517
149	0xbe181103	-0.1485024
150	0x3d133fea	0.035949625
151	0x3e0ac0b6	0.13550076
152	0x3d0816e6	0.033224963
153	0x3e250705	0.16115959
154	0xbd005345	-0.031329412
155	0x3da6f3a7	0.08151942
156	0x3e0f359b	0.13985293
157	0xbe4c0e55	-0.19927342
158	0x3cdaf3c3	0.026727563
159	0xbe0dd38b	-0.13850228
160	0xbda9e177	-0.08294957
161	0xbdb1add9	-0.08675737
162	0xbdfa4f5f	-0.1222217
163	0xbdb6aafd	-0.08919332
164	0x3d19c893	0.037544798
165	0x3d99fd93	0.075190686
166	0xbe208989	-0.15677465
167	0xbe1747b6	-0.1477345
168	0xbdafc3ea	-0.085822895
169	0xbc3b93ab	-0.011448781
170	0x391e58bc	0.0001510111
171	0x3e006c44	0.125413
172	0x3d9b139a	0.07572098
173	0x3d9a1cec	0.07525048
174	0xbd05983f	-0.032615896
175	0x3cb3b1cd	0.021935368
176	0xbc6d92e3	-0.014500353
177	0xbdbe1eee	-0.09283243
178	0x3d476807	0.048683193
179	0xbe27a121	-0.1637006
180	0xbcbf6096	-0.023361485
181	0xbc2172cd	-0.009854031
182	0x3e00af55	0.12566884
183	0xbabfa32b	-0.0014620771
184	0xbe41179e	-0.18856665
185	0x3d7a1efb	0.0610647
186	0x3e0a6744	0.13515955
187	0x3df55159	0.119784065
188	0x3ddd4522	0.10804202
189	0xbce27b8f	-0.027646808
190	0x3cc7d282	0.02439237
191	0x3de8f964	0.113756925
192	0x3d023119	0.031785104
193	0x3d877b68	0.06615335
194	0xbdab1680	-0.08353901
195	0xbdc1581d	-0.094406344
196	0x3d05da94	0.032679155
197	0x3e137097	0.14398418
198	0xbda6f04a	-0.081513
199	0x3dcce2d5	0.10004202
200	0xbd15f29d	-0.036608327
201	0xbe20dea6	-0.15709934
202	0x3e323648	0.17403519
203	0x3da2f3e8	0.07956678
204	0x3d52c817	0.05146035
205	0x3d7b8889	0.061409507
206	0x3e20afdb	0.15692084
207	0xbd2edaba	-0.042689063
208	0x3e28f389	0.16499151
209	0xbda63a05	-0.08116535
210	0xbe45a601	-0.19301607
211	0x3e37a201	0.17932893
212	0xbbb04500	-0.005379319
213	0x3d3eebdb	0.046611648
214	0x3d70c6de	0.058783405
215	0xbd218c02	-0.039440162
216	0xbe136774	-0.14394933
217	0xbdf9fd9c	-0.12206575
218	0x3df33b14	0.11876503
219	0xbe2604b5	-0.16212733
220	0x3d9f8106	0.07788281
221	0x3cc63f69	0.024200158
222	0xbae1c5b9	-0.0017225064
223	0x3c02c057	0.007980428
224	0xbe088b92	-0.13334492
225	0x3e0e4852	0.13894776
226	0x3c1e73e9	0.00967119
227	0x3e2903ea	0.165054
228	0x3e966d2a	0.2938016
229	0xbe5b5757	-0.21420036
230	0x3c1acf60	0.009448856
231	0xbe2ab085	-0.166689
232	0xbe58f2cf	-0.21186374
233	0xbe0c2e78	-0.13689601
234	0x3e2c0495	0.16798623
235	0xbc855c1f	-0.016279278
236	0x3be12652	0.006871023
237	0xbdf2988a	-0.11845501
238	0xbd853310	-0.0650388
239	0x3e2b1d14	0.16710311
240	0x3e71a8c9	0.23599543
241	0xbd909720	-0.07060075
242	0xbe09d5a3	-0.13460402
243	0xbca0acc5	-0.019613633
244	0x3da20cdc	0.07912609
245	0xbe1fe9ce	-0.15616533
246	0x3d9b8dd5	0.07595412
247	0x3c454621	0.012040646
248	0xbdf375c7	-0.118876986
249	0x3d2adbc7	0.041713502
250	0xbd6f803b	-0.0584719
251	0xbdb4368c	-0.087994665
252	0xbc0dac6c	-0.008647066
253	0x3e121698	0.14266431
254	0xbbeaaff1	-0.007162087
255	0x3defe9a4	0.11714485

weight f4 [256, 512]
0	0x3c5e24ba	0.013558561
1	0x3bf93734	0.0076054577
2	0x3d02178d	0.03176074
3	0xbc65bcc2	-0.014022054
4	0x3c8338ac	0.016018234
5	0xbd640b2a	-0.05567471
6	0x3d909ca1	0.070611246
7	0xbb481313	-0.0030528947
8	0xbc678a8c	-0.014132153
9	0xbc60a3de	-0.013710944
10	0xbcf5269f	-0.029925643
11	0x3c7fb580	0.015607238
12	0x3b6c09d5	0.0036016603
13	0x3d9daeca	0.07699354
14	0xbdc52042	-0.09625293
15	0xbcb64da9	-0.022253828
16	0x3da19816	0.07890336
17	0xbd739bfa	-0.059474923
18	0xbce3ce4e	-0.027808335
19	0xbdc99131	-0.09842146
20	0x3dfcf0a9	0.1235059
21	0x3cffbc6d	0.031217778
22	0xbce8f753	-0.028438246
23	0x3d9f7870	0.077866435
24	0x3dba2cc7	0.09090572
25	0x3d0772ec	0.033068582
26	0xbd48b388	-0.04899934
27	0xbd8cbe78	-0.068722665
28	0xbbbb532d	-0.0057167024
29	0x3d7508d8	0.059822887
30	0x3d38c7fa	0.045112588
31	0xbd9a4490	-0.075326085
32	0x3d36cc6c	0.044628546
33	0x3d22d66e	0.039755277
34	0x3d40bb3c	0.04705356
35	0xbda842de	-0.08215879
36	0xbc979a36	-0.01850615
37	0xbd69cd89	-0.05708078
38	0x3d732360	0.059359908
39	0x3d1bd42a	0.038044132
40	0xbe08f165	-0.13373335
41	0x3d4efeb9	0.05053589
42	0x3d2fae0b	0.04289059
43	0xbb47209e	-0.0030384432
44	0x3b54db91	0.0032479505
45	0xbd81b6cf	-0.06333696
46	0x3c5368be	0.01290339
47	0xbb8ecc59	-0.004357856
48	0xbd4c2a89	-0.049845252
49	0x3b3f3f47	0.0029182003
50	0xba025dc6	-0.000497308
51	0xbad46fd8	-0.0016207648
52	0x3d882d6f	0.06649291
53	0x3d1a87f9	0.03772733
54	0x3d6dd632	0.0580656
55	0xbd490cad	-0.049084354
56	0x3d937fb8	0.07202095
57	0x3d968525	0.07349614
58	0xbd84fa18	-0.06493014
59	0xbcb08988	-0.021549955
60	0xbdade8a7	-0.084916405
61	0xbcfff35e	-0.031243976
62	0x3d841d1f	0.06450867
63	0xbdad0732	-0.08448638
64	0x3a90ce63	0.0011047836
65	0x3d12e513	0.035862993
66	0xbd35605f	-0.04428136
67	0xbda607a1	-0.08106924
68	0xbd839b0f	-0.064260595
69	0xbd4e7160	-0.05040109
70	0xbd9b9aa7	-0.07597857
71	0x3d266c4b	0.04063062
72	0x3d4689b2	0.04847116
73	0xbd916848	-0.07099968
74	0x3a96d97f	0.0011508911
75	0x3cdd42a7	0.027009321
76	0x3ca4a2e9	0.020097213
77	0xbd75fe80	-0.060057163
78	0x3e0f9ebd	0.14025398
79	0x3d21ff05	0.039549846
80	0x3bc36b1a	0.0059636952
81	0xbda5ff75	-0.08105365
82	0x3d614b67	0.05500355
83	0xbd85daeb	-0.06535896
84	0xba97e299	-0.0011587917
85	0x3c278fe7	0.01022718
86	0x3c5ac97c	0.013353702
87	0x3d396adb	0.04526792
88	0xbd44cf50	-0.04804927
89	0xbdaa706a	-0.083222225
90	0x3d966f7e	0.07345484
91	0xbc8438c5	-0.016140351
92	0x3cb15915	0.021648923
93	0x3d1587e0	0.036506534
94	0x3cedda0f	0.029034643
95	0x3d51d071	0.051224176
96	0x3d92bc7e	0.07164858
97	0xbc230d3c	-0.009951886
98	0x3cacd9d8	0.02109997
99	0xbc3c154b	-0.011479686
100	0x3d384715	0.044989664
101	0x3ccb9a6f	0.024853913
102	0x3d45d396	0.048297487
103	0xbb9232c7	-0.0044616195
104	0x3d779c83	0.060451996
105	0xbd182af7	-0.03715035
106	0x3db18263	0.086674474
107	0xbc54236e	-0.0129479
108	0xbe096ded	-0.1342084
109	0xba5462ba	-0.00081018696
110	0x3c905b51	0.017621668
111	0xbd2bd3d3	-0.04195006
112	0xbd80c8a6	-0.06288271
113	0xbd767326	-0.060168408
114	0xbcecf3a2	-0.028924767
115	0xbc49a9ec	-0.012308579
116	0x3d5aaa2a	0.053384937
117	0x3c5c4ac2	0.013445558
118	0xbd2db1da	-0.04240594
119	0x3d1666b3	0.036719035
120	0x3d54b279	0.051928017
121	0xbd0caf1d	-0.03434669
122	0xbc79a95b	-0.015238131
123	0xbe131046	-0.14361677
124	0xbb261fa8	-0.0025348458
125	0x3d0cb80f	0.03435522
126	0xbbe74b1b	-0.007058514
127	0x3d366a95	0.04453524
128	0xbbcf2328	-0.0063213296
129	0xbc88fd2e	-0.016722288
130	0x3ce28628	0.027651861
131	0x3dc1c8e4	0.09462145
132	0xbdcef8fa	-0.10106082
133	0xbd208e4e	-0.039198212
134	0x3d57d25f	0.05269086
135	0x3d4d0a0c	0.05005841
136	0xbe20e95c	-0.1571402
137	0x3c0e5347	0.008686847
138	0xbc83255f	-0.01600903
139	0x3cef7d79	0.029234635
140	0xbb55723a	-0.0032569305
141	0xbd18268f	-0.037146147
142	0xbd40cca6	-0.047070168
143	0x3d2a1702	0.04152585
144	0x3d93c580	0.072154045
145	0x3c8a33c2	0.016870383
146	0x3ce8b8e2	0.028408471
147	0xbdc3ced7	-0.09560936
148	0xbd977a9f	-0.07396435
149	0x3ccc0a75	0.02490733
150	0xbd948c58	-0.07253331
151	0x3d31cebb	0.043410044
152	0x3d0f1c0b	0.034938853
153	0x3d5f34b1	0.05449361
154	0x3d0cdaaf	0.03438824
155	0x3da91e59	0.082577415
156	0x3d2ead3e	0.042645685
157	0x3dbe471c	0.09290907
158	0x3b24f6df	0.002517156
159	0xbca8bb7a	-0.020597208
160	0x3ca8ea03	0.020619398
161	0x3d65ffc1	0.05615211
162	0xbd591fae	-0.053008728
163	0x3dcd4fed	0.1002501
164	0xbdbabf0c	-0.091184705
165	0x3d4a20ef	0.049347814
166	0xbd067b15	-0.032832224
167	0xbd806e39	-0.06271023
168	0x3d6a9e58	0.057279915
169	0xbdccd5fb	-0.10001751
170	0xbbb08ef5	-0.0053881356
171	0xbd2510c3	-0.04029919
172	0x3cff3f23	0.031158036
173	0xbd6b1b4c	-0.05739908
174	0x3dec7039	0.11544842
175	0x3dbea006	0.09307866
176	0x3da66118	0.08123988
177	0xbb4b00ba	-0.0030975775
178	0xbca6bd7d	-0.020354027
179	0xbb5a56b4	-0.003331584
180	0x3c67448b	0.014115463
181	0xbca3c68f	-0.019992141
182	0xbafceed1	-0.0019297247
183	0xbd0a0520	-0.033696294
184	0xbd5b6cc2	-0.053570516
185	0xbd867fac	-0.0656732
186	0xbccbebd8	-0.024892733
187	0xbd61f1d1	-0.055162255
188	0xbd29bf20	-0.041442037
189	0x3cc51074	0.024055697
190	0xbd3042c7	-0.043032434
191	0x3dd8ade1	0.1058004
192	0xbda95217	-0.082676105
193	0x3cd055be	0.02543151
194	0x3d9d747c	0.07688233
195	0x3da50465	0.08057479
196	0x3d08b65f	0.033377048
197	0xbdb63ac6	-0.08897929
198	0xbba11179	-0.004915413
199	0xbdc835ba	-0.097758725
200	0xbcfe2bca	-0.03102674
201	0x3d2dd2ac	0.04243724
202	0x3d73b6d3	0.059500527
203	0x3ce3924e	0.027779724
204	0x3cebff3d	0.02880823
205	0x3cbcfdcc	0.023070239
206	0x3d4eeaae	0.050516777
207	0xbddbd0f1	-0.10733212
208	0x3d938d18	0.07204646
209	0x3d5fad2a	0.0546085
210	0xbdb27e42	-0.08715488
211	0xbcaaddb7	-0.020857675
212	0xbd9c0708	-0.076185286
213	0xbcd27c1e	-0.02569395
214	0x3c9a337b	0.018823376
215	0x3c1230ea	0.008922795
216	0xbd2e1a01	-0.042505268
217	0xbda3d4af	-0.079995506
218	0xbd97fc1d	-0.07421134
219	0xbd864464	-0.06556013
220	0x3b863b47	0.004096422
221	0xbd6bb29b	-0.05754338
222	0x3c8de4fc	0.017321102
223	0xbd2798aa	-0.040917076
224	0xbdc36f34	-0.09542695
225	0xbcaeb4b8	-0.021326408
226	0x3d37aa5b	0.044840198
227	0x3bd5236e	0.0065044677
228	0x3dc9a0ac	0.09845099
229	0x3db9f90e	0.090807065
230	0x3dd21d9e	0.10259555
231	0xbd9914d0	-0.07474673
232	0x3dd5f711	0.10447515
233	0xbd97f768	-0.07420236
234	0xbb572e05	-0.0032833826
235	0xbcf9e89c	-0.030506425
236	0xbe1f666b	-0.15566413
237	0xbe307c61	-0.17234947
238	0x3d109293	0.035296034
239	0x3d26095a	0.040536262
240	0x3e16fec1	0.14745618
241	0xbda0e93b	-0.07856985
242	0x3caf8806	0.021427166
243	0xbd3c1501	-0.04591847
244	0x3dc4adad	0.096034385
245	0x3c14daf3	0.009085405
246	0x3cdf4ee0	0.02725929
247	0xbe3b4ca3	-0.18290953
248	0xbdf43363	-0.11923864
249	0xbc4ea9b2	-0.012613701
250	0x3b10e6c4	0.0022110203
251	0xbe134e59	-0.14385356
252	0x3cc2c1e4	0.023774095
253	0xbd97b74e	-0.074080095
254	0x3cad25a9	0.021136122
255	0x3d937968	0.07200891

bias f4 [256]
0	0xbd25ca39	-0.040476058
1	0xbd9a31ff	-0.07529067
2	0xbd85719f	-0.06515812
3	0x3c27065d	0.010194388
4	0x3d7e225c	0.062044486
5	0xbd2c3af9	-0.04204843
6	0x3ce20a33	0.027592754
7	0xbd245f9e	-0.04013025
8	0xbd653dd2	-0.05596716
9	0xbe03c013	-0.12866239
10	0xbd7225fb	-0.059118252
11	0xbd9b54ed	-0.07584558
12	0xbde2a355	-0.11066309
13	0xbd6d66f5	-0.057959516
14	0xbddf28aa	-0.10896428
15	0x3d1825db	0.037145477
16	0x3cb896a0	0.022532761
17	0x3cd6e860	0.026233852
18	0xbd056b88	-0.032573253
19	0x3c85c93e	0.016331311
20	0xbe11eb50	-0.14249921
21	0xbd812816	-0.06306474
22	0xbd84b931	-0.06480635
23	0xbd0d0bbd	-0.034435023
24	0x3d8db3bd	0.06919048
25	0xbe291c44	-0.16514689
26	0xbd5da184	-0.05410911
27	0xbdd7e2f2	-0.10541333
28	0xbd0e4ce4	-0.034741297
29	0x3c626c0c	0.013819706
30	0xbd865025	-0.06558255
31	0xbdf1f18b	-0.11813649
32	0x3b71febe	0.003692552
33	0xbd80e96b	-0.06294521
34	0xbd4f8671	-0.050665323
35	0xbc9d66b3	-0.01921401
36	0xbdd25e1b	-0.102718554
37	0xbd6a48ae	-0.05719822
38	0xbcc8b694	-0.024501123
39	0x3d09437f	0.033511635
40	0xbc25456d	-0.010087353
41	0xbdfba219	-0.12286777
42	0xbca22e5b	-0.019797495
43	0xbd98ff88	-0.07470614
44	0x3c1a8edc	0.009433474
45	0xbd9e1927	-0.07719641
46	0xbd8d4241	-0.068974026
47	0xbce82fbe	-0.028343078
48	0xbd8722f6	-0.06598465
49	0xbe125516	-0.1429027
50	0xbcd266dd	-0.025683815
51	0xbdd54aa9	-0.10414631
52	0xbdd2b40c	-0.102882475
53	0xbdec125b	-0.115269385
54	0xbd3e6e73	-0.04649205
55	0xbba3a36c	-0.0049938466
56	0xbd9b33da	-0.07578249
57	0xbcbf8331	-0.023377987
58	0x3ca47ade	0.020078119
59	0xbd368f47	-0.044570234
60	0xbd94166d	-0.0723084
61	0xbe1dcf09	-0.15411009
62	0xbd1bd000	-0.03804016
63	0xbd4c36db	-0.049857
64	0xbd78e8cb	-0.060768884
65	0xbd9b4c9b	-0.07582971
66	0xbd444e3e	-0.04792618
67	0xbe112254	-0.14173251
68	0x3c84f1ef	0.016228644
69	0x3d8e662e	0.06953083
70	0xbcf9ec1f	-0.0305081
71	0xbd8a7fe1	-0.06762672
72	0xbd3c5d57	-0.045987453
73	0xbd0e9333	-0.03480835
74	0xbd2555d6	-0.040365063
75	0xbe01ee35	-0.12688525
76	0xbd367666	-0.044546507
77	0x3cbe3592	0.023218904
78	0xbbd35bd7	-0.006450157
79	0xbd400d2f	-0.046887573
80	0x3cd2dc66	0.02573986
81	0xbd111266	-0.035417937
82	0xbe220e9b	-0.15825884
83	0x3d544d18	0.051831335
84	0xbc55210e	-0.013008369
85	0x3d0387bc	0.03211187
86	0xbdd7bc30	-0.10533941
87	0xbdbda607	-0.09260183
88	0xbcfb5d9f	-0.03068429
89	0xbd7f1ebc	-0.06228517
90	0xbd22cb7f	-0.03974485
91	0xbce01a46	-0.027356278
92	0xbdc2268e	-0.0948001
93	0xbdf0ea0a	-0.117633894
94	0x3d35b464	0.044361487
95	0xbe4c3704	-0.19942862
96	0xbd7380ed	-0.059449125
97	0xbdecc8a9	-0.115617104
98	0xbe0d04e9	-0.13771404
99	0x3d53a25d	0.051668514
100	0xbdb99471	-0.09061516
101	0xbe0aede5	-0.13567312
102	0xbd8d6f8c	-0.069060415
103	0xbdd6958c	-0.104777426
104	0xbda51ad9	-0.080617614
105	0x3b0dbe80	0.002162844
106	0xbc3a5dd5	-0.01137491
107	0x3d3b4bee	0.04572671
108	0xbd91a809	-0.07112128
109	0xbe0fcfa1	-0.14044048
110	0xbe049b18	-0.12949789
111	0x3d14ff29	0.036376152
112	0xbd71aea9	-0.05900446
113	0xbd1fb471	-0.03899044
114	0xbda5546c	-0.08072743
115	0xbc83bb9f	-0.016080676
116	0xbd1b21db	-0.037874084
117	0x3c3c33e7	0.011486984
118	0x3e0c161c	0.13680309
119	0x3d80498a	0.062640265
120	0xbcd920b3	-0.02650485
121	0xbdbbb56f	-0.09165465
122	0x3d51a668	0.051184088
123	0xbda5c6a3	-0.080945276
124	0xbd8cb115	-0.06869713
125	0xbd32b826	-0.04363265
126	0xbd42eefe	-0.047591202
127	0xbca691cc	-0.020333193
128	0xbd11733e	-0.035510294
129	0xbd538f25	-0.051650185
130	0xbdf27c20	-0.11840081
131	0xbdd6c128	-0.104860604
132	0xbd86b46c	-0.065773815
133	0x3c8de516	0.01732115
134	0x3c9354bb	0.017984739
135	0xbd8b2c74	-0.06795588
136	0xbdc2f2a2	-0.09518935
137	0xbcd82e19	-0.026389169
138	0xbdaf361b	-0.08555242
139	0xbd9328e0	-0.07185531
140	0x3d214619	0.03937349
141	0xbc9b118d	-0.018929267
142	0xbc879c20	-0.016553938
143	0xbd4f0bbc	-0.0505483
144	0xbd9503fa	-0.07276149
145	0xbdc0fdc5	-0.09423403
146	0xbe074ad0	-0.13212132
147	0xbdac3eaa	-0.0841039
148	0xbe0932a4	-0.13398224
149	0xbd76749e	-0.06016981
150	0xbd73c356	-0.05951246
151	0xbdf1f62e	-0.11814533
152	0x3bcd25ad	0.006260595
153	0xbd30af84	-0.043136135
154	0xbdf308f1	-0.1186694
155	0xbcdc69d0	-0.026905924
156	0x3bd2ef69	0.0064372313
157	0xbd1e98b3	-0.038719844
158	0xbe007f01	-0.12548448
159	0xbda551c9	-0.0807224
160	0xbd8bddce	-0.06829415
161	0xbd8d1726	-0.06889181
162	0x3b32265f	0.0027183515
163	0xbd03f362	-0.03221453
164	0xbbc44a26	-0.0059902845
165	0xbe1360d9	-0.14392413
166	0xbdf2e389	-0.11859805
167	0xbd52d1fa	-0.05146978
168	0xbdc96088	-0.09832865
169	0xbc8a49fa	-0.016880978
170	0x3d1e4531	0.038640205
171	0xbdd60177	-0.10449498
172	0xbe07912c	-0.13238972
173	0xbddad295	-0.106846966
174	0xbd7e96e5	-0.062155623
175	0xbc31b977	-0.010847441
176	0xbdbf9c56	-0.093559906
177	0xbd6fa43c	-0.058506235
178	0xbe13e838	-0.14444053
179	0xbcabea61	-0.020985784
180	0x3d016333	0.031588744
181	0xbd0b8486	-0.03406193
182	0xbdb1e536	-0.08686297
183	0xbcc9c046	-0.024627816
184	0xbe013197	-0.12616573
185	0xbd9b90cf	-0.075959794
186	0xbd595b6a	-0.053065695
187	0xbcc791af	-0.02436146
188	0xbdb378d4	-0.087632805
189	0xbd500d50	-0.050793946
190	0xbdb12f38	-0.086515844
191	0xbd592e42	-0.05302263
192	0xbccbc933	-0.024876213
193	0xbdbd42dd	-0.09241269
194	0xbdd32fef	-0.10311877
195	0xbd4e25d5	-0.05032905
196	0x3c9c5d98	0.019087598
197	0xbe0e486d	-0.13894816
198	0xbd5f39ad	-0.054498363
199	0xbe02e74c	-0.12783545
200	0xbd0d3d33	-0.034482192
201	0xbdfbd19f	-0.122958414
202	0x3d370531	0.044682685
203	0xbdff5b09	-0.124685355
204	0xbd2fa4e0	-0.042881846
205	0xbd825f6d	-0.06365857
206	0xbde44645	-0.11146215
207	0xbdd85bd5	-0.105643906
208	0xbe47b4f4	-0.19502622
209	0xbd81311a	-0.063081935
210	0xbddb67d3	-0.10713162
211	0xbd510c49	-0.051037107
212	0xbcaa3402	-0.020776752
213	0xbd8bea59	-0.06831808
214	0xbe22a1cf	-0.15882038
215	0xbdd9641f	-0.106148
216	0xbdeb19e1	-0.114795454
217	0xbda45ad5	-0.08025137
218	0xbccf11e1	-0.02527708
219	0xbbdcd6a9	-0.0067394567
220	0xbdb8f623	-0.09031322
221	0xbdc6b6d4	-0.097028404
222	0xbc76754e	-0.015042616
223	0xbda4093b	-0.08009573
224	0xbdbb16d1	-0.09135211
225	0x3c0b574f	0.008504703
226	0xbe0e4166	-0.13892135
227	0xbd3a98e3	-0.04555596
228	0xbbcac8b7	-0.006188478
229	0xbd9e9c3c	-0.07744643
230	0xbbe21c03	-0.006900312
231	0xbcb6f7fc	-0.022335045
232	0x3c129f42	0.008949103
233	0xbdeecb07	-0.11659818
234	0xbdc23d9f	-0.094844095
235	0xbcbd7946	-0.023129117
236	0xbd80b905	-0.0628529
237	0xbde7b6b1	-0.113141425
238	0xbd31751f	-0.043324586
239	0xbda983e7	-0.082771115
240	0xbd33a6a2	-0.043860085
241	0x3ca4d56e	0.020121302
242	0xbce2ab77	-0.027669651
243	0xbcac5477	-0.02103637
244	0x3c4d70c4	0.012539092
245	0xbd2245e4	-0.039617434
246	0xba8a4bbd	-0.0010551136
247	0xbd2dfacd	-0.04247551
248	0xbda93921	-0.082628496
249	0x3d64719d	0.055772413
250	0xbd888cce	-0.06667481
251	0xbddd5349	-0.10806901
252	0xbdaded0d	-0.084924795
253	0xbdc4abe4	-0.09603098
254	0xbe03e55f	-0.12880467
255	0x3dfbd4c1	0.12296439

weight f4 [128, 256]
0	0xbced8f3f	-0.02899897
1	0x3b576f48	0.0032872725
2	0xbdd14b50	-0.10219443
3	0x3c053d82	0.00813234
4	0xbd5eb996	-0.054376207
5	0x3bcf2d4e	0.0063225394
6	0xbd03aafa	-0.032145478
7	0xbd66930e	-0.056292586
8	0xbc8da770	-0.017291754
9	0xbc8b59f7	-0.017010672
10	0x3d78afcd	0.06071453
11	0xbc6d0287	-0.014465935
12	0xbd8cff3b	-0.06884619
13	0xbbf8a586	-0.0075880913
14	0xbcecb427	-0.028894497
15	0xbd1b829e	-0.037966363
16	0xbbb9c0b3	-0.0056687235
17	0x3cec2ea2	0.02883083
18	0x3bf04445	0.007332357
19	0xbd068b13	-0.032847475
20	0x3cafb7d3	0.021449959
21	0x3b4436c9	0.002993988
22	0xbcf3cde2	-0.029761259
23	0xbd67d461	-0.056599025
24	0xbcefd5b4	-0.029276706
25	0xbda76123	-0.08172824
26	0xbd8a1625	-0.06742505
27	0x3caee99c	0.021351628
28	0x3dbb4e7e	0.091458306
29	0x3ba67df2	0.005080932
30	0x3d8e6d9c	0.069545
31	0x3cf11412	0.029428516
32	0x3d2d6d59	0.04234061
33	0xbcaf4bcb	-0.021398446
34	0x3da87fab	0.08227476
35	0x3d0392cf	0.03212243
36	0xbdb28201	-0.087162025
37	0xbcdda95b	-0.027058294
38	0xbc7c2414	-0.015389461
39	0x3da8ff21	0.08251787
40	0xbc81ccf8	-0.015844807
41	0xbd3e8822	-0.046516545
42	0x3c37b711	0.01121308
43	0xbd989183	-0.07449629
44	0x3d8fe2bb	0.07025667
45	0xbbab6d81	-0.0052315597
46	0xbe23ef7e	-0.16009328
47	0xbd237240	-0.03990388
48	0xb9c64e6d	-0.00037823935
49	0xbca7309b	-0.02040892
50	0x3d847709	0.06468017
51	0xbd8d028c	-0.068852514
52	0x3c4d0b75	0.012514939
53	0xbd010dc9	-0.031507287
54	0x3c907d98	0.017638013
55	0x3d926fe0	0.07150245
56	0x3cf9ebfc	0.030508034
57	0x3cc63f04	0.02419997
58	0xbd0620ba	-0.032746054
59	0xbc7149ff	-0.014727115
60	0xbc8ef982	-0.017452959
61	0xbc833cb2	-0.016020153
62	0x3c7e7e8b	0.0155331
63	0x3d2accaf	0.041699108
64	0xbd5bad13	-0.053631853
65	0xbdbd9078	-0.09256071
66	0xbdfcd579	-0.12345404
67	0x3d3b54a5	0.04573502
68	0xbd5107a7	-0.05103269
69	0x3d946ebc	0.072476834
70	0xbb6cee45	-0.0036152762
71	0x3d07255c	0.032994613
72	0xbd977fcd	-0.07397423
73	0x3d184ab1	0.037180606
74	0x3cb4e9c2	0.02208412
75	0x3dd6397a	0.104601815
76	0x3db7e1a1	0.08978582
77	0xbd2f3800	-0.042778015
78	0x3c8526fc	0.01625394
79	0x3c2f4929	0.010698595
80	0x3c9c1249	0.019051688
81	0xbc9e292e	-0.019306745
82	0x3d8df92f	0.069322936
83	0x3dbd322e	0.09238087
84	0x3d461cdf	0.048367377
85	0xbe694dcd	-0.22783585
86	0xbcbcba92	-0.023038182
87	0x3dee41a5	0.116336145
88	0x3cf749e3	0.0301866
89	0xbe375705	-0.17904289
90	0xbd41759a	-0.047231294
91	0xbd4a522a	-0.049394764
92	0xbdb74ddc	-0.08950397
93	0xbe088f18	-0.13335836
94	0xbd666773	-0.056251
95	0x3cebe585	0.028795967
96	0x3d438772	0.047736593
97	0xbd7f45c2	-0.062322386
98	0xbc0b252b	-0.008492748
99	0xbca16d91	-0.019705566
100	0xbd7e7787	-0.06212571
101	0xbd99da89	-0.075123854
102	0x3d0145d1	0.031560723
103	0xbd161f4c	-0.03665094
104	0x3d08c213	0.03338821
105	0x3d74bab7	0.059748378
106	0x3cf3cec3	0.029761678
107	0xbe3de3f5	-0.1854399
108	0xbd815161	-0.0631435
109	0xbbb52e26	-0.005529183
110	0xbd84f08b	-0.064911924
111	0xbd1bf73c	-0.038077578
112	0x3db309b0	0.08742082
113	0xba9e73ea	-0.0012088988
114	0x3dab258b	0.0835677
115	0xbd75fdec	-0.060056612
116	0x3cbe7268	0.023247913
117	0xbd78d84f	-0.060753163
118	0xbc1565f6	-0.009118548
119	0x3d87aaa9	0.06624348
120	0xbdd33832	-0.10313453
121	0x3d1f06a9	0.03882471
122	0xbe8a6341	-0.2702885
123	0xbce95c66	-0.028486442
124	0xbcacba15	-0.021084825
125	0xbd3655e2	-0.044515498
126	0x3c1ee5fd	0.009698388
127	0xbcf07cb2	-0.029356334
128	0xbc98beea	-0.018645722
129	0xbcc2efda	-0.02379601
130	0x3d6b5902	0.05745793
131	0xbd6b573a	-0.057456233
132	0x3d66e073	0.056366395
133	0xbdba485c	-0.09095833
134	0xbd890a63	-0.06691434
135	0xbcc02c68	-0.023458675
136	0x3d48147a	0.048847653
137	0x3cc4b7ca	0.024013419
138	0xbd145a21	-0.036218766
139	0xbc165281	-0.009174944
140	0x3bb93776	0.0056523634
141	0xbd171ff8	-0.036895722
142	0x395497fb	0.00020274513
143	0xbc581cfb	-0.013190503
144	0x3afc2318	0.0019236533
145	0x3c46e715	0.012140055
146	0x3d6391ee	0.05555909
147	0xbd1374b8	-0.035999984
148	0xbda2c97d	-0.07948587
149	0xbd5baa03	-0.053628933
150	0x3d5882e3	0.0528592
151	0xbd79c83b	-0.06098197
152	0xbcba0075	-0.022705296
153	0xbd5bb9d2	-0.05364401
154	0xbc90b21d	-0.017663056
155	0x3b8047a6	0.003914791
156	0xb8a9c54b	-8.095297e-05
157	0xbcfb654b	-0.030687949
158	0x3d1316a5	0.035910267
159	0x3d2e2f7a	0.042525746
160	0xbd975800	-0.073898315
161	0x3d84bef8	0.06481737
162	0x3d73cce3	0.059521567
163	0xbd89fb1e	-0.0673735
164	0x3db1a89b	0.08674737
165	0xbce4a538	-0.027910814
166	0xbc7a8a60	-0.01529178
167	0x3d60441c	0.054752454
168	0xbc9c6945	-0.019093165
169	0xbd3c5efa	-0.045989014
170	0x3c1af9cb	0.009458969
171	0x3d879f40	0.066221714
172	0x3d380229	0.044923935
173	0x3cdee582	0.027209047
174	0x3cba613f	0.022751449
175	0xbb5c50c6	-0.003361748
176	0xbda6beb2	-0.08141841
177	0xbd28a814	-0.041175917
178	0xbdc48826	-0.09596281
179	0xbc2ea165	-0.010658597
180	0xbdb8bf01	-0.09020806
181	0x3cca2cd6	0.024679583
182	0x3cdbd18e	0.026833322
183	0xbda029a5	-0.07820443
184	0xbca051bf	-0.01957023
185	0xbd543015	-0.051803667
186	0x3da05e9c	0.07830545
187	0xbcd83f9a	-0.026397515
188	0x3d1726a1	0.036902074
189	0xbd0a8d19	-0.033825967
190	0xb9c68e51	-0.00037871537
191	0x3d62f1aa	0.05540625
192	0x3c151510	0.00909926
193	0xbc47d025	-0.012195622
194	0x3d3a1034	0.04542561
195	0xbdcea154	-0.10089365
196	0x3c9d25a0	0.01918298
197	0xbd89af3a	-0.06722875
198	0xbd540af6	-0.051768266
199	0xbbb9bf10	-0.0056685284
200	0x3c2c8491	0.010529653
201	0x3c5dd4c5	0.013539498
202	0x3c807fea	0.015685994
203	0xbcecc30b	-0.028901597
204	0xbd304894	-0.043037966
205	0x3d390e08	0.045179397
206	0xbc66bf7e	-0.014083741
207	0x3d73392f	0.059380706
208	0xbb5d581d	-0.0033774443
209	0x3bcd36b4	0.0062626246
210	0xbd9e13fa	-0.07718654
211	0xbd5c0a7e	-0.053720944
212	0x3d46c429	0.048526917
213	0x3d1ab308	0.037768394
214	0x3cd696d0	0.02619496
215	0x3d4e767e	0.05040597
216	0xbcd1a696	-0.02559213
217	0xbbd11935	-0.0063811787
218	0xbdfcc398	-0.12341994
219	0x3d539a96	0.051661097
220	0xbd58382b	-0.05278794
221	0xbd6a2d95	-0.057172377
222	0x3cdaf169	0.026726441
223	0xbcd8a9a7	-0.026448084
224	0xbc49a9ad	-0.01230852
225	0x3d054780	0.03253889
226	0xbc214bb7	-0.009844712
227	0xbd14d6bf	-0.03633761
228	0xbe163f4a	-0.1467258
229	0xbd94452d	-0.07239757
230	0xbd054afc	-0.032542214
231	0xbd989a8f	-0.07451355
232	0x3c658553	0.014008838
233	0xbd2b9a5a	-0.041895248
234	0x3d121bde	0.035671107
235	0x3ca9ef31	0.020743938
236	0xbc8b1e48	-0.016982213
237	0x3ddda3bb	0.10822245
238	0xbd8a7682	-0.06760885
239	0xbd70d421	-0.058796052
240	0x3dae102f	0.084991805
241	0xbe01ea9c	-0.12687153
242	0xbcb9c9d2	-0.022679243
243	0x3d4da14a	0.050202645
244	0x3c4bef8d	0.01244725
245	0xbc704ecf	-0.014667227
246	0xbc949d2c	-0.018141352
247	0x3d44ae26	0.048017643
248	0xbd6e44ce	-0.058171086
249	0xbd4a9a4b	-0.04946355
250	0xbc6ab02c	-0.014324229
251	0x3ce1e4c4	0.027574904
252	0x3d44802c	0.047973797
253	0xbda5a94c	-0.080889314
254	0xbd8fcd44	-0.07021573
255	0x3bb03b10	0.0053781345

bias f4 [128]
0	0x3cc00ba6	0.023443054
1	0xbe142c4c	-0.14470023
2	0xbdb1885c	-0.086685866
3	0xbd093e3b	-0.033506613
4	0xbdb5c432	-0.08875312
5	0xbe094615	-0.1340564
6	0x3d12e5ef	0.035863813
7	0xbd380cff	-0.04493427
8	0xbd812280	-0.063054085
9	0xbe06db7c	-0.13169664
10	0x3c346d60	0.011012405
11	0xbd3889ca	-0.04505328
12	0xbd769f90	-0.060210764
13	0xbbcb3118	-0.006200921
14	0xbdab9a96	-0.08379094
15	0xbe00e766	-0.12588271
16	0xbdffc069	-0.12487871
17	0x3cf557ee	0.029949155
18	0xbd384664	-0.044989005
19	0xbb32938c	-0.002724859
20	0x3b2ed76b	0.0026678692
21	0x3cda1320	0.026620448
22	0xbda2fb10	-0.079580426
23	0xbc016a91	-0.007898943
24	0xbd78e45e	-0.060764663
25	0xbe04d3b3	-0.12971382
26	0xbd41049a	-0.04712353
27	0xbdbe32fb	-0.092870675
28	0xbddb6757	-0.1071307
29	0xbd029b93	-0.03188665
30	0xbd31f1c3	-0.043443453
31	0xbdde1e29	-0.10845596
32	0xbdb1e913	-0.086870335
33	0xbd0b1e59	-0.03396449
34	0xbd45efac	-0.048324272
35	0xbcfdd65c	-0.030986004
36	0x3d3d0d1a	0.046155073
37	0xbd1195d7	-0.03554329
38	0xbdd58d4a	-0.104273394
39	0xbdeefede	-0.11669706
40	0xbc65557e	-0.013997434
41	0xbdb38580	-0.087656975
42	0xbe0e7228	-0.13910735
43	0xbd8b733a	-0.06809087
44	0xbdea9ea0	-0.114560366
45	0xbc50a167	-0.012733794
46	0xbd42dd87	-0.047574546
47	0x3d2b4979	0.041818116
48	0xbceb766e	-0.028742995
49	0xbdd398e9	-0.103319
50	0xbd8b02f7	-0.06787675
51	0xbcb573ee	-0.022150006
52	0xbc36d89c	-0.011160042
53	0xbe0c5667	-0.13704835
54	0xbddb235c	-0.10700104
55	0x3d3cc20d	0.0460835
56	0xbd617dd1	-0.05505163
57	0xbe02bfca	-0.12768474
58	0xbdde93ea	-0.10868056
59	0xbe0b7999	-0.13620605
60	0xbd71df4d	-0.059050847
61	0x3cc40ad2	0.02393094
62	0xbd56a90b	-0.052407306
63	0x3b208e65	0.0024498936
64	0xbd03646e	-0.0320782
65	0xbcef3918	-0.02920203
66	0xbde010a1	-0.10940672
67	0xbd838762	-0.064223066
68	0xbd305568	-0.0430502
69	0xbd3c4de8	-0.045972735
70	0xbd7ad151	-0.061234776
71	0xbc6ebf40	-0.014571965
72	0xbd59824f	-0.053102788
73	0xbc96d2a4	-0.018410988
74	0xbc9ee710	-0.019397289
75	0xbdd0fc87	-0.10204416
76	0xbc0fd704	-0.008779291
77	0x3c7888a8	0.0151693
78	0xbd944cb5	-0.07241193
79	0xbda84a96	-0.08217351
80	0x3cd32947	0.025776519
81	0xbdc12319	-0.094305225
82	0xbda81192	-0.08206476
83	0xbcf2e2c2	-0.029649142
84	0x3d3f2fdc	0.0466765
85	0xbdbb60ea	-0.09149344
86	0xba55d014	-0.0008156311
87	0xbdae64ab	-0.08515295
88	0xbd981b13	-0.07427039
89	0xbc93475c	-0.017978363
90	0x3d0fcbf5	0.035106618
91	0xbd596420	-0.053074002
92	0x3ce45c59	0.027876066
93	0xbd913f36	-0.07092135
94	0xbd27a8d3	-0.040932488
95	0xbd29620b	-0.041353267
96	0xbd306c89	-0.043072257
97	0xbd6de2f0	-0.058077753
98	0xbd4660e0	-0.04843223
99	0xbd8be6e0	-0.06831145
100	0xbd03be69	-0.03216401
101	0xbd490d94	-0.049085215
102	0xbd21969d	-0.039450277
103	0x3d34ba9f	0.04412329
104	0xbe19eb11	-0.15031077
105	0xbdbbc811	-0.09169019
106	0x3c5510a6	0.013004458
107	0x3a51de36	0.00080058293
108	0xbd27eff4	-0.04100032
109	0xbdd5dd3f	-0.1044259
110	0xbd44b3c5	-0.048023004
111	0xbbaff932	-0.0053702826
112	0xbd17203f	-0.036895987
113	0xbe005f12	-0.12536266
114	0xbc924b9a	-0.017858315
115	0xbe184cc8	-0.1487304
116	0x3c795201	0.015217305
117	0xbd7d80c0	-0.061890364
118	0x3ccac25f	0.024750886
119	0x3bb5aaa5	0.005544024
120	0xbda431b6	-0.08017294
121	0xbcc927f8	-0.024555191
122	0x3cc341c7	0.023835076
123	0x3d6ffe22	0.05859197
124	0xbce42398	-0.027849004
125	0xbd82d668	-0.06388551
126	0xbd3b2a08	-0.04569438
127	0xbd7fa44f	-0.062412556

weight f4 [12, 128]
0	0x3d073de6	0.033018015
1	0xbcd65b8c	-0.0261667
2	0xbd53dbcc	-0.051723287
3	0x3d00b601	0.031423572
4	0x3b9f79e6	0.0048668263
5	0x3d44a218	0.048006147
6	0xbc744fdd	-0.014911619
7	0xbd4a5974	-0.049401715
8	0xbd945974	-0.07243624
9	0x3d39dd42	0.045377024
10	0x3d398178	0.045289487
11	0xbd046604	-0.032323852
12	0xba19149f	-0.00058395596
13	0xbc0e041a	-0.00866797
14	0xbd37323b	-0.044725638
15	0x3c508c72	0.012728797
16	0x3d27160a	0.040792502
17	0xbd791b59	-0.060817096
18	0x3cb7ec9d	0.022451693
19	0x3d02cc9f	0.031933423
20	0xbcb86ef1	-0.022513838
21	0xbd2363df	-0.039890166
22	0xbd3d90ec	-0.046280786
23	0xbbe9d18f	-0.007135577
24	0x3d2b1e34	0.04177685
25	0x3d20b8b9	0.039238665
26	0x3b9cc4db	0.004784209
27	0x3d39d736	0.045371257
28	0xbd821bee	-0.063529834
29	0xbccc0b21	-0.02490765
30	0x3d619a76	0.055078946
31	0x3ccced6e	0.025015559
32	0xbcd3ca90	-0.025853425
33	0xbca70718	-0.020389125
34	0xbd13ac01	-0.036052708
35	0x3cc33b7a	0.023832072
36	0xbd711b49	-0.05886391
37	0x3d4cf668	0.05003968
38	0xbcc4ea1f	-0.024037419
39	0x3e00a307	0.1256219
40	0xbc9a6d56	-0.018850964
41	0xbbd41d60	-0.0064732283
42	0x3d00bc2e	0.031429462
43	0x3d626c90	0.055279315
44	0x3d1a58c5	0.037682313
45	0x3d249a85	0.040186424
46	0xbc8da367	-0.01728983
47	0xbc51cd28	-0.012805261
48	0xbc87c001	-0.016571047
49	0x3cc9b9bf	0.024624703
50	0xbba7e0ba	-0.005123225
51	0x3cdba7d0	0.026813418
52	0x3d2d70a4	0.04234375
53	0x3d7cb7c7	0.0616987
54	0x3bf2062d	0.00738599
55	0xbd040f2b	-0.032241028
56	0x3c424d29	0.011859217
57	0x3d07ad73	0.0331244
58	0x3acc6282	0.0015593322
59	0xbd1f04e3	-0.03882302
60	0xbd2c4a2b	-0.04206292
61	0xbd67b2aa	-0.05656687
62	0xbbcea718	-0.00630654
63	0x3d178bbc	0.036998495
64	0x3d530dbc	0.05152677
65	0x3c8d2539	0.017229663
66	0xbc71b875	-0.014753451
67	0x3c65337a	0.013989324
68	0x3c67982c	0.014135402
69	0xbd02bfdc	-0.031921253
70	0xbd0854cd	-0.033283997
71	0xbd2a2d79	-0.041547272
72	0x3d0bf3e0	0.034168124
73	0x3d0459ba	0.032312132
74	0x3d35dac9	0.044398103
75	0xbd7b588e	-0.06136375
76	0x3b4e3efb	0.0031470645
77	0x3c0e4995	0.0086845355
78	0x3b8b3a5d	0.004248901
79	0x3d8c782e	0.0685886
80	0xbd2c2c30	-0.042034328
81	0x3bcfc1c7	0.0063402387
82	0xbd54cc70	-0.05195278
83	0xba9ae1fc	-0.0011816616
84	0x3d9d75a8	0.07688457
85	0xbadba2e8	-0.0016756924
86	0xbc5ec1b5	-0.013595988
87	0xbb330315	-0.002731507
88	0x3c91a165	0.017777154
89	0xbcc666cf	-0.024218945
90	0xbd49b1db	-0.04924188
91	0xbd0ebef4	-0.034850076
92	0xbcf82e46	-0.030295502
93	0x3cc9c071	0.024627896
94	0x3d7c9880	0.061668873
95	0x3d1d648e	0.038425975
96	0xbcbf0126	-0.023315977
97	0x3c1574ad	0.009122056
98	0xbc954a6f	-0.01822397
99	0xbc066edf	-0.008205145
100	0x3db49bbd	0.08818767
101	0x3ca0ad2c	0.019613825
102	0x3d517f1a	0.051146604
103	0xbb7897d6	-0.0037932298
104	0x3cdf31a9	0.02724536
105	0xbccc51be	-0.024941321
106	0xbd3721e6	-0.044710062
107	0xbd0313bd	-0.032001246
108	0x3d1f6169	0.038911257
109	0x3b55b466	0.0032608747
110	0x3d61e5e7	0.055150893
111	0xbb913693	-0.0044315546
112	0xbd97e178	-0.074160516
113	0x3dc32b3d	0.095297314
114	0xbcad5f8a	-0.02116372
115	0x3d8dcb6e	0.06923567
116	0xbd2900ed	-0.04126065
117	0x3da8d75a	0.082442
118	0xbc913471	-0.017725201
119	0x3cd30c40	0.025762677
120	0x3dad9616	0.08475892
121	0x3d27a94c	0.04093294
122	0xbb58e0a0	-0.0033092871
123	0xbd380b16	-0.044932447
124	0xbcf15ca3	-0.029463118
125	0xbd21d8c7	-0.039513376
126	0x3dabb012	0.08383192
127	0x3b496a12	0.003073339
128	0x3c92d1c3	0.017922288
129	0xbd14e0d0	-0.03634721
130	0xbbba473a	-0.0056847604
131	0xbd9145f7	-0.07093423
132	0xbd481c58	-0.048855156
133	0xbda80de1	-0.08205772
134	0xbadd6888	-0.0016892115
135	0x3d0d27b2	0.034461685
136	0xbd854e0c	-0.06509027
137	0xbcac40be	-0.021026965
138	0xbd38f75b	-0.04515777
139	0x3dd809f5	0.10548774
140	0x3a7d8af9	0.00096718926
141	0xbd4f2a85	-0.05057766
142	0x3d515ca3	0.051113736
143	0xbd6e70fc	-0.05821322
144	0xbd7725c0	-0.060338736
145	0x3da9f606	0.08298878
146	0xbd16168f	-0.036642607
147	0x3d9471f2	0.07248296
148	0xbc238e0c	-0.009982597
149	0xbcc560a3	-0.024093932
150	0xbc158e26	-0.009128129
151	0x3d2b9326	0.04188838
152	0x3c96e4b5	0.018419603
153	0xbafade0a	-0.0019139659
154	0x3d3e735e	0.04649674
155	0x3cb4ac78	0.022054896
156	0x3c4e1f90	0.012580767
157	0xbcde9033	-0.027168369
158	0xbd82be90	-0.06384003
159	0x3cb7c558	0.022432968
160	0xbd071ff6	-0.032989465
161	0xbccb7002	-0.024833683
162	0xbc836a82	-0.016041998
163	0x3cda8ba4	0.026677914
164	0xbdace22d	-0.08441577
165	0x3c689095	0.014194627
166	0x3c15e192	0.009148018
167	0xbcb908a4	-0.022587128
168	0xbd2b5468	-0.041828543
169	0xbbd23781	-0.006415308
170	0xbb2b6d17	-0.0026157552
171	0x3ce44747	0.027866019
172	0xbca639ca	-0.020291228
173	0x3bcf20d5	0.0063210526
174	0x3d4c75bb	0.049916964
175	0x3c492adc	0.012278285
176	0xbd9d5e3d	-0.0768399
177	0x3ce6d9df	0.02818006
178	0x3d164dd2	0.03669531
179	0xbd6cd9ea	-0.057825007
180	0xbc00058c	-0.0078138225
181	0xbd860458	-0.06543797
182	0xbc31e067	-0.010856724
183	0x3d13bd36	0.036069117
184	0x3d8fd51c	0.07023069
185	0x3b3cc0b9	0.0028801395
186	0xbdaf173a	-0.08549352
187	0xbaea5f4c	-0.0017881184
188	0x3d8feb0e	0.07027255
189	0x3d896573	0.06708803
190	0x3ca27bc2	0.019834403
191	0xb9fe0ff3	-0.00048458538
192	0xbb9f59e5	-0.004863011
193	0x3d0730aa	0.033005394
194	0xbb48952b	-0.003060649
195	0x3d83fcdc	0.064447135
196	0x3c11589b	0.008871223
197	0x3aa6609e	0.0012693589
198	0xbc5c322e	-0.013439698
199	0xbc3e4e0a	-0.011615286
200	0xbcde156a	-0.02710982
201	0xbc69c023	-0.014267
202	0xb90330d6	-0.00012511326
203	0x3cd5ed27	0.02611406
204	0xbc194828	-0.009355582
205	0x3c154dc1	0.009112776
206	0x3c843339	0.016137706
207	0xbced47f1	-0.028964968
208	0x3caa099a	0.020756532
209	0x3c91a7d6	0.017780226
210	0xbcab1da4	-0.020888157
211	0x3d2b6a5b	0.041849475
212	0x3cbd3a75	0.023099164
213	0x3bd79c63	0.006579922
214	0x3b872ef0	0.0041254684
215	0x3b466c8c	0.0030277101
216	0xbca12b3e	-0.01967394
217	0x3c5c2a08	0.013437755
218	0xba3d6862	-0.0007225332
219	0xbd7fb500	-0.062428474
220	0x3d0eb3e6	0.034839533
221	0xbcd57565	-0.026056955
222	0xbb48abf3	-0.0030620068
223	0xbd6ac5a4	-0.05731739
224	0xbd2bac3b	-0.0419123
225	0xba63db05	-0.0008691999
226	0xbbfc445c	-0.0076985788
227	0xbc9d2215	-0.01918129
228	0x3ccf067c	0.025271647
229	0xbd9636da	-0.07334681
230	0x3d8b4550	0.0680033
231	0xbd136b0e	-0.035990767
232	0xbd40eec0	-0.04710269
233	0xbca29af0	-0.01984927
234	0x3a9cbbb8	0.00119578
235	0x3da4b40b	0.08042153
236	0xbbd57c29	-0.006515045
237	0xbd2c0789	-0.041999374
238	0x3d8c23a0	0.068427324
239	0xbd376012	-0.044769354
240	0x3ccfcb13	0.025365388
241	0xbd6e967a	-0.058248974
242	0xbb37ae74	-0.0028027566
243	0xbcab4ef8	-0.020911679
244	0x3c933bdf	0.017972885
245	0x3ccc3a80	0.024930239
246	0x3d6795f7	0.056539502
247	0x3c8ed317	0.01743464
248	0x3b8a765c	0.0042255353
249	0xbd9b014d	-0.075686075
250	0x3b6e1e99	0.0036334156
251	0x3d585fbf	0.052825686
252	0x3d34cdb8	0.0441415
253	0xba7e667c	-0.00097046024
254	0x3b359b67	0.0027711035
255	0xbb2551ce	-0.0025225761

bias f4 [12]
0	0xbd7eff7e	-0.062255375
1	0xbcaff993	-0.021481311
2	0xbda2cfd8	-0.07949799
3	0x3c2577f4	0.0100994
4	0x3d704044	0.05865504
5	0x3cfa28f9	0.030537115
6	0x3d80269c	0.06257364
7	0xbd7c468e	-0.061590724
8	0x3dd93031	0.10604895
9	0x3e0bd77f	0.13656424
10	0x3d875f07	0.06609922
11	0x3d3be776	0.045875035
