assets/spot_policy_ftd3_hop.pt (torch, 783922 bytes, 10 tensors)

weight f4 [512, 48]
00000000: c567 d5bd 7ed9 e5bd d627 9ebc 9262 c63b
00000010: 52e6 6a3b dfc0 52bd cb48 75bc 67db c73b
00000020: 874f c43c e2f5 c7bd 90c6 0b3e 3ece e0bd
00000030: 39e4 5e3c 243d dfbb 0c2a 8a3a 4980 f03a
00000040: 265c 8abb ce48 31bc 9b17 e23a e4e3 98bb
00000050: 82f7 32bc 7027 ba3b 6d28 3abc 4521 02bc
00000060: 3185 8b3b 26fe 4039 ff72 b13b a03d af3b
00000070: f60a a33b 2db7 5b3a 679a 47bb 0044 d23a
00000080: de30 a239 9182 0f3b 2a17 683b de4e 773a
00000090: f230 56ba 7021 3bb8 409d dcbb 366b 61bb
000000a0: 1129 debb a394 07bc f475 9a3b 0b79 1cbc
000000b0: caa3 05bc f9c1 ba3b 15b4 d2bb 5d7d 3d3b
000000c0: 0a99 88bd bd1c 88bc 2708 5cbd 5528 753d
000000d0: bd23 a93c 8560 1fbd b654 45bb 6a18 e33b
000000e0: 9423 863c cf6c 613d 9dcd ae3c e8e6 363d
000000f0: 98e7 37bc 3e43 3a3b c7c4 6d3c 034d 68bc
00000100: eba3 583c 2829 6dbd 8ab0 20bd bccd 053d
00000110: 73a0 beb9 fe89 37bc 9358 3e3b 450e b93c
00000120: c4d0 9b3b f937 6d3d d42d 323c c369 09bc
00000130: 4af1 723c 81b8 02bd bb82 04bd f8d9 f13c
00000140: d546 fb3c ada0 99bb 55c3 8ebb 473f b33c
00000150: f069 cc3c 1877 56bd f364 0f3d da11 ee3c
00000160: 44d5 2c3d 7b50 a83d 6961 603d 2482 013d
00000170: e8e0 69bc 55a7 1d3e 80f0 3d3d 9d25 2b3a
00000180: 8a0b 90bd 9513 16bc 3ac5 b9bd 54e5 5e3d
00000190: 3986 053d 274b 9bbd 3ae1 99bc f85f 42bb
000001a0: 3e43 03bb 96fe 9a3d 0d0b 63ba 5e4c dd3d
000001b0: e822 3b3d 87ff ce3c c571 38ba b6ae 48bd
000001c0: cd29 0dbc b556 c3bc a36e 2a3a 6478 38bd
000001d0: 0ed2 59bd f3cf 79bd 0da5 c23c 29b4 20bd
000001e0: 8063 22ba 69e4 863c af54 0e3d 51d9 3f3c
000001f0: 4691 e039 d52b 1dbb deb6 d1bc ed8b 063c
00000200: e33c 9dbc 513b 90bb 830d a5bc ff24 48bc
00000210: 6b41 983c 982e c73b 851f 583b b5a1 833b
00000220: 4bd5 663b 9265 d7ba 4c7a 243c 695a 583c
00000230: 39a6 423d 0ba2 383d b45b 54bc 2723 e73c
00000240: f206 7b3c 1ab6 853c 7d82 c93a eac1 83bc
00000250: ae38 a3bb a176 803b 4411 b2ba 353d 723c
00000260: fcea 1d3d 6ef5 75bc 8e41 95bc b69f a13b
00000270: 9cb2 8d3c 5192 02bc 0f08 f7bd c743 b23d
00000280: 6047 04bb b866 d93b e33e 503b 67a7 80bc
00000290: 719f 0dbc ab1d 18bc a156 85bc 93fc d03c
000002a0: 1a95 82bb 9a8e 7d3b f956 57bd 8138 f13c
000002b0: 0cfa 1e3b bfcd 64bb 9269 7dbb e969 14bc
000002c0: bfa3 bdbb 0b05 e2bb a165 77bb b659 e5bb
000002d0: ab47 8f3a 721c 193b e457 93bc f3c6 853b
000002e0: ae46 dbbb d437 0a3b 10ef 9f3b dd1a 233b
000002f0: 9c36 243d 1bc0 1c3c a150 463c 8274 16bb
00000300: b3c1 103d aaad 8a3d 7cff efbc 5961 a73d
00000310: 86fb 50ba aa01 8b3c a327 973d e052 9e3d
00000320: c3ca 9a3d 9405 01bc 6021 0dbd 6a46 5b3d
00000330: b1fc 88bd 2ac6 e63a d6ee af3c be13 fcbc
00000340: f6e6 a93c 8f7c 2f3c 65b7 80bc c10d 1bbb
00000350: a1b7 30bc b07b a4ba d1ad 02bc 2014 8a3c
00000360: b2e9 193d 5343 153d d8e2 043d f64a 113d
00000370: 7768 993c ba20 963b 0022 4fbc 0f34 4c3b
00000380: 4d16 bc3c 9656 103c 0940 4cbb b7b2 533c
00000390: e3eb a0bb 6a67 08bc 59fa 5bbc da39 18bc
000003a0: 44e2 293c 7c0b 813b b47e 2d3c 3c2d 83b9
000003b0: 9e74 c7bb b17b 583b 2373 043c d67d 553b
000003c0: f5de 93bd 4cfc 4dbc ec7a 093e 30ef 593b
000003d0: 535d 8fbc 925c cdbc b47b 07bd 2f76 ae3b
000003e0: 4968 1fbb e8ca 4f3d 7aed 563c 9ca9 663c
000003f0: 1428 60bc 9885 183d 8d5a e8bc 9a44 983c
-0.10420183 -0.11223124 -0.019306105 0.006054231 0.0035842848 -0.051453467 -0.0149709685 0.006099153
0.023963703 -0.09763695 0.13649964 -0.109768376 0.013604217 -0.0068127085 0.0010541095 0.0018348779
-0.0042224107 -0.010820581 0.0017249467 -0.0046658386 -0.010923268 0.005680971 -0.011362177 -0.007942502
0.004257821 0.00018405225 0.00541532 0.0053479224 0.004975672 0.00083814823 -0.0030457021 0.0016041994
0.00030935457 0.0021897892 0.0035414197 0.00094340544 -0.00081707456 -4.4615415e-05 -0.006732613 -0.0034396178
-0.006779798 -0.008275184 0.004713768 -0.009550343 -0.008156726 0.005699393 -0.006430159 0.0028913834
-0.06669815 -0.016615266 -0.053718712 0.059852917 0.020646924 -0.038910408 -0.0030110306 0.0069304006
0.016374387 0.05503541 0.021338278 0.044653803 -0.01122465 0.0028421427 0.014512247 -0.014178517
0.013222675 -0.057900578 -0.03923086 0.032666907 -0.00036359168 -0.0112023335 0.0029044494 0.022589812
0.0047551114 0.057914708 0.010875184 -0.008387032 0.014828036 -0.031914238 -0.032351237 0.02952288
0.030673424 -0.0046883435 -0.0043567815 0.021880759 0.024952859 -0.05235967 0.035008382 0.029061247
0.042195573 0.082184754 0.054780398 0.031618252 -0.014274813 0.15395863 0.046371937 0.0006528737
-0.07033451 -0.009159942 -0.09070821 0.054417923 0.032598708 -0.075826935 -0.018784154 -0.0029659253
-0.0020029093 0.0756809 -0.00086610095 0.108055815 0.045687586 0.02526833 -0.0007035996 -0.048994742
-0.008615923 -0.023845056 0.00065014715 -0.04503669 -0.05317884 -0.06098933 0.023760343 -0.039234314
-0.0006194636 0.016466336 0.03474873 0.011709527 0.00042832847 -0.0023982425 -0.025599893 0.008212072
-0.019194072 -0.0044016023 -0.020148044 -0.012215852 0.018585881 0.0060785525 0.0032977771 0.0040170797
0.0035222347 -0.0016433469 0.0100389235 0.013205149 0.047521804 0.04507641 -0.012961317 0.028215004
0.01532148 0.016322184 0.0015373972 -0.016083676 -0.004981122 0.0039203917 -0.0013585468 0.014785101
0.038554177 -0.015012128 -0.018219735 0.004932369 0.017297082 -0.007969455 -0.12062084 0.08704334
-0.0020184144 0.0066345595 0.0031775765 -0.015704824 -0.008643971 -0.009284417 -0.01627666 0.025511062
-0.0039850594 0.0038689733 -0.052573178 0.029445888 0.0024257926 -0.0034912673 -0.003866766 -0.009058454
-0.0057873423 -0.006897574 -0.0037749785 -0.00699922 0.0010931393 0.0023362902 -0.017986245 0.0040825545
-0.0066917753 0.0021090405 0.0048807934 0.0024887838 0.040091142 0.009567286 0.012104184 -0.0022957628
0.035340976 0.06771405 -0.02929663 0.081728645 -0.000797205 0.016968567 0.07380607 0.07730651
0.07558205 -0.007874865 -0.034455657 0.05353395 -0.06688822 0.0017606665 0.02147619 -0.030771133
0.020740014 0.010710849 -0.01571245 -0.002365932 -0.010785968 -0.0012549069 -0.007976011 0.0168553
0.037576385 0.03644116 0.032442898 0.03547188 0.01872657 0.004581538 -0.012642384 0.003115896
0.022959853 0.008809706 -0.0031166098 0.012921027 -0.0049109324 -0.008325437 -0.013426387 -0.009291137
0.010368887 0.0039381366 0.01058929 -0.0002501997 -0.0060869 0.003303271 0.008084091 0.0032576225
-0.0722026 -0.012572359 0.13425797 0.003325414 -0.017500555 -0.025068555 -0.033076957 0.005324147
-0.0024323633 0.050730616 0.013118142 0.014078524 -0.01368143 0.03723678 -0.02836349 0.0185874

bias f4 [512]
00000000: e240 81bd c14a 0bbd c024 9dbd aa3e 8ebe
00000010: b5c1 9dbd 0b01 01be 902e cf3c 98c4 d4bd
00000020: f326 a6bd 5b48 f4bd 3040 883c e2bf 96bd
00000030: ec27 24bb c65d 3fbc e3e5 4ebd c933 8abd
00000040: 3fee 203d 8468 eebd e8c2 013c 1a34 7d3a
00000050: 47b4 e53c 552e 09be 46a8 babc 7c22 16be
00000060: b34c 10bd b4e1 adbd 9027 b8bd 2ef9 12be
00000070: 013e c7bd daf4 ba3c 2f7a 0ebe 069d ebbd
00000080: 6090 8cbd 0036 7abd 6591 88bd 291a 60bd
00000090: 56dc 13be b0b2 c4bd 9694 8e3b c47f 1fbe
000000a0: d589 6fbd d5a0 643a e226 15be dd21 103d
000000b0: ba5b 27bd fdd1 20be e264 1bbd b2d7 4c3c
000000c0: 1215 333a d147 87bd 6485 25bd 1998 fcba
000000d0: 88f1 1c3c ef31 553d bed9 53bd 0819 9fbd
000000e0: ec3c abbd 42c4 8dbd 7d06 f0b8 7de1 3dbe
000000f0: 5275 95bd 4ae4 833c 8083 123c 63ee 27bc
00000100: 5996 0bbe 2bb5 d0bb 38cb a3bb 5e25 833c
00000110: 775b ddbd 09f7 4bbe 7ec8 b2bd 7090 18be
00000120: 2961 9dbd 0e10 4cbe 437a 50bd c871 c1bd
00000130: 1f0a ddbd 7a4e 6dbb 13c8 15be b380 dfbd
00000140: 8cb0 97bd 0730 b3bd 6bf0 cfbb d1d8 1dbe
00000150: bda9 35be a4b0 ebbd 36d6 c3bd 03f5 9f3c
00000160: 7b7a 23bd e660 b4bc d9e2 15bc 77e5 7ebc
00000170: a8d3 56be 75bc 3d3c 12aa 80bc ec4e 66be
00000180: e5c0 83bd 6e86 7bbd 2e3d 00be 7a05 97bd
00000190: 7070 ebbd f558 623c d7c9 05bd 7ebe c2bd
000001a0: faf4 61bd 2256 20be e4ce a63c 4a45 2e3d
000001b0: 31a7 35bc d697 3bbe 9c48 b6bd ad48 4cbe
000001c0: be8a 50be 4c13 1cbd 1f1b 0e3d f62f b8bc
000001d0: 69f9 793c df4c 6cbe c153 7f3d a09d 16be
000001e0: 932c d2bd 1743 ad3c 26a5 993c 3601 dfbd
000001f0: d020 85bd ad6d 16be b191 eabd cfd4 e1bb
00000200: cde2 023c 2684 11be 3010 1bbe 790f b2bd
00000210: 3270 a43c fdde 0bbe 2913 82be 7c9f 6b3c
00000220: 15a4 09be c11e 16be cd7c 34bd f3f9 00be
00000230: c897 43bd 405b ee3c 4524 c4bd 9721 5ebe
00000240: 9acd 30be a71a c5bd c08d a13c afe3 373c
00000250: 1fda 353d 7849 c03c c15e 9dbd 0b93 7f3c
00000260: 3772 0dbe c31c d5bc 5a40 c7bd ebc9 f9bd
00000270: b4ec cdbd 68bc a3bd 26b5 49be e825 efbd
00000280: 0bf1 24bc 6c80 1bbe dbbf e3bd 9764 16bc
00000290: fe0a 22bd 8cf9 0cbe b58e 82be f2de 28be
000002a0: c71a 39be 871d dcbd 575d 0abe 7999 bdbd
000002b0: ea38 2bbe dc80 37bd 6cf5 54be e3c6 c3bc
000002c0: b4c1 b13c 01ae 2e3c e9fb 3abe 0876 17bd
000002d0: 724f bb3c 9c8f 823b 3d47 28be 9ef4 96bc
000002e0: a79a 21be 1bf5 d2bd a935 04bd afa8 b7bd
000002f0: b857 6dbe 8101 94bd 0b62 dabd db72 9dbd
00000300: 0537 cabd 386a 5fbe e45e dfbd d32b 09be
00000310: cca9 3bbe aad0 4abe 2884 83be f398 1ebc
00000320: f50f ec3c 7eba 44bd f4bc 83bd f39c 18be
00000330: 4925 03be c013 14bc ba88 3bbd 2777 f2bd
00000340: f120 afbd e427 2fbe 74ec dabd ab3a 43be
00000350: 53c9 a8bd bb45 b4bd ee90 efbd 539c 10be
00000360: 627b 79bd aa74 28be 4bd2 e6bd 2688 08be
00000370: d21c 1dbd da26 b2bd 629c 99bd cb02 a9bb
00000380: 22ca 06bd 494a 12bc bba9 41bd 49c3 21be
00000390: 0d95 e53b 27c3 0bbe 1c8f b4bd 8704 57bd
000003a0: e0b9 e7bd 3ed8 1f3d 619d 88bd 2b8e 1ebe
000003b0: d577 deba 0cd6 fdbd f077 4dbd d285 07be
000003c0: 9d40 9bbd 41f8 c2bd a1e5 abbc 9879 54be
000003d0: 1674 00be 79c6 9d3c ca57 19be 01bd 063c
000003e0: 211f 01be 81ec 13bc d035 b4bd b529 12bd
000003f0: f5e2 7dbe 161e c1bd fb03 dfbb f5e6 9dbd
-0.063112035 -0.034006838 -0.07673025 -0.27782184 -0.07702962 -0.12598054 0.025290757 -0.1038906
-0.08112898 -0.11927863 0.01663217 -0.073608175 -0.002504821 -0.011680072 -0.050512206 -0.067481585
0.03928971 -0.116410285 0.007920004 0.0009658948 0.028040064 -0.1339658 -0.022785317 -0.14661592
-0.035229396 -0.08490315 -0.08991921 -0.14352867 -0.09728623 0.022821832 -0.13913797 -0.11504559
-0.06863475 -0.061086655 -0.06668357 -0.05471245 -0.1443952 -0.096043944 0.004351209 -0.15576082
-0.058481056 0.00087214756 -0.14565614 0.035188545 -0.04085896 -0.15705104 -0.037938006 0.012502598
0.0006831448 -0.06605495 -0.040410414 -0.0019271403 0.00957907 0.052049574 -0.051721327 -0.07768446
-0.08361229 -0.06922199 -0.000114453 -0.18543048 -0.07297768 0.016100068 0.008942485 -0.010249707
-0.13631572 -0.006369253 -0.004998591 0.016009029 -0.10808461 -0.19918455 -0.08729647 -0.14898849
-0.076845475 -0.19928 -0.050897848 -0.0944553 -0.10792946 -0.0036210106 -0.14627104 -0.10913219
-0.074067205 -0.08749395 -0.0063457987 -0.1541474 -0.17740531 -0.11508301 -0.09562342 0.01952601
-0.03991173 -0.022018861 -0.009148323 -0.015557638 -0.20979178 0.011580576 -0.015706096 -0.22491044
-0.06433276 -0.0614075 -0.12523338 -0.073740914 -0.11496055 0.013815154 -0.032663193 -0.0950899
-0.05516527 -0.15657857 0.020362325 0.042546548 -0.011087225 -0.1831964 -0.08900568 -0.19949599
-0.20365426 -0.03810434 0.034693833 -0.022483807 0.015257218 -0.23076199 0.062335733 -0.14708567
-0.10262408 0.021150155 0.018755507 -0.10888903 -0.06500399 -0.14690275 -0.1145357 -0.006891824
0.007988644 -0.14210567 -0.15142894 -0.086943574 0.02007303 -0.13659282 -0.25405243 0.014381286
-0.13441499 -0.14660169 -0.04406433 -0.12595348 -0.04775217 0.029096246 -0.0957723 -0.21692501
-0.17265931 -0.09624224 0.019720912 0.011223718 0.04439747 0.023472533 -0.076840885 0.015599023
-0.13813101 -0.026014691 -0.09729071 -0.12196716 -0.10054913 -0.0799492 -0.19698009 -0.11677152
-0.010067235 -0.15185708 -0.11120578 -0.009179256 -0.039561264 -0.1376707 -0.25499502 -0.16491297
-0.18076621 -0.107478194 -0.13512169 -0.09257788 -0.1672093 -0.044800624 -0.20796746 -0.023898548
0.02169881 0.010661603 -0.18260159 -0.036977798 0.02286503 0.0039844047 -0.16433425 -0.01842719
-0.15781651 -0.103006564 -0.032277737 -0.08967721 -0.23177993 -0.07226849 -0.106632315 -0.076879226
-0.098737754 -0.21817863 -0.10906771 -0.13395624 -0.18326491 -0.19806162 -0.25686765 -0.009680021
0.028816203 -0.048029415 -0.06432524 -0.14903621 -0.12807192 -0.009037912 -0.04578469 -0.11839133
-0.08551205 -0.17105061 -0.10689631 -0.19065349 -0.082415245 -0.088023625 -0.11697565 -0.14122133
-0.060908683 -0.16450754 -0.11270579 -0.13333187 -0.038357563 -0.086988166 -0.07500531 -0.0051578037
-0.032907613 -0.008928844 -0.04728101 -0.15797152 0.0070062936 -0.13648663 -0.088163584 -0.052494552
-0.1131475 0.039024584 -0.06670643 -0.1548392 -0.0016972969 -0.12394342 -0.05016321 -0.13234642
-0.075806834 -0.09520007 -0.020983519 -0.2074951 -0.12544283 0.019259678 -0.14974895 0.008223773
-0.12609531 -0.009028555 -0.087993264 -0.035684306 -0.24793608 -0.094295666 -0.0068058944 -0.07710067

weight f4 [256, 512]
00000000: d953 cf3c dd59 a93b 9929 d4bc 4112 963c
00000010: 8961 da3a 8783 fb3c 0fa6 223b dea4 7e3c
00000020: 9372 773c 33dc be3c d883 c43b 0edd 2bbc
00000030: 89dd 0b3c 8188 813b 1978 25bc 1ffe 93bb
00000040: 7495 c53d cd2c fb3b a6bd 483c 93fc a33b
00000050: 0578 473b ef07 bdba 6c78 f1bd 087e 9d3c
00000060: 8aea b33c 42f6 8bba 4d7d 4a3c db61 b33c
00000070: 1d3a 9ebb bacd ca3b 948f c63d c3a7 8dbc
00000080: ad3c 8cbc 5b8a 313b 51ba 173b 20f2 fcbb
00000090: 4744 6b3c 979c 24bb 77d8 2abc 8dbd 393c
000000a0: 1aae c9bb 06d4 8cba aaec 0a3c f84e 92bc
000000b0: 3b74 83bb d223 eb39 96d6 7cbc 56e0 503c
000000c0: 5908 1fba 1408 b9bc b13d c5bc 90c0 6d3c
000000d0: 6937 36bb 97b3 4a3c 629e 93bb 2f13 a13c
000000e0: cbca 8c39 67bf c63c 7c8c 17bc 9c33 9abb
000000f0: 4f23 8e3c 97b3 813c 1cfa 97bb 69b4 88b9
00000100: 7092 11bc d665 11bb 7447 1e3d 220e d638
00000110: d1ac be3c 981c 903b 626c b9bc ed64 1cbd
00000120: 0716 dd3c 07d7 b0bc ba69 45bc a7df c13b
00000130: 3764 cbba b668 19bc f4b8 a13a 2699 4bbc
00000140: 79f8 95bc 12f6 403b 72d9 b6bc 508a 243c
00000150: d23d 103c 4930 d5bb baa7 babc 8cae 16bc
00000160: 9b24 d63c 8f43 c8ba af81 5c3c d3db 56bb
00000170: 6a26 df3b 4df5 233c 1a2b 2c3c 1d18 173d
00000180: 851e bfbb e590 bebc 0057 603c 9e23 96bc
00000190: 2291 e0bc a28a a83a 4016 15bc 67d4 96bb
000001a0: 5815 3d3b 8d0a 913c bf49 50bc fda9 243c
000001b0: cb96 393c 411f e43a 5411 62bc 582d 8fbc
000001c0: ede8 3d3c a8dd 42bc d478 be3c 9c38 9b3c
000001d0: ac70 893c 3706 6dbc 1863 aa3c b78f c93b
000001e0: 7783 fe3c 88ea e8ba fc5d adbb d4a1 cdbb
000001f0: ec6c 1cbc 459f 943b 4e28 bb3c a08a f2bb
00000200: 38d9 e4ba 7114 babc 3b0d bf3b cfaf b2bc
00000210: dbc5 bd3c 396b 563b 3232 79bb db0d 8ebb
00000220: 8d72 9abc 31e2 b73b 4ab6 003c 9e0e f7b9
00000230: 38e2 a5bc e6f4 1d3b 7cfc 7f3c e284 fb3c
00000240: 0efd f9ba b9e6 76bc 4933 e0bb 84b7 823b
00000250: eb2f 873c a6f6 0b3d 144c 913b 7e30 293c
00000260: 61bc c43b 20e9 5a3b 3d22 543c 8d66 1cbc
00000270: e6df 80bb 0b43 cdbb 0aba 5f3c c89d 80bb
00000280: 1303 69bc 397b 8f3c 2a02 33b9 a18e d43b
00000290: 09bb bd3b 0251 cdbc 9156 ae3c 22fd ed3b
000002a0: 0a9e 5abb 3d97 93bc 4656 823c e496 c33c
000002b0: a303 bc3b d873 adbc 46a3 963c 3ca6 42bc
000002c0: 1f52 143c c5e9 403c bd3d ebbc 9dd2 f5bb
000002d0: b6c9 bdbb 5ad1 a2bc 22d4 1fbd 882f 59ba
000002e0: fdbf 403c 0c57 c63c 6c44 cebb b001 ae3c
000002f0: 3911 583c 69fc 0a3a 82dc db3b 5947 f83b
00000300: da22 0d3c 04f4 593c 0fd3 6cbd 8d02 b33a
00000310: 1703 043d cd66 913a 3124 3e3b 29d3 4bbc
00000320: 6031 b93b ed36 643b 0312 bc3c a033 743c
00000330: 087c ec3a 2244 1ebc fa63 23bb cf0d e6bc
00000340: bb0f cc3c 0102 3c3a 9261 eb3b 90eb 8f39
00000350: 7c98 19bc 4f7c b1bc 7e75 253c 29d1 933c
00000360: a72b 07bc cef1 153c fe33 073c 9399 dbba
00000370: 56c7 21bd 08cb c53b b59b cd3b 269f 973c
00000380: 4df1 84bd d311 513b 02a3 d0bb 2c59 afbc
00000390: 64d1 193c dc84 9dbc a7ef 05bb 11dd e63a
000003a0: baa0 b73c b2e9 28bc 33fd 04bc b251 9b3b
000003b0: 911a 6a3c aa86 b73c ccd4 cd3b 7e48 46bc
000003c0: 34c8 d53c d4b8 873c 14f5 d53b 54de 793c
000003d0: b84e 133c 86c7 913c 3d34 f3bb fa07 acbb
000003e0: 9364 6a3a bb7e e9bc 11c8 2f3d 8a99 59bd
000003f0: 4e4d 01bd 1211 963c 56d5 853b 66d8 6bbc
0.025308536 0.0051681832 -0.025898742 0.018319251 0.0016661148 0.030702366 0.0024818217 0.015542237
0.015103 0.023298359 0.0059971623 -0.010489715 0.008536705 0.00395304 -0.010099434 -0.0045163776
0.096476465 0.007665253 0.012252247 0.0050044744 0.0030436527 -0.001442192 -0.11790547 0.019225135
0.021962423 -0.0010678249 0.012358976 0.021897247 -0.004828705 0.0061890753 0.09695354 -0.01729191
-0.017118776 0.0027090523 0.0023151825 -0.0077192932 0.01435954 -0.002511775 -0.010427586 0.011336696
-0.0061547877 -0.001074434 0.008479277 -0.01785992 -0.0040116585 0.0004484938 -0.015432021 0.012748798
-0.00060666126 -0.02258686 -0.024077268 0.0145112425 -0.0027804023 0.012371919 -0.0045049647 0.019662468
0.00026853973 0.02426119 -0.009249803 -0.0047058593 0.01735082 0.015832705 -0.0046379697 -0.00026074357
-0.008885011 -0.0022185943 0.03864236 0.000102069476 0.023275765 0.00439794 -0.022634689 -0.038182188
0.026988043 -0.021586908 -0.012049133 0.005916554 -0.0015517537 -0.009363344 0.0012338446 -0.01242665
-0.018306958 0.0029443544 -0.022320483 0.010042742 0.008803802 -0.006506 -0.022785056 -0.009196889
0.026140502 -0.0015278923 0.013458653 -0.0032784834 0.0068099992 0.010007215 0.010508323 0.03688823
-0.0058324956 -0.02326245 0.013692617 -0.01832753 -0.027412955 0.0012858699 -0.009099543 -0.004602957
0.0028851833 0.017705226 -0.012712895 0.010050294 0.011327456 0.0017404334 -0.013798077 -0.017477676
0.011591178 -0.011893667 0.023250975 0.018947892 0.016777359 -0.014466814 0.020799205 0.0061511653
0.031068547 -0.0017770091 -0.005290745 -0.006275395 -0.009547453 0.004535588 0.022846367 -0.0074017793
-0.0017459756 -0.022714825 0.0058304346 -0.021812348 0.023165634 0.0032717718 -0.0038024304 -0.004335148
-0.01885345 0.005611681 0.007855961 -0.00047122402 -0.020249471 0.002410227 0.015624162 0.030703012
-0.0019072609 -0.015069657 -0.006842051 0.003989162 0.016502341 0.03417077 0.004434118 0.010326503
0.006003902 0.0033403113 0.012947616 -0.009545934 -0.003932941 -0.0062640957 0.013655195 -0.003925059
-0.014221924 0.017514812 -0.00017071576 0.0064867293 0.0057901186 -0.025063042 0.021281512 0.007262842
-0.0033358359 -0.018016452 0.015910279 0.023875661 0.005737738 -0.021173403 0.018388402 -0.011880454
0.009052782 0.011774485 -0.028715963 -0.0075019137 -0.005791868 -0.019875217 -0.039020665 -0.0008284976
0.011764524 0.024211429 -0.0062947776 0.021241039 0.0131877 0.0005301894 0.006709636 0.0075768647
0.008614266 0.013302807 -0.05781847 0.0013657376 0.03222951 0.0011093259 0.002901327 -0.012440481
0.005651638 0.0034822777 0.022957807 0.0149048865 0.0018042335 -0.009659799 -0.0024931417 -0.028082756
0.024909845 0.00071719295 0.007183262 0.00027450593 -0.009374734 -0.02166572 0.010098813 0.018044071
-0.008250154 0.009151889 0.008252142 -0.0016754143 -0.039496742 0.006036166 0.0062746652 0.018508505
-0.06491337 0.0031901493 -0.0063670883 -0.021404825 0.0093883015 -0.019228391 -0.0020437033 0.001761349
0.022415508 -0.010309624 -0.008117008 0.0047399634 0.0142885605 0.02240308 0.006281471 -0.012102244
0.02609644 0.016567625 0.0065294597 0.015250761 0.008990936 0.017795336 -0.007421999 -0.0052499743
0.00089413783 -0.028502813 0.042915408 -0.053124942 -0.031567864 0.018318687 0.0040842695 -0.014394855

bias f4 [256]
00000000: 473b 7a3d 775c 893d 6ece a13c c18a efbc
00000010: 1566 18bb 4803 ebbc 8d84 cebc 6f56 46b6
00000020: d19f 48bd 8d08 0dbc c7e2 a13d ecef 8ab9
00000030: a2e1 d8b6 46ef 49bd dc1e 21b7 a2cb e035
00000040: 2636 abbd 9c5c 88bc 1d23 ee3c 5408 02b6
00000050: c327 96be b6c2 9d3c 6979 be3c 89dd 2d3d
00000060: b6ac 19b7 6db9 853c 4784 debc a422 653c
00000070: c379 98b8 a3ea 6fbd e0de fbbc bf2f 0036
00000080: 61cc e03c 7c45 76be 9f96 f3bd 865c 21b7
00000090: 9c1a dcbd d98a 8c3d c69b 2936 fd60 973d
000000a0: d266 ea3c cc6d 2d3b da5d 063d 39c1 36bb
000000b0: 44ce d3b4 6016 583d 9247 a736 fd82 303d
000000c0: 4708 8a3d ac7f e2b6 ff89 a136 e466 b53b
000000d0: 1b6d b8b6 0cf6 e23c 2f09 88bc 9d9c bc3c
000000e0: 528f 9abd 9ef1 68b9 b95e 59bc 4342 09b7
000000f0: 8860 1537 abd9 923c 5dba c0b8 4709 9abe
00000100: 5fb1 273d 2ed7 ecb7 66a3 a3be ddac 8bb7
00000110: b427 81bb ff82 e5bc 4895 3fbd 87d5 c9bc
00000120: 8866 8e3d e83a 2ebe 1df8 eabc b8a0 39ba
00000130: 371f adbc c029 f23c 0fba 913c 2a7e cc3c
00000140: 6182 d8bb 86ba b33d 35d1 fe3c 2e1e 2eb8
00000150: 6d86 0dbe eadc 893d 2a7b 47be e61f 793c
00000160: 133b 19bc 52a1 f9b8 e3c1 41ba b788 b4b8
00000170: 00ec 56bd ef37 2b3d e6c6 15b9 6fcf 2d3d
00000180: 3d54 da3c c07c 24be c5ee 15bc f2cf 03b7
00000190: 262a 233d 0a5f 26b9 45a3 ea3c ccd7 32ba
000001a0: 1dc4 a63c 6173 2b3d 3f1d 46be ca6b 87b7
000001b0: bd60 d23c a385 7236 fb89 5c3d dc32 283c
000001c0: a2bc b83b f2fa df36 59e9 5ab7 d5c2 a63c
000001d0: d0c3 f7b8 387e 34b6 6cc3 af3c 6161 a2bb
000001e0: 168f 5a3d 7dab 90b8 fa45 0dbd aedd c5bc
000001f0: 8294 9cbb 624f 51be e107 b43c a831 4bbc
00000200: 62a9 c33c 8008 85be ab49 fdb5 da9a bc3c
00000210: 6562 c03c 2924 66ba 7aec 8dbb 3556 13bb
00000220: 2a82 f435 5ad3 ae3c f846 e83c 7ffa aa3b
00000230: f016 4b3d d1d1 7cbb 6cf6 2bb6 84d4 8e3c
00000240: 8d83 a436 b20c deb6 21cf a03b a8bd a13c
00000250: ba66 99b7 cc7e b6b8 817d 3fbc aab1 3b36
00000260: 0d91 083d afc1 ea3c 7e9b 3335 ab66 9dbc
00000270: 7479 563c eba2 4a3c 92d7 963d b7a7 4bb8
00000280: 0592 8a3c 341f fbbc 6ee8 263a 0984 003b
00000290: 358e 8e3c a894 1db9 d55a dc3b f563 ff3a
000002a0: a05a 2fb8 c771 783c e88d e93c a067 6b3c
000002b0: 5adc 05bc 6532 d4b5 3ca7 c63c 791a b1bd
000002c0: 4266 3b3d b9f8 263c 1ae3 893d dc3e 3a3d
000002d0: fd6b cc3b afad 11bc d095 dd3c d03d a43c
000002e0: 32cd 463d b0d3 49be 14a3 73be 5260 d136
000002f0: 76d2 f13c 9fd0 5a3c d83c 2fbd e1fd 593c
00000300: 7973 79b7 101f 2d3d 3485 ce3c c777 a03c
00000310: 0c8b 94bc 1343 1a35 d14c 9abd f545 dabc
00000320: 916a 8cbc bca6 9e3b 128c 853b 5e18 a23c
00000330: 6ba8 ac3c 7a1f 22bb 50e0 c3bc 381b 5d3d
00000340: a20d 013d 6e03 58bd befc a33b 259f 0e3d
00000350: 19ea a63c 08c1 3137 4383 473d 482b 16b9
00000360: 44bb debb 45cf ac3d 4e24 88ba 51db d63c
00000370: 644d 77be 93e5 c635 00b0 a83d 213c 783d
00000380: 615a 3936 1535 923c 101f 26b6 e866 7cbd
00000390: 498f 2b37 12c2 843d c089 09bd ec09 4c3b
000003a0: 8cc9 2b3b ab5d 9bb6 0390 8bbd add0 7cbb
000003b0: 2cd0 c336 1959 9ab6 6f10 69b7 84e8 ac3b
000003c0: 9e66 8136 3114 15b6 e53d 9e3b e6c0 af3c
000003d0: 7654 6dbe 1b25 ee3b 4e98 43bb 98be 1ab5
000003e0: f159 e7bb 700c 2fb7 fecb ca3c 25d9 ec36
000003f0: fe27 adb6 abfc b83c 9601 1eb7 f5c1 4b3b
0.061091688 0.067070894 0.019751754 -0.029240968 -0.0023254205 -0.028688088 -0.02520969 -2.955461e-06
-0.048980538 -0.008607996 0.079045825 -0.00026500167 -6.4635688e-06 -0.049300455 -9.603533e-06 1.6748565e-06
-0.08359937 -0.016645722 0.029069478 -1.9376357e-06 -0.2932721 0.019257884 0.023251252 0.0424476
-9.159723e-06 0.01632377 -0.027162684 0.01398531 -7.270605e-05 -0.058573376 -0.030745924 1.9101278e-06
0.027441205 -0.24049944 -0.11893963 -9.61789e-06 -0.10747263 0.068624206 2.5273634e-06 0.07391546
0.028613482 0.002646315 0.032804348 -0.0027886166 -3.945189e-07 0.052755713 4.9853197e-06 0.04309367
0.0673986 -6.750188e-06 4.8142388e-06 0.005535947 -5.496329e-06 0.027705215 -0.016605942 0.023023898
-0.075468674 -0.00022215254 -0.013267213 -8.181264e-06 8.9035675e-06 0.017926058 -9.189986e-05 -0.30085203
0.04094064 -2.8233593e-05 -0.319606 -1.6650587e-05 -0.0039415006 -0.028016565 -0.046773225 -0.02463795
0.0695315 -0.17014658 -0.028682763 -0.0007081139 -0.021133048 0.029560924 0.017788915 0.024962503
-0.0066073393 0.08775811 0.031105617 -4.151294e-05 -0.1382081 0.06731589 -0.19480577 0.015205359
-0.009352463 -0.000119032935 -0.0007391257 -8.608534e-05 -0.05247116 0.04180139 -0.00014283843 0.042434152
0.026651496 -0.16063213 -0.009151165 -7.8566245e-06 0.039835118 -0.00015866398 0.028642306 -0.00068223174
0.020357186 0.04185808 -0.19347094 -1.6143447e-05 0.025680894 3.6138597e-06 0.053842526 0.010266032
0.005637721 6.6751318e-06 -1.3048143e-05 0.020356575 -0.00011814351 -2.689556e-06 0.02145549 -0.004955456
0.053359114 -6.898397e-05 -0.034490563 -0.024153557 -0.0047784457 -0.20440438 0.021976413 -0.012401976
0.023884479 -0.25983047 -1.8871409e-06 0.023023058 0.023484418 -0.0008779192 -0.0043311687 -0.0022481803
1.8217299e-06 0.021341015 0.028354153 0.0052178497 0.04958242 -0.0038577209 -2.5624422e-06 0.01743532
4.9028954e-06 -6.6175935e-06 0.004907504 0.019743755 -1.8286857e-05 -8.702054e-05 -0.011687637 2.7968586e-06
0.033341456 0.028656809 6.690897e-07 -0.019213995 0.01309048 0.012367944 0.073653355 -4.8555168e-05
0.01691533 -0.030654527 0.0006367032 0.001960995 0.017401794 -0.00015028066 0.006724695 0.0019484746
-4.1807652e-05 0.015163845 0.028510049 0.014367968 -0.008170212 -1.5809898e-06 0.024249665 -0.086476274
0.045751818 0.010191136 0.06732769 0.045470104 0.006238459 -0.008891507 0.027048975 0.020049006
0.048535533 -0.19709659 -0.23792678 6.2398985e-06 0.0295193 0.013355403 -0.042782634 0.013305158
-1.4868442e-05 0.04226595 0.02521 0.019588364 -0.018132709 5.7467076e-07 -0.07534183 -0.026644686
-0.017140659 0.0048416536 0.0040755356 0.01978701 0.021076402 -0.0024738 -0.023910671 0.053981036
0.031507142 -0.052737646 0.0050044945 0.03481974 0.020375298 1.0594966e-05 0.048709165 -0.00014321238
-0.006797226 0.08437971 -0.0010386796 0.026227625 -0.24150616 1.4818964e-06 0.08236694 0.06060422
2.7619756e-06 0.017847577 -2.4754008e-06 -0.061621577 1.0225755e-05 0.064823285 -0.033578634 0.0031133844
0.002621266 -4.6302644e-06 -0.068145774 -0.003857653 5.8356873e-06 -4.59993e-06 -1.38917085e-05 0.0052767415
3.856446e-06 -2.2214483e-06 0.0048291557 0.021454286 -0.2317675 0.007267607 -0.002984542 -5.764682e-07
-0.0070602824 -1.0433709e-05 0.024755474 7.058627e-06 -5.1604575e-06 0.022581419 -9.417903e-06 0.003109095

weight f4 [128, 256]
00000000: 875a 66b6 76fd b536 1902 a5b7 ef0c 1eb7
00000010: 27f1 8db7 5781 d7b6 d75a 8136 5ce4 90b6
00000020: 0e3f d736 e64e b436 fb82 85b7 545d f634
00000030: 1bc8 0d37 c57a 9cb6 7da6 55b7 b692 e7b5
00000040: 1f33 b437 9107 15b7 b7eb 5bb7 f52e 9836
00000050: cb32 64b7 b956 99b6 4cec a3b7 8d2d 8034
00000060: 7824 4b37 0e39 e0b7 596e 96b6 d216 1234
00000070: 5f8a 0037 3721 f435 caf1 8cb7 34bf 7a37
00000080: ebd5 8cb7 d513 c0b7 28a1 d033 ca54 03b6
00000090: 10e9 5f36 61eb ee37 8153 39b7 c5f2 d1b7
000000a0: 7cb6 a4b7 3031 7b34 70b7 04b8 68dc 5cb7
000000b0: 3e0a 7337 5597 1936 cf1f 5737 d78e 8334
000000c0: 6448 1db7 76b6 1fb4 ebe7 b436 1c0f 80b7
000000d0: 797b 0435 7a97 bab7 7e76 8eb7 ebf1 8533
000000e0: 280c 4734 951f 9836 a29a d036 4b66 40b7
000000f0: 8034 20b7 db69 a637 6aa2 8636 7066 8fb7
00000100: 8759 0137 656e 5337 2f99 20b7 09c9 a1b6
00000110: 2c27 4d37 75c0 18b7 ab91 3b34 de9f 8436
00000120: fc7e 8eb7 f830 c3b7 2aa2 beb7 47a1 19b7
00000130: 21aa 1eb8 30f0 97b7 d4ab 7936 f475 09b7
00000140: a1a2 2bb7 7bd1 7437 d47f 08b8 079b 87b5
00000150: 3475 98b7 02a1 1d37 325f 4ab7 2468 8ab7
00000160: 131b 52b6 1563 e0b6 ccdc e236 ffb8 0b37
00000170: f2f8 2936 a603 66b7 7f19 25b7 9414 fe34
00000180: cdc2 2337 825b 0236 5c90 31b7 31e8 5537
00000190: ffb1 88b7 d30c 58b7 c9da a9b7 f814 01b6
000001a0: 0106 f5b6 26ef ebb7 8d98 aa37 afef f9b6
000001b0: cc8d 63b6 851a 9037 ccc4 adb7 85d4 ec36
000001c0: 2530 b7b7 5220 bf37 4a0c 1337 d8ca b3b5
000001d0: 461e c7b6 a2b1 7736 391a 7437 0f74 1037
000001e0: 8f72 00b7 6e4b 6336 d9e4 3937 3bf3 f9b6
000001f0: c3c5 42b7 dc58 eab4 6487 f2b6 8491 b0b5
00000200: d887 9db6 1e7c 8c36 1be7 3c37 67cb adb7
00000210: 2991 2cb7 ac76 6936 3f8a cb36 a5b7 b334
00000220: 4060 ff36 5432 8ab6 29a7 3733 804f a336
00000230: 2db4 39b7 a6d5 aeb6 bf2b 0db7 7c98 aeb6
00000240: fa19 9bb6 8599 9737 3de4 98b4 6a6d b7b7
00000250: ca18 a036 72c5 c1b6 52ff 88b7 2310 83b5
00000260: cb23 02b7 6fe9 65b7 2aac a335 09f6 fab6
00000270: 7630 d7b7 7823 7bb7 6d91 6534 779e 68b7
00000280: ba1b 3b36 4bb1 84b7 0b72 eeb7 635a f7b5
00000290: f5e8 45b7 3cb4 e1b7 6dec 9cb6 ab17 38b7
000002a0: 9730 7137 0e59 38b7 ce80 2cb7 0075 2a37
000002b0: 9d4d 1fb7 2653 1437 6bbd 6ab7 ee6f a136
000002c0: 8120 1eb7 dd7b b835 e744 c1b6 f6c0 c7b6
000002d0: 42fe bfb4 f5ad a5b7 4778 7fb7 9fa6 0fb6
000002e0: 8ccc 63b7 fe80 5fb6 4abb 4637 b26f 6036
000002f0: b8d8 89b6 b501 8fb7 5294 1bb7 0037 1d37
00000300: 2d00 1337 1b11 e536 e9d5 c334 c45e 7437
00000310: 4b5e 82b7 a090 b136 8341 01b7 9b9f 67b7
00000320: 4b15 9bb7 b06c 6db7 54e4 58b7 c302 1c37
00000330: 9950 50b6 024f 2234 f7ef 0937 4224 9737
00000340: 9c66 4637 2855 3037 cb43 3236 6457 34b7
00000350: 4e50 59b7 dc5f 82b7 52f8 70b7 2732 77b7
00000360: 27d4 f634 866d bc37 52fb 69b7 e3e1 6436
00000370: 0de7 deb6 6d86 76b6 6603 05b8 4fb7 93b6
00000380: 6faa 1d37 1877 bf36 df71 44b6 328f d8b7
00000390: ce48 85b7 ad12 e8b7 f435 e535 4ed2 5e36
000003a0: ceef 1c37 d98a 09b6 ff19 95b7 cced 2837
000003b0: dd4c d237 eaa3 3837 6cf8 8cb7 ef5f 1cb6
000003c0: dca8 c436 0fb6 0437 5212 b2b6 54a7 2cb6
000003d0: 2304 4d37 6f49 4037 824b 8637 043e b535
000003e0: fcdf 03b7 3fd3 b136 2e08 2637 7d97 1db7
000003f0: 933a 6eb7 80cd de36 e362 c936 da45 2137
-3.4325365e-06 5.423727e-06 -1.967051e-05 -9.420545e-06 -1.6920805e-05 -6.4225565e-06 3.8550747e-06 -4.318119e-06
6.41484e-06 5.373603e-06 -1.5915828e-05 4.5888976e-07 8.450846e-06 -4.6634545e-06 -1.2734553e-05 -1.725354e-06
2.1481477e-05 -8.882854e-06 -1.3108299e-05 4.5354195e-06 -1.3601685e-05 -4.569851e-06 -1.9541149e-05 2.3875e-07
1.2108234e-05 -2.6729449e-05 -4.4831945e-06 1.3605612e-07 7.661612e-06 1.8189083e-06 -1.6801892e-05 1.4945679e-05
-1.6788914e-05 -2.2897419e-05 9.715069e-08 -1.9569875e-06 3.336525e-06 2.8481418e-05 -1.1046302e-05 -2.502779e-05
-1.96353e-05 2.3394091e-07 -3.1642092e-05 -1.3164339e-05 1.4486313e-05 2.2886863e-06 1.2822405e-05 2.450458e-07
-9.374784e-06 -1.4874408e-07 5.391417e-06 -1.5265825e-05 4.935351e-07 -2.2243465e-05 -1.6982896e-05 6.2373e-08
1.8537742e-07 4.5336296e-06 6.2168847e-06 -1.1467909e-05 -9.548967e-06 1.9838035e-05 4.0124187e-06 -1.709463e-05
7.709844e-06 1.2602283e-05 -9.572409e-06 -4.8215775e-06 1.2228073e-05 -9.104716e-06 1.7468726e-07 3.9525175e-06
-1.698685e-05 -2.3268614e-05 -2.2725279e-05 -9.157061e-06 -3.782858e-05 -1.8112449e-05 3.7203909e-06 -8.193299e-06
-1.0230259e-05 1.4592307e-05 -3.2543976e-05 -1.0103403e-06 -1.8174389e-05 9.395417e-06 -1.2062303e-05 -1.6499376e-05
-3.1308198e-06 -6.687255e-06 6.761029e-06 8.328118e-06 2.5327868e-06 -1.3709918e-05 -9.840703e-06 4.732616e-07
9.760913e-06 1.9424774e-06 -1.0583633e-05 1.2749851e-05 -1.629535e-05 -1.2877589e-05 -2.024825e-05 -1.9234703e-06
-7.302268e-06 -2.8125545e-05 2.0336616e-05 -7.448681e-06 -3.3908173e-06 1.7178487e-05 -2.0714848e-05 7.0580886e-06
-2.1837719e-05 2.2784025e-05 8.764744e-06 -1.3395575e-06 -5.9341864e-06 3.6909264e-06 1.4549639e-05 8.610091e-06
-7.656067e-06 3.3869542e-06 1.1080142e-05 -7.449094e-06 -1.1609346e-05 -4.365055e-07 -7.2279236e-06 -1.3155372e-06
-4.694779e-06 4.1867743e-06 1.1259482e-05 -2.0717924e-05 -1.0285797e-05 3.4788782e-06 6.0659654e-06 3.3474967e-07
7.610797e-06 -4.1185795e-06 4.276004e-08 4.8670336e-06 -1.106881e-05 -5.210476e-06 -8.41444e-06 -5.2033556e-06
-4.622384e-06 1.807209e-05 -2.8478271e-07 -2.186625e-05 4.7712574e-06 -5.774834e-06 -1.6331356e-05 -9.764957e-07
-7.7569375e-06 -1.3703814e-05 1.2194553e-06 -7.479223e-06 -2.5652564e-05 -1.4969024e-05 2.1380193e-07 -1.3865173e-05
2.788131e-06 -1.5818185e-05 -2.8424916e-05 -1.842924e-06 -1.1796355e-05 -2.6906018e-05 -4.676686e-06 -1.0972765e-05
1.4376033e-05 -1.0987989e-05 -1.0281989e-05 1.0160031e-05 -9.495209e-06 8.840847e-06 -1.3991589e-05 4.8112042e-06
-9.425102e-06 1.3745117e-06 -5.7598695e-06 -5.9531258e-06 -3.576152e-07 -1.9750538e-05 -1.5227189e-05 -2.1405647e-06
-1.3577879e-05 -3.3304673e-06 1.1845326e-05 3.3443616e-06 -4.1081476e-06 -1.7047723e-05 -9.273253e-06 9.370735e-06
8.761924e-06 6.826723e-06 3.647722e-07 1.4565598e-05 -1.5541116e-05 5.2918476e-06 -7.704252e-06 -1.3805834e-05
-1.8487355e-05 -1.4151607e-05 -1.2927765e-05 9.298968e-06 -3.104133e-06 1.5116169e-07 8.2217075e-06 1.8017487e-05
1.182561e-05 1.05102445e-05 2.6563528e-06 -1.0749183e-05 -1.2952905e-05 -1.5541846e-05 -1.4362931e-05 -1.4734024e-05
4.5975432e-07 2.2462347e-05 -1.3946397e-05 3.410613e-06 -6.6430134e-06 -3.6735103e-06 -3.1712836e-05 -4.4022813e-06
9.397611e-06 5.706108e-06 -2.9272558e-06 -2.5815887e-05 -1.5888738e-05 -2.7665252e-05 1.7077532e-06 3.3202991e-06
9.3541585e-06 -2.049541e-06 -1.777429e-05 1.0068947e-05 2.5069743e-05 1.1005419e-05 -1.6804981e-05 -2.3301652e-06
5.860913e-06 7.910202e-06 -5.306946e-06 -2.5727395e-06 1.2219915e-05 1.1461189e-05 1.6009206e-05 1.35036e-06
-7.860359e-06 5.2996033e-06 9.8962755e-06 -9.3932e-06 -1.4199543e-05 6.640039e-06 6.0017787e-06 9.612611e-06

bias f4 [128]
00000000: 3c5e 77b7 b2c6 0b3d a82a 96ba d63d 233d
00000010: e097 cd3c 771e 173c 6d4a f93c d101 deb7
00000020: 0bb5 68bc 977e 8c3b 157e 4837 e13d 22b7
00000030: 3134 a9bd 1ae6 853b d02f abba a45f d6bb
00000040: 6407 3c3b 3da9 433d ccbc 0d3c d405 533d
00000050: 4145 0d3d 973f 47b8 ed92 733c bb73 253c
00000060: 026f c63d 1b29 67bc bad7 e73c 7508 0cb8
00000070: 3188 95bc dc26 c03c 7912 693d 2ec6 92bc
00000080: 50d0 b4ba 5b23 ff3c 828a 1f3d 392a ef3c
00000090: 63cd b7b8 5a3a 56bb 3dd8 6d3c 4519 82b7
000000a0: 6f6c aa3c 170e bd3c 292d c5bc e08c 4e3b
000000b0: 8e8e 063d 766c eb3c 8523 07bc eaeb c03d
000000c0: f697 a3bb a113 d2bd a41e 393d 6751 2a3c
000000d0: 745f c6bc b2d7 adbc a4b2 383c e82b b6bc
000000e0: 2a81 773c b31f 793c 6e7c 6a3c 2f1b e1bb
000000f0: 9ccd 7bb9 9ce3 513b 90bf d13a bd33 453c
00000100: 4cca 913c 7bbd 9b3c 3f50 dd3d 0c5b c1b7
00000110: e5ce 823d 0e73 f23c 9dd7 15bb 60d8 103d
00000120: 8210 bf3c 8b1b ce39 7e68 ab3c afdb e43c
00000130: 8460 313d 941b 843c 94f5 edbb d1fb 473c
00000140: 0aaa 98b7 dd14 63bb d908 933c 895f e43c
00000150: 29b8 c93c 072e 553b fa59 6dbc 1882 dcbb
00000160: f494 ae3c 3673 ab3c 1d33 6b3d ef81 c33d
00000170: f26c 5f3c 581d 813d 295e f1bc 002e 4a3c
00000180: d800 89b8 27f2 413d 9562 b03b a9f5 063d
00000190: 58e9 83bc 1e42 58b8 0002 373c cfd8 f63b
000001a0: 0ca1 aab7 ca8e 923d 5c4f 963c ede2 2a3d
000001b0: 7584 213c 3c91 66ba 376e 08bb 8bf8 c33c
000001c0: ab35 613c 8122 a2b9 5b79 613b 19a1 ceb8
000001d0: a681 e8b8 e1b2 3bbb 69e4 b03c 3e72 b03c
000001e0: 1959 c53c f7a2 e1b9 3375 303d bfe6 003d
000001f0: fd02 4d3d ef0c 0bbb 9858 bebc 4a79 1a3c
-1.4744288e-05 0.034125037 -0.0011456804 0.039853893 0.025096834 0.009223572 0.030430997 -2.6465308e-05
-0.01420332 0.0042875516 1.1950285e-05 -9.67036e-06 -0.08261908 0.004086268 -0.0013060514 -0.006542163
0.0028690929 0.04776882 0.00865097 0.05151923 0.034489874 -4.750452e-05 0.014866573 0.010098393
0.09689142 -0.014108921 0.028301109 -3.3386477e-05 -0.018253418 0.02345603 0.056902383 -0.017916765
-0.0013794992 0.031144788 0.03895045 0.029194938 -8.764376e-05 -0.0032688589 0.014516887 -1.5508975e-05
0.020803658 0.023078008 -0.024069386 0.0031517074 0.032850794 0.028738242 -0.008248215 0.09419997
-0.0049924804 -0.1025765 0.045195237 0.010395384 -0.024215437 -0.021221016 0.01127306 -0.022237733
0.015106479 0.015205312 0.014311893 -0.0068696956 -0.00024013821 0.0032026535 0.0016002525 0.012036261
0.017796658 0.01901125 0.10806321 -2.304979e-05 0.06387118 0.029595878 -0.0022864111 0.0353626
0.023323301 0.00039311903 0.02092385 0.027936785 0.043304935 0.016126432 -0.007261941 0.012206034
-1.8198993e-05 -0.0034649887 0.017948555 0.027877586 0.024623947 0.0032528655 -0.014486784 -0.0067293756
0.02131126 0.02092896 0.057421792 0.09546267 0.013636814 0.06304425 -0.029463844 0.012340069
-6.532826e-05 0.047350075 0.0053828456 0.032949124 -0.016102478 -5.155999e-05 0.01116991 0.00753317
-2.0340573e-05 0.07156141 0.018348388 0.04172032 0.00985824 -0.00087954453 -0.0020817646 0.023922225
0.013745706 -0.00030924755 0.003440461 -9.852852e-05 -0.00011086771 -0.0028640556 0.02159329 0.02153885
0.024090337 -0.00043036763 0.04308052 0.031470057 0.050051678 -0.0021217426 -0.023235604 0.009428332

weight f4 [12, 128]
00000000: 1e15 0236 5c1d d3b6 4945 4f3d e651 a5bd
00000010: 9e66 903d ff62 443c 76ef 96bc 7dc4 2436
00000020: 50b0 713c 5985 c13a 71af e7b6 6c70 8bb6
00000030: d781 d9be d6c5 443c cd83 83bc 79cc 24bd
00000040: 089f a1bc 4a9c 9fbd 9318 0d3d 9486 903a
00000050: 95ed bcbc e03b f8b7 3ddf 5cbd 26a2 8dbb
00000060: fc79 5cbc e68e fc3b 8b90 87bc b3f8 9634
00000070: 8cf8 75bd 464e cfbc bdee 2dbc d14e 243c
00000080: 5166 f83b c020 8abd cfaf 0abd 769a 8bbc
00000090: c96e 8db8 cf29 5f3b d66a 153d 501b 2eb6
000000a0: e09b 623b 5486 76bc 4bc0 8abc 9544 c9bc
000000b0: 7d04 b83b 2e56 34bd efdb 5ebd f23e bbbc
000000c0: 08ce 4bbb 5368 b83e fe53 e0bb 02eb 363d
000000d0: 85a2 533c 89be f23b dda4 9a3b a1ab a53d
000000e0: f001 e3bb 1ff4 0b3d 352c 393c 54ff 933e
000000f0: d9c0 833c 1e6f 243c fbc6 483d aa98 58be
00000100: 9c7b b03c 3be3 0ebc 100c 73bc d0d0 8c36
00000110: c27d 28bc e521 83bb b388 843b 0a80 b7bb
00000120: 952e 52bc f44e 0abb 181c 17bc e240 9fbb
00000130: aa88 0b3d 24d9 2e3d b955 7cbb 4837 4a3b
00000140: 61aa 6936 d432 3f3d 5c0f ec3c e9bd 0a3c
00000150: 97a0 b9bc 99e7 d63c 9f54 9b3d f9b3 413d
00000160: 4477 a8bd ce05 da3c 9fcb 39bd 0652 6ebc
00000170: 9a05 53bc a64e f9b9 6748 893c 9306 08bd
00000180: 1ff3 d9b8 68c8 d9bb 250a c33c 487b 65bd
00000190: 16a0 f13b aeae 6a38 6996 223b c29f 04bd
000001a0: 8752 4337 54f1 1fbc 7aee 083c 743f a03b
000001b0: a64f 69bd 3f43 013b 1f85 85ba 0a3c d93b
000001c0: d7db 2b3d 6733 a1b6 1345 303c 93fc 3a36
000001d0: 9b3e b238 c83c 83b9 4dce 92bd 038f d83b
000001e0: 4bfc 2a3d bab2 ec38 f374 763a 7920 5c3d
000001f0: e1a7 27bd 17d2 e0ba 9fca 023d 4d01 19bc
00000200: d369 e637 fb8c 673d c4ac 593c e0a8 1eba
00000210: 66c9 cf3c 14dc 63bc f6f3 b83c 85a9 2bb5
00000220: 585b 2b3b 2c7a 1fbc 0682 cbb7 5514 7f35
00000230: cb37 16be c5ec 4fbc 609b a93c f9e1 3c3d
00000240: 01f0 083d f3d9 b43d 16b5 37bb 6ef2 30bb
00000250: fbc8 babb 2f99 0d38 ad1d 5d3c 55f7 2fbd
00000260: 6481 a53c 69a8 44bb 68e0 f8bb e213 5f37
00000270: 7384 77be a7b2 1b3c 5c94 8b3b 72d7 d0bc
00000280: 3eef 933c a139 ccbc d423 b5bc c56f 1f3c
00000290: d4a4 0d38 6a01 e5ba a087 a6bc 25a2 00b7
000002a0: d5d1 14bd 7ad8 4fbc 52f7 023e c403 953b
000002b0: 8a6f 0c3d b0bd 60bd 50fc 713a 7668 6f3c
000002c0: 554b beba 5045 8b3e 7dc4 2bbc 0650 75bd
000002d0: f8c1 22bd fa22 34bc 6c59 933d 1f09 cd3d
000002e0: f5e1 88bc 5d2e bebc 51d2 30bc d095 d8bd
000002f0: cad9 d9bc 6b8d bcbb eb94 9abc 0fb7 1d3d
00000300: 5219 b33a ef8d 19bd e3af cd3b 168a 61b6
00000310: 292d c03b 595b 843d 8406 623d 40b5 a63c
00000320: 4ee6 00bc bfa2 0ebc 9bef 183d 5d5b d3bc
00000330: ec32 c53c f898 ab3c 8d72 f0bb c2cc 4c3c
00000340: a73e 0eb7 a0e0 5ebd 63da 9fbc 2a34 be3b
00000350: df5c ff3c 4d5f 2ebb 8e0d 7bbd c8a0 0fbd
00000360: 4d8e 36bc fe2a 2abd 603e 03bb 434c 123c
00000370: 7d98 04bd a346 9a3c 20dc 7fbc 794c 503d
00000380: 3418 e7b7 65c1 393d d1e2 0d3e 74c3 0d3b
00000390: 1b8b b63c 1b06 6c38 87fe 83bb de28 593d
000003a0: a709 4db6 3c42 3b3c a4b8 553d 233a ca3c
000003b0: a1e8 cabc 040a 213a 0d67 46bb 9c36 00bb
000003c0: a65b d1bc 6566 2239 c0cd 46bd 418a c637
000003d0: 4a08 0b39 fe91 4f3b 96bd 743d 2474 49bc
000003e0: 464f 21bc 9f70 bd39 4433 7e3a b648 a2bc
000003f0: 294c 4c3c bf71 e63c e6db a7bc 2e0a 0dbd
1.9383801e-06 -6.291708e-06 0.050603185 -0.080722615 0.07050823 0.011986493 -0.01842473 2.4552276e-06
0.014751509 0.0014764472 -6.9047605e-06 -4.1556104e-06 -0.42481872 0.012010058 -0.016054058 -0.040234063
-0.019729152 -0.07793482 0.034447264 0.0011026436 -0.023062507 -2.9591785e-05 -0.053923834 -0.004322308
-0.013456818 0.0077074645 -0.016548416 2.812063e-07 -0.060051486 -0.025305878 -0.010616002 0.010028557
0.0075805564 -0.06744528 -0.03385907 -0.017041426 -6.744039e-05 0.003405202 0.03647884 -2.5943918e-06
0.0034577772 -0.015046675 -0.016937396 -0.024568835 0.0056157694 -0.0440275 -0.054408964 -0.022857163
-0.0031098146 0.36017093 -0.00684595 0.044657715 0.012917166 0.0074079675 0.0047193603 0.08089376
-0.006927721 0.03416836 0.011302044 0.28905737 0.016083168 0.010036258 0.049017888 -0.21151987
0.021543317 -0.008721168 -0.014834419 4.196634e-06 -0.010283889 -0.0040018433 0.004044616 -0.0055999802
-0.012828489 -0.0021104189 -0.009223007 -0.0048600296 0.03406588 0.04268755 -0.0038503243 0.0030855704
3.481888e-06 0.046679333 0.028815918 0.00846813 -0.022659583 0.026233481 0.075844996 0.047290776
-0.08225873 0.026614096 -0.045360204 -0.014545923 -0.0128797535 -0.0004755158 0.016758157 -0.033209395
-0.00010392651 -0.0066462047 0.023808548 -0.056025773 0.00737382 5.595263e-05 0.002480889 -0.03237892
1.1642121e-05 -0.009762127 0.0083576385 0.0048903767 -0.056960724 0.001972392 -0.0010186768 0.0066294717
0.041957702 -4.804158e-06 0.010758656 2.7863177e-06 8.4993626e-05 -0.00025031553 -0.07168255 0.006608845
0.04174451 0.00011286647 0.0009401582 0.053741906 -0.040931586 -0.0017152455 0.031931516 -0.009338689
2.7467415e-05 0.056530934 0.013285819 -0.0006052386 0.025364589 -0.013907451 0.022577267 -6.394915e-07
0.0026146974 -0.009733718 -2.4260033e-05 9.502449e-07 -0.14669721 -0.012690728 0.020703971 0.04611394
0.03343201 0.08830633 -0.002803152 -0.0026999968 -0.0057002283 3.3759683e-05 0.013495845 -0.042960484
0.0202033 -0.0030007607 -0.0075951107 1.3296465e-05 -0.24171619 0.009503043 0.004259629 -0.025493357
0.018058416 -0.024929823 -0.02211181 0.009731238 3.3770528e-05 -0.0017471735 -0.020328343 -7.667147e-06
-0.036332924 -0.012685889 0.12789658 0.004547568 0.03428606 -0.0548684 0.0009231018 0.014612308
-0.00145183 0.2720132 -0.010483858 -0.05989077 -0.039735764 -0.010994667 0.0719479 0.10011505
-0.016709307 -0.023215467 -0.010792331 -0.105754495 -0.026593108 -0.005754163 -0.018869838 0.038504656
0.0013664162 -0.037488874 0.006277071 -3.360799e-06 0.0058647585 0.06462736 0.055181995 0.020350099
-0.007867409 -0.008705794 0.03733788 -0.025800401 0.024072133 0.020946965 -0.0073378743 0.01249999
-8.478447e-06 -0.054413438 -0.019513315 0.0058045583 0.031172214 -0.0026607097 -0.061292224 -0.035065442
-0.011142326 -0.041544907 -0.0020026192 0.008929315 -0.032371987 0.01883251 -0.015616447 0.05085418
-2.7548616e-05 0.04535045 0.13856055 0.0021631392 0.022283128 5.627247e-05 -0.0040281448 0.05301749
-3.0552999e-06 0.011429366 0.05217804 0.024685925 -0.02476913 0.0006143155 -0.0030273825 -0.00195638
-0.025556397 0.00015487669 -0.048536062 2.3667819e-05 0.00013259161 0.0031672711 0.059751116 -0.0122957565
-0.00984556 0.00036132798 0.000969697 -0.019810062 0.01246933 0.02813041 -0.020490598 -0.034433536

bias f4 [12]
00000000: 086c 1abd da36 273c cb04 efbb e180 ea3c
00000010: d987 d5bb 202a 90bc 00d5 0fbd c373 f5bc
00000020: bbf1 643d fae2 f63c 5ed6 c13c 47a7 253d
-0.037700683 0.010205949 -0.0072942725 0.028625907 -0.0065164384 -0.017598212 -0.035115242 -0.029962426
0.055894595 0.030137528 0.023661789 0.04044273

_mean f4 [48]
00000000: 94b5 e83e 146a d03c ede8 243c 061b f8ba
00000010: 5390 c5bb bd04 80bb f3ad d1bb ebab 88bb
00000020: 2f57 7ebf 7b62 e43e 009d 0aba 2a3d 98bb
00000030: 64a5 4bbe 6679 d33d b4d6 c4bd ca86 013e
00000040: 8888 8ebd 81c9 10be 41ab 8dbe ce4a 53be
00000050: b656 7d3e 860e 373e 4fd0 4e3e be77 a63e
00000060: 3c18 febc 4bbf a23c 7a10 07bc 5c65 ba3c
00000070: 46dd 433d 8655 c23c 8cf2 003c 6ef4 2d3d
00000080: 1156 d7bd 8d7c 93bd e7e3 18bd 09fe 94bd
00000090: 2786 94bf ba04 1b3f f602 1cbf a321 703f
000000a0: 8d21 6ebf 3c0d 50bf aaa5 c2bf 6341 d1bf
000000b0: db01 2940 f5e3 d43f d92c bb3f 8009 1540
0.45451033 0.025441207 0.010065299 -0.0018928952 -0.0060291677 -0.003906815 -0.00639891 -0.004170885
-0.9935178 0.44606385 -0.0005287677 -0.004645963 -0.1988731 0.10325889 -0.09611264 0.12649074
-0.06959635 -0.14139368 -0.2766972 -0.20634004 0.24740109 0.17876634 0.20196651 0.3251323
-0.031017415 0.019866606 -0.008243674 0.02275341 0.047818445 0.023722421 0.007870328 0.042469434
-0.10514463 -0.072014906 -0.03732672 -0.07275016 -1.160344 0.6055409 -0.6094202 0.93801326
-0.93019944 -0.81270194 -1.5206807 -1.634808 2.6407382 1.6632067 1.4623061 2.3287048

_std f4 [48]
00000000: 6949 8a3f 84b7 193f 3741 963e 0de7 9c3f
00000010: 0771 043f 9c02 683f 725e 143d 1da9 603d
00000020: d870 e23b 2daa af3f 5762 523f fff7 8b3f
00000030: 22af 2a3e 800e 0a3e 86cc 163e 9200 2a3e
00000040: 7a10 6f3e f5c2 3c3e 451e 4a3e d8d7 763e
00000050: 2813 b33e 9ed8 9d3e 4703 913e 1b46 983e
00000060: b245 1240 bac9 1040 8625 1e40 d083 1f40
00000070: 63a7 2540 6d1d 1140 5416 2640 ca3c 3b40
00000080: 8358 c040 3d5c b040 a7a3 8f40 425f a340
00000090: 59e2 7e3f d1ee 713f 141d 833f e204 8a3f
000000a0: 757d b53f c11a 943f 0e27 9b3f 0463 c83f
000000b0: cee5 2140 eb25 0140 0aea d53f 706a f13f
1.0803653 0.6004565 0.2934663 1.2258011 0.51734966 0.9062898 0.036222883 0.05484878
0.0069104247 1.3723809 0.82181305 1.0935057 0.1666837 0.13482094 0.14726457 0.1660178
0.23346129 0.18433745 0.1973811 0.24105775 0.34975553 0.30829328 0.28322813 0.29740986
2.2855039 2.2623124 2.4710402 2.4924202 2.5883415 2.267421 2.5951128 2.9255853
6.0108047 5.5112596 4.488727 5.105378 0.9956413 0.9450503 1.0243249 1.078274
1.4178911 1.1570665 1.2121294 1.5655217 2.5296512 2.0179393 1.6712048 1.8860607
