assets/spot_fast_td3_final.pt (torch, 783922 bytes, 10 tensors)

weight f4 [512, 48]
00000000: fd27 1b3d c2f9 d53b 6126 a83b ee59 a7bc
00000010: 5c86 533c c145 363c 3472 1cba 1735 583b
00000020: b609 293d 5a41 863c 59d5 f9bb 7294 7ebc
00000030: b13d 133c 2049 323d ccd1 b1bc cc0b 45bc
00000040: 9f6a 8bbc 6796 0c3e 7890 22be 1373 e93c
00000050: 5056 02bd daf7 9d3d a8b6 78bd c006 843c
00000060: e6e5 7dbc 82b9 0abc 8760 5b3b 6cd9 c63b
00000070: 05c4 e2bb 7f14 a13b 48d3 d43b 7b38 c3bb
00000080: 2d0f 2abb 6b1b c03c 87b0 16bc a881 49bb
00000090: 1e1e 5cbc ba10 abbc d56a a8bc 2880 68bc
000000a0: d916 80b9 eef2 83bc af8b 12bc f8bc e8ba
000000b0: 4df5 483c 2464 8cbc bdcc 7a3c a311 013c
000000c0: 9b98 53bc be4e b9bc ebf2 b6bd df32 3c3d
000000d0: d44e 0b3e 19bd e7bd 83e1 ae3d 7cf4 eabb
000000e0: f647 ca3c 4312 8abc 717e f43c 738a e03d
000000f0: 622b 623c aa99 d43d e2d6 0abd 3d71 23bc
00000100: 298e dcbc 76c2 5abc 69f8 523d 98b8 be3c
00000110: a466 e0ba de7e 9d3d 1695 71bc f7a9 84bc
00000120: e47a d73c 74d2 183e 28b7 aebd 28f8 a8bc
00000130: e319 28bd 39e4 af3c 7ee5 5ebd 162c f0bc
00000140: 0e79 b0bc 4ed8 a33d d23b 29bd 413f 8abc
00000150: 61f9 bb3a 0e12 32be 36ef 463d c667 8e3d
00000160: ba54 afbb c14e d4bd 1652 ae3c 8700 2d3c
00000170: 7c08 babb 7f7a ce3d c2fe 79bb b29a 873d
00000180: b927 d53b 8c68 80bc 427c 15bd 97e9 82bb
00000190: 2625 43bd bd60 e63c e936 a5bc f1a2 083c
000001a0: d36d 0bbd 415c 5cbb d4e0 0d3c aaa6 48bd
000001b0: 4b52 88bc 8e98 11bc a108 4fbc ce9b cabc
000001c0: 37d1 2ebd 118d cb3c 0cd4 9bbb 19ca 1abe
000001d0: e374 16bd f6d7 3abc 5ebb 67bb 9b55 893d
000001e0: 0657 b6bb fb69 12bc 4081 29bc abf1 043c
000001f0: 86ca 8e3a c343 5fbc 5725 9a3a de0b 5dbd
00000200: 0873 953b 842a 97bb b546 cbba ba0f aa3c
00000210: b7a7 8f3c 8d4b 063d bf20 98bc 3dfa bb3a
00000220: 9877 21bd 338c 983c e0ce d93c 4260 dbbd
00000230: 82e1 4abc 571b 8e3d 8a38 65bc 46f7 403d
00000240: a6f9 a8bb 77d1 a53c 8482 d53d 50af 3f3c
00000250: 4af1 ccbd f4ec 19be bba1 97bd 7147 d03b
00000260: 1502 ae3c 2eac 5b3b 45d5 873c fdfa 183e
00000270: bcaf 833c 8815 8cbc d8e0 a6bc 967f 32bd
00000280: 4acc 2d3b e1cc fb3c 6b01 8bbd 8f77 91bc
00000290: b3cc 36bd 5a17 c13c b950 b03d 49a9 4ebc
000002a0: 1488 bf3d 12ba 5b3d d455 72bd 95e7 81bd
000002b0: 91c0 f83c ca8c 093d e1fe a0bd ad25 3abd
000002c0: 9adf 14bd cdca c83c 4f51 9a3c dab3 e9bc
000002d0: 62d9 cdbd 4056 a4bd 9e74 b33d bdd4 ae3d
000002e0: 8faf a9bd 1ba0 26bc c754 f1bc 6ba0 cc3d
000002f0: 9184 d1bd 71ab 52bc 587b a73d 889f b4bc
00000300: 7516 663e 95d2 583c 193e 81bb c99c 31ba
00000310: 699a ed3b 0d9b 13bb 1360 093c d995 853a
00000320: aa8a 27bb 73d8 80be a2f9 94bc 6ae7 353a
00000330: 543e 96ba 7eef 68bb d039 3db9 933d 0c39
00000340: 815f 36bb bc3c 87bb eed2 d43b 98b0 c63b
00000350: 825f 9ebb 7376 1dbc 00a8 f93a acbf 90ba
00000360: 4e6f dbba 95b2 043b 5257 0c3b 3f03 68bb
00000370: d47c 72bb 33e9 54bb efd4 f5ba 7e75 beba
00000380: 1d7f a8ba 57ee 57ba febc 3339 1ca7 5a3a
00000390: 33ca 2eb9 f97e 2539 c0df 7fb9 e37b 643a
000003a0: 68a8 bfba fa67 33ba 8dd7 4aba d0f2 5ebb
000003b0: 0c80 0d3a f098 d13b 2270 39bb d4ab 0e3b
000003c0: dd35 b03d 24b6 99bd 1095 02bd a8d7 38bd
000003d0: 8d78 e4bd 2e45 6e3c da41 f1bd 8e90 833c
000003e0: 8055 ff3d 979b 70bd 9818 3c3d a3bd 3cbd
000003f0: 2439 b1ba 692b 3cbd 8079 97bc d11c 7ebc
0.037879933 0.0065300176 0.0051315282 -0.020428624 0.012910452 0.011125029 -0.00059679453 0.0032990628
0.041269027 0.016388584 -0.00762431 -0.015538322 0.008986876 0.04352677 -0.021706484 -0.012026738
-0.017018614 0.13729249 -0.15875423 0.028497254 -0.031820595 0.077132896 -0.06072107 0.0161165
-0.015496707 -0.00846708 0.0033474283 0.006068399 -0.00692034 0.0049157734 0.0064949133 -0.0059576607
-0.0025948987 0.023450574 -0.009197361 -0.0030747447 -0.013434915 -0.020882 -0.020558754 -0.014190711
-0.00024431085 -0.016107049 -0.008944436 -0.0017756512 0.0122655155 -0.017137595 0.0153076025 0.00787774
-0.012914802 -0.022620555 -0.08933052 0.045946952 0.1360429 -0.113153644 0.08539107 -0.007170258
0.024692517 -0.016854411 0.029845448 0.10963907 0.013804289 0.103808716 -0.033896334 -0.009975729
-0.026923256 -0.013352027 0.051506434 0.02328138 -0.0017120433 0.076902136 -0.0147450175 -0.016194327
0.026303716 0.14924031 -0.08531028 -0.020626143 -0.041040312 0.02147113 -0.05441808 -0.029317897
-0.021542098 0.08000241 -0.041316815 -0.016875865 0.0014341288 -0.173897 0.048567973 0.06953387
-0.0053506764 -0.103665836 0.021279376 0.010559208 -0.005677281 0.10081958 -0.0038146232 0.06621303
0.0065049795 -0.015674852 -0.036495455 -0.0039951312 -0.04764285 0.0281223 -0.020167785 0.0083396295
-0.034040283 -0.0033624324 0.00865956 -0.04898707 -0.016640803 -0.0088864695 -0.012636335 -0.024732497
-0.04267999 0.02484754 -0.0047555026 -0.15116157 -0.036732566 -0.011404028 -0.0035359482 0.06705781
-0.005564573 -0.0089364005 -0.010345757 0.008114259 0.0010894097 -0.0136269955 0.0011760396 -0.053966396
0.004560832 -0.0046132226 -0.0015508743 0.020759452 0.017536027 0.032786895 -0.018570302 0.0014341545
-0.039420694 0.01862154 0.026587903 -0.10711719 -0.012382867 0.069388084 -0.013990531 0.04711082
-0.0051567135 0.020241482 0.104252845 0.011699513 -0.1000696 -0.15031797 -0.074038945 0.0063561727
0.021241227 0.0033519375 0.016581187 0.14939494 0.016075008 -0.01710011 -0.020370886 -0.043578707
0.002651947 0.030737342 -0.0678738 -0.017757205 -0.04462881 0.023570705 0.086091466 -0.012613603
0.09352127 0.053644247 -0.059163883 -0.06342999 0.03036526 0.033581533 -0.07861114 -0.045446087
-0.036346056 0.024510765 0.0188376 -0.028528143 -0.10051228 -0.080242634 0.08762477 0.0853667
-0.08285438 -0.010170008 -0.02945937 0.09991535 -0.10230363 -0.012858258 0.08177823 -0.022048727
0.22469504 0.0132338 -0.00394417 -0.0006775377 0.007251073 -0.0022522837 0.008384722 0.0010191753
-0.0025564828 -0.25165138 -0.01818544 0.00069390854 -0.0011462667 -0.003554314 -0.00018045981 0.00013374379
-0.002782792 -0.004127113 0.0064948713 0.006063532 -0.0048331628 -0.00961076 0.001904726 -0.0011043451
-0.0016741545 0.0020248045 0.0021414352 -0.0035402325 -0.0037000673 -0.003248763 -0.0018755476 -0.0014530865
-0.0012855266 -0.00082371145 0.00017141175 0.0008340941 -0.00016669258 0.00015782927 -0.00024402048 0.00087159703
-0.0014622333 -0.0006843802 -0.0007737808 -0.003401924 0.00053978036 0.0063964054 -0.0028295596 0.0021769898
0.086040236 -0.07505444 -0.03188044 -0.04512754 -0.11155806 0.014542861 -0.11780138 0.01606014
0.1246748 -0.058742132 0.045921892 -0.04607929 -0.0013521058 -0.045939837 -0.018490553 -0.0155098

bias f4 [512]
00000000: 9ced 11be f915 483b 2da6 8abb e9aa f8bb
00000010: 53ed f83c dae7 b4be 1d28 9abd d68b 6c3c
00000020: c392 21bd 08b7 92bd 3138 7dbe 27e8 9dbd
00000030: 5f10 0dbe 5492 61bd 8c21 8b3b 4b3b 853c
00000040: bd28 19bc baea 3ebd 7f39 02be db18 30be
00000050: 8f89 0cbe b003 92bd 29f2 40be c8e8 45bd
00000060: de9b e5bd 8f10 843c 651e 92bd cf3c 07bd
00000070: 4440 8ebd 4a14 0abe 07d3 a0bc 4d43 1bbc
00000080: 7a4b 873b 6b62 3abe efef 253d d37d 913d
00000090: b229 57bd 3669 ca3c 666d babc f171 12be
000000a0: f0e8 d7bd 1930 d5bd 781f eebc eb65 183d
000000b0: 47e2 ddbd d0a4 39bd 922c b4bb 30e9 e63c
000000c0: 6a37 97bd 8d6c c1bd 4eef a53b 9a5c a83c
000000d0: 2754 46be f9a7 b73c f2d9 99bd a95f 04be
000000e0: c8f6 6ebc 8ee8 36be 9c18 c53b b459 063c
000000f0: 8c7f 87bd 93ea e3bd 1a7a 17be acd4 24be
00000100: bc74 e1bc 8e85 20be 16ce 1cbe 51e4 12bd
00000110: 210b a6bc ab2f 2fbe a095 14bc 95ac 0fbd
00000120: 4b73 a3b9 522d 85be 6865 f43c d04c e2bd
00000130: e47b 88bd 8448 24bd ecb2 733d c17e b33c
00000140: e1c8 13be f938 c13d e003 40bd 6ad5 26bb
00000150: 0b09 fcbd f040 aebd c1c4 61bd a8b4 f6bd
00000160: c7b8 a6bd e9ac 31be 214d e6bd 28ec 3ebe
00000170: 3c9f 8cbd 0e15 fabd 7125 47be 0f59 c8bd
00000180: 6c91 5fbe 7186 e4bc 80ca 16be a595 2f3d
00000190: be27 fabc ba72 e2bb 0662 4dbd dc68 393e
000001a0: d180 90bc 83a3 ebbd ebd6 10be d643 51be
000001b0: e61b b63d 2e00 30be 7df7 7bbc 40e7 3dbe
000001c0: 0fb4 05be 8c41 89bd 57c8 d7bd 5cc9 6dbe
000001d0: 0fb8 db3b 77e8 61be 95d7 a4bd 82b3 1bbc
000001e0: 763a 6cbc 4241 da3b ba8b 523b 548c 03be
000001f0: e328 9fbc afa0 8fbd e29f 2cbd 6600 a2bc
00000200: 0224 1fbe b6c7 9ebb 9db1 f3bc 95c1 093c
00000210: 4991 15be 9da4 92bd 7286 3abe 3b5d 8bbc
00000220: 55d2 31be 2d91 21ba b734 11be adaa dc3a
00000230: 95e1 dcbd a22f 9a3c ed91 dfbd 1296 8a3a
00000240: d6c0 debc 7858 003b 3d65 1fbd bd59 27be
00000250: 3849 c53b 2b3f 413c e56a a1bd dac7 07be
00000260: 0714 5c3d cd14 fc3c 10ac 50bc 8951 29be
00000270: 8c82 46be e8a6 31be 958b 28be 67b2 b4bb
00000280: 47f0 933c ee24 94bd 6c69 bfbb 6fb0 993d
00000290: c8f3 f5bd 6141 b13c e95a bbbd f663 a0bd
000002a0: aa63 89bd b0c0 133c 20a8 ebbd 620d 0abe
000002b0: 99b2 12bd 2b57 1cbe 2d4d 49bc eb05 d53c
000002c0: 7531 1ebd 10db 26be 5e6e 12bd 6b8c 1cbe
000002d0: 9ff0 65bc d331 c83b 698d a1bc 25a2 66be
000002e0: 52bf d9bc 0c67 25be 858f c0bc 6b1c d3bd
000002f0: 03ba bc3b 7413 3ebe c8ea b8bc eda3 4abe
00000300: 5d18 1dbe 8dcc 8d3c 4df6 73bd 5160 28bb
00000310: a2a1 3c3c 9ed7 c73c 99ee 3abe 50c4 bbbd
00000320: 56d6 02bd 5092 47be b693 acbc 3d3b 15be
00000330: 4fa4 17be 5cc8 81bd 408b 84bc 5347 1cbe
00000340: d46b 0ebe ceec 3c3c 513c 21be 56ac a2bc
00000350: 923f 03be 494c cf3b c77d c1bb 5513 f8bd
00000360: 3ee6 e2bd 0684 de3c aaa4 dabd 862f 21be
00000370: 5b5d 14be a71a e53c 8a87 d13c 38a2 0dbe
00000380: 33dc ebbd 117d f7bc 60ec f3bd dfc1 c6bd
00000390: 86a6 983d a9d2 11be a352 eabd 5653 f7bc
000003a0: 8537 d2bd b54f 423e 7c56 acbd cc38 2bbe
000003b0: 980b c3be 4f8c 8ebb 9dd9 9cbd 5cf3 373d
000003c0: 431b 15be 08a4 29be 5f2b 18bd bfac 3fbd
000003d0: 5d0f c9bb d4b0 8dbd d0c0 53be 5cb6 05be
000003e0: 1b8f a7bd df78 f7bd 65f7 e4bd 81af d9bc
000003f0: f3ba d4bd e9ce 36be 7e12 a4bd 91bb 4cbd
-0.14250797 0.0030530675 -0.0042312355 -0.0075887335 0.030386603 -0.3533314 -0.07527182 0.014437636
-0.039446604 -0.07163817 -0.24728467 -0.07710295 -0.13775776 -0.05507119 0.0042459425 0.016263625
-0.009348092 -0.04661057 -0.12717246 -0.17196982 -0.1372435 -0.071296096 -0.18842377 -0.0483177
-0.1121137 0.016121177 -0.071347035 -0.033016976 -0.069458514 -0.13484302 -0.019631876 -0.009476495
0.0041288706 -0.18201606 0.04051202 0.07104077 -0.052529998 0.024708372 -0.022757243 -0.14301278
-0.10542476 -0.104095645 -0.02906774 0.03720657 -0.108341746 -0.045323193 -0.0054984773 0.028187364
-0.07383616 -0.094445325 0.0050639277 0.020551968 -0.19368039 0.022418963 -0.07512273 -0.12927116
-0.014585204 -0.1786215 0.0060148966 0.008200098 -0.066161245 -0.11128726 -0.14792672 -0.16096753
-0.027521484 -0.15675947 -0.1531299 -0.03586227 -0.020268979 -0.17108028 -0.0090688765 -0.035076696
-0.00031175683 -0.2601114 0.02983351 -0.11049807 -0.06664255 -0.04010822 0.059496805 0.021911027
-0.14432098 0.09434695 -0.046878695 -0.0025456795 -0.12306412 -0.085084796 -0.05511928 -0.12046176
-0.08140712 -0.17351116 -0.1124518 -0.18644774 -0.06866309 -0.12211047 -0.19447877 -0.097826116
-0.21832818 -0.027896138 -0.14725685 0.04286732 -0.030536529 -0.006910649 -0.05014231 0.18106407
-0.01763955 -0.11505797 -0.14144485 -0.20436034 0.0889204 -0.17187569 -0.01537883 -0.18545246
-0.13056968 -0.06701955 -0.10536259 -0.23221344 0.006705291 -0.22061335 -0.080489315 -0.009503247
-0.014418235 0.0066606114 0.003212674 -0.128465 -0.019428676 -0.0701307 -0.042144664 -0.01977558
-0.1554108 -0.0048455847 -0.029747779 0.00840797 -0.14606203 -0.07160304 -0.1821535 -0.01701223
-0.17365392 -0.00061632955 -0.14180265 0.0016835533 -0.10785214 0.018821541 -0.10916505 0.0010573289
-0.02719156 0.0019583981 -0.038914908 -0.16342826 0.0060206912 0.011794846 -0.07881717 -0.13259831
0.053730037 0.030771637 -0.012736335 -0.1653501 -0.19385737 -0.17348826 -0.16459496 -0.0055144313
0.01805891 -0.07233606 -0.0058414247 0.07504355 -0.12009388 0.02163762 -0.09148199 -0.07831566
-0.067084625 0.009018108 -0.11506677 -0.13481668 -0.035814855 -0.15267627 -0.012286467 0.026003798
-0.038621385 -0.16294503 -0.035749786 -0.1528794 -0.014034419 0.006109455 -0.01972075 -0.2252279
-0.026580486 -0.1615259 -0.023505935 -0.10308155 0.005759479 -0.18562108 -0.02257289 -0.19789095
-0.15341325 0.017309451 -0.059561063 -0.0025692175 0.011513146 0.024394806 -0.1825508 -0.09168303
-0.031942688 -0.19489408 -0.021066528 -0.14573379 -0.14808773 -0.06337044 -0.01617968 -0.15261583
-0.1390832 0.011531068 -0.15745665 -0.019857567 -0.12817219 0.0063262326 -0.0059048864 -0.12113062
-0.110790715 0.027162563 -0.106759384 -0.15740785 -0.14488737 0.02796681 0.025577325 -0.13831413
-0.11516609 -0.030211003 -0.11910319 -0.09704947 0.07453637 -0.14240517 -0.11441543 -0.030191105
-0.10264496 0.18975718 -0.08414933 -0.16720885 -0.38094783 -0.004350222 -0.07658694 0.04490982
-0.14561181 -0.16566479 -0.037150737 -0.046795603 -0.0061358646 -0.06918493 -0.20679021 -0.13057846
-0.08181592 -0.12083601 -0.11179999 -0.026572945 -0.1038722 -0.17852367 -0.080113396 -0.049983565

weight f4 [256, 512]
00000000: 968e 913d deb5 673d 6e0f 96be e729 f63c
00000010: 1b4b dbbb dc72 d33d ba9c 163d 7780 253b
00000020: 4c16 963c 780e e03b 30c4 863c 83b1 413c
00000030: d7b5 e33c 5f79 6a3c 1f3c 833a 9294 89bc
00000040: b693 023e e7fc fc3b 2f23 5eba df34 543c
00000050: 0c26 6f3d 7845 7d3c 57e9 84bc 546f f1bd
00000060: 2b26 85bd c302 38bd 0420 b93b 5524 93bd
00000070: 9af2 453d 734b 2e3c fe51 143b 1303 96bb
00000080: ddf1 73bd 6418 073d 9560 7fbd 0e5f 03bd
00000090: 35da 833c 066f 273d 62af b1bc 708a f4bc
000000a0: 6828 c9bc f3fe 7b3d c391 b63d 0d8a 663d
000000b0: da70 01bc 6481 1d3c 20ac d03b c6f8 913d
000000c0: d801 593b beed c3bc 9510 a13a c386 053d
000000d0: 4649 53bd 743d 8f3c 414f a3bd 74bc a339
000000e0: d377 5ebc be64 c93c e72a ddbc cb48 a93b
000000f0: d867 58bc 5db3 293b 02c8 ee3b 216b bebb
00000100: 5da4 533d d71d 85bd fbce 12bd c037 cfbb
00000110: be98 f83b 84e1 523d bdbf 473c 7403 3cbb
00000120: 3c55 17bd fab3 ea3c 2d46 463c 77e5 153d
00000130: d310 4dbd 4426 c43c 454c c2bc e781 f3bb
00000140: 3ffa e4bc a350 6a3c 7738 8539 0e09 ca3c
00000150: 973f 0a3d d9c2 333d fb98 aabd d9ee 4a3d
00000160: 56ab 1d3c a0fd ecbc 037d c33c 8fc2 1a3b
00000170: ec68 b9bc ee68 2bbd bbdf 143d 711c 07bd
00000180: 65bb a3bc 3640 f0bc dd5c 0fbd 1c49 a8bd
00000190: c605 843c 5efe c13c 560e 523d dcc9 793c
000001a0: 89ab 10bd 6c4d e93c 5f14 bcbb 8fe1 1c3d
000001b0: d3a6 723c ad9e 003d db0d 433b a487 95bc
000001c0: fffd 3c3d 0e6c 013d c061 c1bd c2b9 afb8
000001d0: c8fd 27bd 28f0 743d 6bd3 78bc b150 fdbb
000001e0: 79d3 19bd e050 953c cda5 1e3c b527 aa3c
000001f0: 8c66 14bd be9e a3bc 09f9 72bd 75b9 e73b
00000200: c50b 26bd 0a4e 193d e55c 863a 2f1e c4ba
00000210: 1d3e a03c 4191 4fbd 0d5f 873d 7386 6e3c
00000220: 63d9 74bc af6a 973b 0249 403c b11a 1a3d
00000230: 4359 01bd ebcb c53c 0d49 74bc 647e d7bd
00000240: 11ba d2bd 4c3b 8bba 6f96 f2bc fe5c 2ebc
00000250: f50f 113d 6a08 2b3c 96c8 8a3d c5db ecbc
00000260: a5eb 03bc 920f 473d c1e4 373b d2ee b8bc
00000270: e07c ad3c 0369 d4bb 4f06 5cbd b72e a43d
00000280: 8c2c 143d e27e 48bb d975 f9bc 6824 d2bb
00000290: c7b6 86bc 6a32 293c 1438 0eba f034 76bb
000002a0: cf6e a3bc 6f6b 9f3c 16db 353d 2067 d2bc
000002b0: 34bf 11bd ed30 29bd 393c 103d c0ec dd3c
000002c0: fc31 07bd 28a6 cdbc 5cc7 38bc 16a9 e0bb
000002d0: e1ea e33c 09ff dd3b aefc 75bc fb52 0cbd
000002e0: 87c7 cd3a 59e5 283d ce99 323d f762 5a3b
000002f0: feed 18bc 2e99 56bd d498 91bc 896e 633d
00000300: 1ba2 97bd e788 6e3a 6853 813c b6ac 37ba
00000310: e3bb 27bc c4de bb3b c61f 1fbc 86ea 5e3d
00000320: a436 d9bb ef49 09ba dd60 b8bc fd16 c4bc
00000330: f8e5 663c 8e18 4b3c 70ad 653d 50e1 183c
00000340: ac2a e33a c768 17bd e9de e63c b4f2 333c
00000350: 32f2 983c 916f 0c3c 9383 693d cff7 67bc
00000360: 410a 243d 4865 56bc 83f6 6f3c c1b2 e93c
00000370: 8ce2 8cbd d4ad 06bc cebb b3bd 46fc 4b3c
00000380: 8fc6 183d 6788 9cbd b638 fc3c 7df5 053d
00000390: 8f73 583d 9446 d8bc f4f4 e63c 03c3 4cbe
000003a0: bc8d ebbb 0dba fdbc 8667 23bd 37e6 f33c
000003b0: 646f f93d fbc3 14be e74d fdbb 538f e9bc
000003c0: 68e4 d03c b28c 8a3c bb83 7c3d 4828 82bd
000003d0: 7755 f6bc e3de 023e eab6 97bc 50ef 423d
000003e0: 2882 973c 8185 71ba 3231 f13c 7057 433d
000003f0: a50f 13bc 5918 b13d 23cb 38bc 3501 4d3c
0.07107274 0.056569926 -0.29308647 0.030049277 -0.006692303 0.10324642 0.03677056 0.0025253573
0.018321179 0.0068376623 0.016450971 0.011822107 0.027796669 0.014311164 0.0010012424 -0.016794477
0.1275166 0.007720578 -0.00084738707 0.012952059 0.058385894 0.015458457 -0.016224546 -0.11788812
-0.065014206 -0.04492451 0.0056495685 -0.07184664 0.048327066 0.010638106 0.002263188 -0.004578003
-0.05955683 0.032982245 -0.062347967 -0.032073073 0.01609526 0.040877365 -0.021690074 -0.029851168
-0.0245554 0.061522435 0.089145206 0.056284 -0.007900441 0.009613369 0.006368175 0.07127528
0.0033112671 -0.023917075 0.0012288267 0.032599222 -0.05158355 0.017485358 -0.07974101 0.0003123019
-0.013578373 0.02458417 -0.026997996 0.0051661483 -0.013208352 0.0025894262 0.0072870264 -0.0058111106
0.05167042 -0.06499832 -0.035841923 -0.0063237846 0.0075865677 0.0514846 0.01219171 -0.0028688582
-0.03694652 0.028650273 0.012101692 0.036595788 -0.050064873 0.023944028 -0.023718009 -0.007431257
-0.027951358 0.014301452 0.00025409806 0.02466252 0.03375205 0.043886993 -0.0832996 0.04954419
0.009623369 -0.028929532 0.023863321 0.00236145 -0.022633038 -0.041848116 0.03634618 -0.03298611
-0.019986818 -0.029327493 -0.03500067 -0.082170695 0.016116034 0.023680862 0.051283203 0.015245881
-0.03531984 0.0284793 -0.005739733 0.038301047 0.014810282 0.031401325 0.0029762897 -0.018253155
0.046140667 0.03159719 -0.094424725 -8.37925e-05 -0.04101351 0.059799343 -0.015187125 -0.0077305664
-0.03755519 0.01822704 0.009683085 0.020770887 -0.03623061 -0.019973155 -0.05931953 0.0070716687
-0.040538568 0.03742794 0.0010251073 -0.0014962609 0.019560868 -0.050675634 0.066099264 0.014558422
-0.014944407 0.004620872 0.011736156 0.03762311 -0.031579267 0.024145087 -0.014909995 -0.10522154
-0.102893956 -0.001062253 -0.029612748 -0.010642288 0.03541561 0.010439018 0.0677654 -0.028913388
-0.0080517875 0.048598833 0.0028059932 -0.022574816 0.02117771 -0.006482245 -0.053716954 0.08016723
0.036175296 -0.0030593206 -0.030451702 -0.0064130314 -0.016444577 0.010326961 -0.00054252264 -0.0037568174
-0.019950299 0.019460408 0.04439839 -0.02568394 -0.035582736 -0.041306425 0.035213683 0.02709043
-0.033006653 -0.025103644 -0.011278 -0.006856094 0.02782196 0.0067747873 -0.015013857 -0.034258824
0.0015699723 0.041234348 0.04360371 0.0033323148 -0.0093340855 -0.052392177 -0.01777307 0.055525336
-0.07403966 0.00090993795 0.015786842 -0.0007006632 -0.010237667 0.005733343 -0.009712165 0.054422878
-0.006628828 -0.0005237152 -0.022507126 -0.023936743 0.014092915 0.012395991 0.056073606 0.009331062
0.0017331443 -0.036965158 0.028182464 0.010983158 0.018670175 0.008571521 0.057010245 -0.014158203
0.04004884 -0.013085671 0.014646175 0.02852762 -0.06879148 -0.008220155 -0.08776055 0.012450283
0.037298735 -0.07643204 0.03078876 0.03270482 0.05284458 -0.026400842 0.028192975 -0.19996266
-0.007188527 -0.030972505 -0.03989365 0.02977286 0.12179449 -0.14527886 -0.007730234 -0.028510725
0.025499538 0.016912792 0.061649065 -0.06355339 -0.03007005 0.12780337 -0.018519837 0.047591507
0.01849468 -0.0009213314 0.029442403 0.04769081 -0.008975898 0.08647222 -0.0112789 0.012512495

bias f4 [256]
00000000: ed48 88bd 374c c0a8 9d50 aca7 d638 0cbc
00000010: e1f8 8cbc 601c 05be 921c d0bc 4c36 1828
00000020: 13e2 37bd 8aa8 52a8 5ed4 18bb 3896 78aa
00000030: 391d ca3c 3fa9 5fbc 3d0d ada8 ccbf 28b1
00000040: 9f76 54be 625f f93c fa15 fdbc 4720 bca7
00000050: 86f2 a33c e23d e23c a0e0 6abc cfe9 053d
00000060: 4417 4c3d a147 6ebc 3d65 d2a7 1a3c e23b
00000070: 2d56 75a7 d82d febc 3317 a1bb 638e 4dbc
00000080: 85d1 3aa9 60f1 213b 218d 4f3d f0a5 da3c
00000090: 4eeb 17bd 1ef7 36bb b8d8 8ea7 2e87 a9bc
000000a0: 9b89 b93c 2cd0 dc3c 807e 0e3d a30b bb3c
000000b0: 6d26 dd26 2b92 293b 14dc 98bc cd73 48bd
000000c0: 5a89 f83c 2e6a afac 0f98 de3b b0ce a53c
000000d0: e053 63a8 ffc8 1c3c 5078 273c 7068 24bc
000000e0: 8da3 9bac 431e aea7 2821 13be 8547 eebc
000000f0: 5f1f a526 7d1f 913b b373 0d3d 88b6 09aa
00000100: 9b9d aa3d 5c2b 81bc 5fc5 53aa 17fe 7bbe
00000110: aa79 6fa6 789a 3aaa 269d 623c bd99 b73c
00000120: 7d7b 963b a8ca 003d a959 35be ba08 10be
00000130: 4971 303d 9a8c 723d 7647 92a6 cef2 c0bc
00000140: b86e 763b 84b2 07bc 453a 5f3d 99b5 1ebc
00000150: 8d1b 0ebe 9fd1 903b e1d3 cabc e836 80aa
00000160: 7eb4 8b3d 5d70 eda7 a129 1da7 207e 36be
00000170: 0946 103d 449a 8abc 9bb1 c8a7 eb8a 2cbc
00000180: b75d 8cbb 9401 f7bb d8ac 313d 905f 98bb
00000190: 43dc e0b4 89eb e3a9 f57e 193d 789c 383c
000001a0: e06e 443d e830 67a8 d351 40bb 9852 033c
000001b0: 9818 dabd f9cf 6f3d fa7e 5f3b 6916 17bd
000001c0: 08f8 c63d 81f1 7aa9 4629 53ba 3920 853d
000001d0: 42a0 d3a8 ca59 7dbe a1b1 c4bc 0e17 1934
000001e0: 6b4c f1bd d672 23bc 6700 993c 6e6b 363d
000001f0: dc48 f5bb c59c 6ea8 dc92 8f3c a498 11a7
00000200: c811 2daf 8818 61aa df84 813c e100 133c
00000210: f5bc aabc 887b 25bc 74ab 3a27 b16a 1b3c
00000220: 2f54 56aa bfdb 85bd 9653 313d 3beb 72a7
00000230: 049c b4bc 5891 65be 311f 233d 2dbc 083d
00000240: 646c 45a9 16da 3ebe 53f7 0428 109d 49a8
00000250: 580a 0dbd 30a6 02be d45c 3abb e87c af3a
00000260: 0559 b1a7 7244 02bc c691 163c f545 c73d
00000270: 615f 98bc 6aa2 2627 1f86 d0a7 9aa3 af3d
00000280: 400d 30a8 ed19 1d3d d71e 903b 583d 183d
00000290: 8c27 6f3d a740 47a8 f2b8 953c 32cb 053d
000002a0: 21d8 963d 3d33 6a3b cd76 02bd 378d 9ebb
000002b0: 64bd cca7 81cd d6bc ccb0 5b3d 079e 91bd
000002c0: 1b9f 723b aff2 a8bd 276e 0f3d 8b13 30a9
000002d0: 0833 b8bc 0c2b 67be c62c 76bd b24f bdbc
000002e0: 7512 303b 0514 703c 2ccf d43b 4c33 403d
000002f0: 7fe3 b33d c733 093b 2892 e4bd 12c9 9b3d
00000300: 9248 e9a7 ac52 4f3c a69b c03c e4d8 a83b
00000310: 21ac a7bd 51cf b83b 5f62 a53d 102a 9aa8
00000320: e63a 6ea7 4e5a 6b3d 4e5f bdbc d728 ecbd
00000330: 0d58 8aa7 a938 8abd e1ef 843d b11d 9b3c
00000340: e290 d827 9db8 a03c 38ec 62be cb87 9cbb
00000350: 9cc4 29bc 56fd 44ae 664d 96bb a367 1da7
00000360: 204f 23a8 680f 8e3c 0197 6fa8 f59f 7cbe
00000370: c58b bfbc a4ce f227 b965 103d b178 8f3c
00000380: 7cbd fea7 1c93 2cbd b5f2 2cbd dcba 2c27
00000390: c53c 0127 7465 07bd 98b0 b326 feb3 66be
000003a0: ca71 49aa 8ac4 5927 e369 40be 2e63 003d
000003b0: 35be c6bb 6875 9d3c a22c 2d3c 9513 85a9
000003c0: 193e 2b3d 6582 1134 a811 b227 d212 21a9
000003d0: b128 593b 4e1f 843d 1ff8 d9bc 835c e93c
000003e0: f08a 9a3b 1423 99a9 03ad 29bd 7173 a7bc
000003f0: 35cc 2bbe 231d cd3b 3e27 4ba8 2163 c13c
-0.066545345 -2.1349335e-14 -4.782699e-15 -0.008558473 -0.017208518 -0.12999105 -0.025404248 8.449469e-15
-0.044893336 -1.1693888e-14 -0.002331994 -2.2078942e-13 0.024672138 -0.013651191 -1.92126e-14 -2.4556241e-09
-0.20748375 0.03044099 -0.030894268 -5.2215477e-15 0.020013105 0.027617399 -0.014335781 0.03269368
0.049826875 -0.014543445 -5.839647e-15 0.0069041373 -3.4047296e-15 -0.03102772 -0.0049160956 -0.012546155
-4.1482026e-14 0.002471052 0.0506717 0.026690453 -0.03708964 -0.002791829 -3.9647884e-15 -0.020694342
0.022648623 0.026954733 0.03478861 0.022832697 1.5345371e-15 0.0025874476 -0.018659629 -0.04893856
0.030338932 -4.9855875e-12 0.006793029 0.020240158 -1.2619219e-14 0.009569406 0.010221556 -0.010034665
-4.4235227e-12 -4.832751e-15 -0.14368117 -0.029086838 1.1457678e-15 0.0044288025 0.034534167 -1.2231373e-13
0.08330842 -0.015767746 -1.8809042e-13 -0.24608646 -8.308467e-16 -1.6573711e-13 0.013831412 0.022412175
0.0045923577 0.031443268 -0.17709984 -0.14065829 0.043076787 0.05921612 -1.0150155e-15 -0.023553278
0.0037602615 -0.008282308 0.05449893 -0.009686851 -0.13877697 0.00441952 -0.024759235 -2.2775466e-13
0.068215355 -6.590254e-15 -2.1810694e-15 -0.1782155 0.03522304 -0.016919263 -5.570371e-15 -0.0105311675
-0.0042836326 -0.00753803 0.043377727 -0.004650064 -4.1883513e-07 -1.0121684e-13 0.03747459 0.011267774
0.0479573 -1.2833681e-14 -0.0029345646 0.008015297 -0.10649222 0.058547948 0.0034102784 -0.036886606
0.09715277 -5.5720622e-14 -0.00080551615 0.065002866 -2.3495207e-14 -0.24741283 -0.024010481 1.4257623e-07
-0.11782154 -0.0099761095 0.01867695 0.044536047 -0.007485492 -1.3245648e-14 0.017526083 -2.020554e-15
-1.5740576e-10 -1.9992525e-13 0.015810428 0.0089723775 -0.020842055 -0.010100253 2.590563e-15 0.009485886
-1.9036225e-13 -0.06536054 0.043292604 -3.3711765e-15 -0.02204705 -0.22418725 0.03982467 0.033382583
-4.38368e-14 -0.1863788 7.381102e-15 -1.1191799e-14 -0.034433693 -0.12758708 -0.0028436678 0.0013388665
-4.9223884e-15 -0.007950889 0.0091900285 0.0973014 -0.018600168 2.3125173e-15 -5.787701e-15 0.085761264
-9.772836e-15 0.038354803 0.0043982076 0.037167877 0.058387324 -1.1060738e-14 0.018276665 0.032664485
0.07365442 0.0035736107 -0.03185158 -0.0048386115 -5.682671e-15 -0.026221039 0.053635404 -0.071102194
0.0037021104 -0.08249413 0.03501716 -3.90968e-14 -0.022485271 -0.22575015 -0.060101293 -0.02310929
0.002686647 0.0146532105 0.0064944234 0.04692392 0.08783626 0.0020935403 -0.111606896 0.076067105
-6.474917e-15 0.012653988 0.023511719 0.0051528085 -0.08187128 0.0056399484 0.080754034 -1.7115676e-14
-3.3061064e-15 0.057459168 -0.023116734 -0.11531227 -3.839816e-15 -0.06749088 0.06491066 0.018935056
6.0109126e-15 0.01961928 -0.22160423 -0.00477693 -0.010361817 -4.4790248e-11 -0.0045868633 -2.1844308e-15
-9.065475e-15 0.01734133 -1.3299909e-14 -0.24670394 -0.023382077 6.7392533e-15 0.03525326 0.017513605
-7.07046e-15 -0.042132482 -0.04222365 2.3971092e-15 1.793529e-15 -0.033055738 1.2468486e-15 -0.22529599
-1.7891865e-13 3.0221344e-15 -0.18790393 0.031344585 -0.006065155 0.019221023 0.010569723 -5.9097834e-14
0.041807268 1.3551615e-07 4.9424068e-15 -3.5765505e-14 0.0033135826 0.064512834 -0.026607571 0.028486496
0.0047162697 -6.80065e-14 -0.041424762 -0.020440789 -0.16777118 0.006259577 -1.1277273e-14 0.023606839

weight f4 [128, 256]
00000000: c0c2 44bc 6cc9 d727 6132 b3a7 e758 d63c
00000010: f0de d5bd 4750 87be 0ca9 b83c 279a 83a8
00000020: 4816 98bd f9c8 7c28 3175 f03c 4363 56aa
00000030: bf01 49bf e9b9 2f3d 007a 31a8 f54e 8534
00000040: 9780 3b3c 834a b7bc 0dac f33c 5370 3ea8
00000050: 7ab2 94c0 626e c2bd 232f 3cbd 2fbe ba3b
00000060: eddd a23d b4e2 d1bd 8605 04a8 1111 f03d
00000070: c810 4c27 d2c1 9bbc 1b67 29bd 91bd ea3d
00000080: b988 9429 be57 4dbd d779 803c 81b8 34bc
00000090: c3fb d43b ace1 3ebd e1be b326 0565 303d
000000a0: 3c0d edbb a2e6 9ebc 85a9 aebb b5ec 513c
000000b0: a3c8 cd28 389a 0a3d 76cf a73c ff49 113c
000000c0: 0e08 13be 9c2a 8cac 74a1 3abd 6a90 183d
000000d0: 58a3 e1a7 d966 9fbc 05e1 c8bc 7ef1 65bf
000000e0: dcb4 01ab 0435 9028 9125 de3e b623 b7bd
000000f0: 0334 c6a7 f41f b23c a1ff 583c c90c 45aa
00000100: 04c0 013d 3d94 f73c 7593 99aa 1ffd e53d
00000110: b57f dca6 61b6 98aa 84da b43d 5c8d d53c
00000120: 5738 833d 4618 0cbd 39ad cdbc 8ce6 553c
00000130: 05b8 233d dfc9 4d3c 2fe0 bb28 889d 863d
00000140: eeed c7bb 491b 12bb 5723 c33b ccdc 173c
00000150: a2fa a2bb 72f8 113b 5629 02bd 47a1 f7aa
00000160: 2479 ffbc 5f5d 9d27 3783 5028 0240 8ebd
00000170: bf27 8f3c 04d7 87bc ce14 9927 be3f 3ebc
00000180: 3269 26bd f8b1 0dbc a688 2d3d 0387 94bd
00000190: d1df c534 4c1c 2caa 7a2d ab3b 0a8d 0c3c
000001a0: e163 923c a5e5 d3a6 f215 02be 7a50 cabc
000001b0: 5112 223d 5713 6dbd 22f1 d83c 8abe 82bc
000001c0: 8452 b0bc 942d 9829 9406 ebbc 7163 c63c
000001d0: 48f5 7929 72d3 70be 22b4 1b3e ec1d 7db5
000001e0: 9ecf ac3c e5ca 063c 72b5 91bc 6819 1e3e
000001f0: c961 83bc 0407 9ea6 6eca 173d 1749 1d28
00000200: 5a91 272f 3bce 2fa9 2b5c d5bb 5165 44bd
00000210: 2f9a 89bd cee0 2ebc be4e 4a27 62d0 573c
00000220: deff 6728 5a71 fa3c 1777 e83c 0e42 f827
00000230: 90cc 1ebd d394 453d fb94 323d ef87 6bbd
00000240: 51af e6a9 db86 29bd da24 b528 a8c9 7ba8
00000250: 7e8e 8ebb f13c 6abe 176b c6bc d1e4 303c
00000260: a915 5e28 8c37 173e d28c 42be 809a 353e
00000270: 80dc e7bc 0e55 1828 7d1b 2527 cdd8 58bd
00000280: c86f c8a8 e478 a43d 0f97 cbbc 2622 d1bc
00000290: 1b68 48be 7ea8 1726 1e84 0ebd 5989 86bc
000002a0: a801 473d e798 533b 3ea4 7a3d 3ad9 423e
000002b0: 80d4 e526 f079 9abb 87f2 d83c d7d9 d23d
000002c0: 853c 33bc bf49 b03c d33f 3f3d 27f6 90a7
000002d0: 46b2 9cbe 4ed8 d5bd ec2f c13c 2e2a ba3b
000002e0: fd63 c53c 5e34 a9bc 3a92 bebb f9a9 24bc
000002f0: c9ea 653e 2a66 af3c f92f 543d c34d 98bd
00000300: 36ad 9428 811e 8bbd 1fff 853d 96e0 893c
00000310: fb0f 4c3b e2aa 8a3d c7c8 143f af63 a6a8
00000320: 6fdd 02a8 f189 ce3c bb0c 4ebc 5dc0 8dbc
00000330: 488d 6427 3387 9dbd 34d9 a3bd ae17 30ba
00000340: 8b00 c628 13e8 78be 2e1f 3fbd e200 c2be
00000350: 2083 8dbd 2e8f 4b2e 72d9 33bc c297 7827
00000360: edca b628 e966 e93c e75f b927 77e2 1fbc
00000370: 59ef 66bc e50d 1a28 c955 503c 10ef 8b3d
00000380: 18cf ea27 0090 74bd d6db 8fbd c094 aba8
00000390: 2fb0 1827 9d6e b0bd 3ede 0f29 ead4 14bd
000003a0: d80c 08aa a86e 6028 3825 4cbc 6cf1 573c
000003b0: 5049 14bc 3455 91be 8067 5abf 7754 2f29
000003c0: a770 f03d 70a5 9d35 4490 4aa7 b85a 2629
000003d0: 4a34 12bd 7740 cbbc 5b6f bfbc a2a1 7abf
000003e0: 58b9 733d 6165 dfa9 7fc5 c9bb 6926 f5bc
000003f0: f19f 72bc 257c 83bd adf7 5428 584e 13bd
-0.012009323 5.989287e-15 -4.97371e-15 0.026165439 -0.104429126 -0.26428434 0.022541545 -1.4610775e-14
-0.07426125 1.4032389e-14 0.029352756 -1.9041457e-13 -0.7851829 0.042901907 -9.851928e-15 2.483063e-07
0.011444232 -0.022374397 0.029745126 -1.0571475e-14 -4.6467867 -0.0949371 -0.04594339 0.005698941
0.07952485 -0.10248318 -7.32867e-15 0.11722005 2.8319784e-15 -0.01901332 -0.041358095 0.11461938
6.596238e-14 -0.050132506 0.015683098 -0.011030317 0.006499739 -0.046601936 1.2472358e-15 0.04306509
-0.0072342437 -0.019397084 -0.005330267 0.012812783 2.2846584e-14 0.03383848 0.020484667 0.00886774
-0.14358541 -3.98377e-12 -0.04556413 0.0372471 -6.2627143e-15 -0.019458221 -0.02452136 -0.8982161
-4.6081e-13 1.6010203e-14 0.43388036 -0.08942358 -5.501243e-15 0.021743752 0.01324454 -1.750155e-13
0.03167726 0.030222053 -2.7280579e-13 0.1122992 -1.5300182e-15 -2.7127175e-13 0.08830741 0.026068382
0.0640723 -0.034202836 -0.025107013 0.013055455 0.039970417 0.012560337 2.0858395e-14 0.065730155
-0.0061013615 -0.0022294095 0.0059551406 0.009268951 -0.0049737254 0.002227333 -0.031777702 -4.3987923e-13
-0.031185694 4.3677487e-15 1.1574772e-14 -0.06945802 0.017475007 -0.01658202 4.2488587e-15 -0.011611877
-0.040627666 -0.008648388 0.042366646 -0.07252314 3.6856957e-07 -1.5286486e-13 0.005223927 0.008578548
0.017869892 -1.4703311e-15 -0.12703684 -0.024696577 0.03956825 -0.057879772 0.026482169 -0.015959997
-0.021523722 6.7580625e-14 -0.02868966 0.02421734 5.5501854e-14 -0.2351816 0.15205434 -9.4293387e-07
0.021095093 0.008227085 -0.017786715 0.15439379 -0.016037839 -1.0965354e-15 0.037058286 8.7311e-15
1.5240201e-10 -3.9036682e-14 -0.0065112314 -0.047948185 -0.06718861 -0.010673715 2.8075818e-15 0.013172241
1.2878558e-14 0.030571628 0.028377099 6.8905444e-15 -0.038769305 0.048237633 0.04359911 -0.057502683
-1.02444644e-13 -0.041388374 2.0111019e-14 -1.3977026e-14 -0.0043504825 -0.2287481 -0.024220986 0.010796742
1.2328172e-14 0.14767283 -0.18999031 0.17734718 -0.028303385 8.456138e-15 2.2913251e-15 -0.052941132
-2.2252938e-14 0.080308706 -0.024852304 -0.025528979 -0.19570963 5.2617e-16 -0.034793966 -0.016422914
0.048585564 0.0032287182 0.06119179 0.19028178 1.5947665e-15 -0.004714243 0.026482834 0.10295456
-0.010939722 0.02151954 0.046691727 -4.0234908e-15 -0.30604762 -0.104416475 0.023582421 0.0056812977
0.02409553 -0.020654853 -0.0058157714 -0.01005029 0.22452845 0.02141102 0.051803563 -0.07436707
1.6506419e-14 -0.067929275 0.06542801 0.016830724 0.0031137455 0.067708746 0.5811886 -1.8472933e-14
-7.264465e-15 0.02521226 -0.012576277 -0.01730364 3.1717945e-15 -0.07691803 -0.080004126 -0.0006717396
2.1982651e-14 -0.2430728 -0.046660595 -0.378913 -0.06909776 4.6284025e-11 -0.010977136 3.4499182e-15
2.0294064e-14 0.028491454 5.1451792e-15 -0.009758583 -0.014095151 8.55173e-15 0.012715765 0.06832707
6.517258e-15 -0.05970764 -0.07024352 -1.9049324e-14 2.1189747e-15 -0.08614848 3.1945143e-14 -0.036335863
-1.2083683e-13 1.2458493e-14 -0.0124600455 0.013180118 -0.009050682 -0.28385317 -0.8531418 3.8931067e-14
0.11740237 1.174556e-06 -2.8111338e-15 3.693809e-14 -0.035694398 -0.024811013 -0.023368528 -0.9790288
0.05950293 -9.920776e-14 -0.0061575766 -0.029925542 -0.014808641 -0.06420163 1.182207e-14 -0.035963386

bias f4 [128]
00000000: 683d 833c bafe 15bd f7e1 a93c e2d0 4dbd
00000010: 4ff6 813d af17 7bbb 297d 713d 614c 49bd
00000020: b429 a63d 4910 50a8 a601 0e3d 9f86 ddbc
00000030: 6474 a33d 000b ac3d c4c1 b039 2f60 6dbd
00000040: a7a7 b8ba 066c 39bd 0350 bdbb efc1 f03c
00000050: e098 e1a7 b873 2c3d 9bd0 c7bd 9ead a3a8
00000060: 5707 39ac aa6e b43d 138b 273d c016 9ea8
00000070: c729 89bb c050 da3a bc50 bd3d 1613 8cbc
00000080: c6e5 aeba 9bed cc3c 3117 033d 6f56 fcbb
00000090: a6a4 8d3d 4981 913d 588b 823c 0e46 c13c
000000a0: 5256 d13c 45bf b93d 2cd6 c93b 3922 4cbd
000000b0: 1c2a 763d 69cc 7a3d edde b83d 75d6 a83d
000000c0: 9a19 4c3d f393 a9bc 972f ad3d 6e86 c43d
000000d0: 9ee0 353d b881 d2bc bf63 7b3d fd7d a9a8
000000e0: c2e6 ee3b 5402 073d 430f f7bb ae6b cc3d
000000f0: 1851 a83d 197b 653d be03 393d de62 713d
00000100: 68de 87bb 4880 e3bc 6fb2 db3b 74f0 6d3d
00000110: 2525 533d 0244 c43c 8b99 883d 11f7 86bd
00000120: 38dc 69bd d476 8d3d 2ccc 6fbc d8ee f4bd
00000130: 8c99 8f3d 9a4d 5c3d 75ed d83c 549c 2e3d
00000140: cdf8 4a3c 8b49 813d 5d6e c33d 3da1 b63d
00000150: e5e2 913b 0d03 b7bc b988 713b 7924 0abc
00000160: 8a49 3e3d a2ce 533c 27f7 5ba9 c5da 523d
00000170: c1e1 68ae 48fe 7dbd 9b8f 17bd e808 463d
00000180: 56ff 653d cf29 803d 8ef7 40bb 51cd 2abc
00000190: d779 5aac 47f9 e6ac 3c1b bf3d 9aec 41bd
000001a0: adea 1ebd be70 2abc 245e d7a8 a2a9 87bc
000001b0: ad6b 5bbd d22c f5bd 958e fe3b e383 123d
000001c0: f958 ba3d 3621 2fa9 1c38 42bd b60c 8e3d
000001d0: b386 9bbc a355 34bd 5beb 433d 5748 91bc
000001e0: 2be4 bbbc ec98 a9ba cefd d6bd 8ec2 ddbd
000001f0: 3d85 d7bc 2a61 80bc af56 29bc 1b2c 753d
0.016020492 -0.03661988 0.020737631 -0.050248034 0.06345808 -0.0038313677 0.058957253 -0.049145106
0.08113423 -1.1549851e-14 0.03466954 -0.027041731 0.07981184 0.084005356 0.00033713703 -0.057953056
-0.001408805 -0.045269035 -0.0057773604 0.02938935 -6.2615793e-15 0.042102545 -0.09756585 -1.817193e-14
-2.6294156e-12 0.0881017 0.040904116 -1.755139e-14 -0.0041858885 0.0016656145 0.092439145 -0.017098945
-0.0013343624 0.025015643 0.03200454 -0.0077007334 0.0691617 0.07104737 0.015935585 0.023592975
0.025553856 0.09069685 0.0061595645 -0.049837325 0.060098752 0.061230097 0.09026895 0.082440294
0.049829103 -0.02070043 0.08456343 0.09595953 0.044403665 -0.02569662 0.061374422 -1.8817408e-14
0.007290692 0.032961205 -0.007539661 0.09981476 0.082185924 0.0560256 0.045169584 0.058932178
-0.004146386 -0.02777113 0.0067046206 0.058090642 0.051549096 0.02395821 0.06669911 -0.06590093
-0.057094783 0.0690743 -0.014636081 -0.11959618 0.070117086 0.053784944 0.026480416 0.042629555
0.01238842 0.06312855 0.095425345 0.089174725 0.0044520968 -0.022340322 0.0036855175 -0.008431547
0.04645685 0.012927683 -4.884214e-14 0.051478166 -5.2951202e-11 -0.06201008 -0.037002187 0.048348337
0.05615171 0.06257974 -0.002944443 -0.010424928 -3.1047298e-12 -6.5646685e-12 0.093313664 -0.04734478
-0.038798023 -0.010402856 -2.3910622e-14 -0.01656038 -0.053569485 -0.119714394 0.007768462 0.03577031
0.090990014 -3.8886612e-14 -0.04741679 0.06936018 -0.018985128 -0.044026982 0.047831874 -0.01773469
-0.022935947 -0.0012939251 -0.10497628 -0.10828124 -0.02630865 -0.015671331 -0.010335608 0.059856515

weight f4 [12, 128]
00000000: 3c9b e03d 1fb4 84bd 926a cb3b 0012 61bc
00000010: 1a6d 343d b02e 19bd 6a55 26bd 168c dd3a
00000020: 5604 c6bc ad44 cb27 cb82 01be f5f1 0e3e
00000030: d498 a23c 7210 cdbb b5ba 41bc f77e ea3d
00000040: 72db 943d da23 363d 980b a63d 2512 653c
00000050: 1940 3728 d37f fbbc 4181 693c 3e81 2226
00000060: 48ae 4a2b 1f16 9a3c bfb0 5ebd cc3f 75a7
00000070: a75a 50bd 4046 d43a 8f4d b63c cf55 bebd
00000080: 0388 fcbc fc7a fd3b 8574 433d 72eb 793d
00000090: 7b41 0dbd 8a00 083d ae8d bb3d f4c3 e4bb
000000a0: 1eb6 ffba 3daf 043d 404a 0cbc 24bd 313d
000000b0: d16b 27bc 1675 38bb 8351 20bd ea49 9bbc
000000c0: 368c 883d 203d 25bc 0a5f e23c 2834 d2bc
000000d0: a468 75bc ac92 a83d 7fc7 3d3d 8f28 17a8
000000e0: fd01 0d3c 77e2 a0bd e3ec 3dbc 649c d5bc
000000f0: 1a87 af3b 055f bebc a177 ad3a e38d 21bd
00000100: 1a94 fabc f004 dcbd 9e16 263d 1f01 26bd
00000110: 6695 393d 24c9 02bd 170d 8abc e868 f13e
00000120: d3b6 993c 11f2 1b3d 592e 2bbb 151a b7be
00000130: 0f8b 12bd 5aad acbc d11f 6f3d f81a 703d
00000140: 26c1 78bd 1408 ffb9 57d9 acbd 4d22 13bd
00000150: f7f6 2f3b 9d95 87bb 080b 2c3d 3268 93bc
00000160: 0f58 e8bd e8fa 503d 5b26 6d28 6f8f 8d3c
00000170: b731 41ad 0958 4fbc 0fe9 193d 40d1 0ebd
00000180: daac 0ebd 1388 0fbd 842d 6bbd 2226 bebc
00000190: e86c 9eac 7e52 49ab 9c5c 433c ac63 e63d
000001a0: b083 a63c 4bae 6f3c 7128 3c27 21f0 e53d
000001b0: 32aa 5bbd 4419 c03e 1bc9 893d e42a b33b
000001c0: 50ca 7fbc 3ab7 4ea8 be31 2a3d dc4e 5f3d
000001d0: b54e 333c e508 593c 429c 28bd 206e 523c
000001e0: 3a82 3f3c d87c 563c 3184 913d 1a1e 383c
000001f0: d738 68bc 9a06 09bb f31b b33d 78ae 94bc
00000200: 0e49 5a3d d5bd 6fbd d589 aabd 8661 863c
00000210: 627f 803c d4b7 1b3d 66c8 383d fd23 0abd
00000220: 71c1 9d3d aaaf bca8 b2b4 aebc 5d1a d53c
00000230: 5b01 8e3c 1d5a 83bb e6e4 293c 29ff b2bd
00000240: 89a0 ee3c af47 54bd 95a7 e83c b228 30bc
00000250: 9c7b 19a9 a3af 633d 5350 623d 775d 93a8
00000260: 2ad9 26aa 60ff 463d bcae 70bd 1685 a9a6
00000270: c9d7 c6bc 6acd 413b af54 363c 5d6e 68bd
00000280: ec63 3cbd 2876 a5bd 6384 2fbd 59bd 533d
00000290: 8288 00bc 3e0e 9e3c 6133 5ebd f213 11bc
000002a0: 47d9 543d 39ba 4a3c 2698 963d 1dde bfbc
000002b0: 9e27 373d faee e53c 4f4d 0fbc 9993 753b
000002c0: 9356 be3c 3172 fe3d 613b 8cbb 3bc2 31bd
000002d0: 8616 ecbc 384e 1dbe df4a 8dbc 420c cf27
000002e0: 8fe0 56bc fa4c 66bd e85c 6bbd 74d6 5d3c
000002f0: c590 bc3c 5fe5 043d 1f7c 46bd b0db 163d
00000300: 3375 163c 9d2c 133e 5e69 4b3c c318 443d
00000310: 649a fc3c 21a7 c93d fbe6 f8bb b233 9dbe
00000320: ec85 91bc ead7 393d 739d 383c df37 a0be
00000330: 383b c93b 71f5 223d fc4d 74bd f17a 5a3d
00000340: 4987 b8bc dca8 a83c d9d4 f03c 26c7 f9bb
00000350: 1d00 91bc 0339 b03b 5e47 c3bd 999a 18bc
00000360: 9d5a df3d 6539 3cbd 3caf 84a7 a8f3 ac3d
00000370: 898a e6ad c532 f93d 92c4 85bd 9938 fe3c
00000380: 9c5a 24bd a9bd 9c3c d4ff 173c 8956 ccbb
00000390: c1cc 27ac ad06 09ab 932d bcbb 8a45 d9bd
000003a0: 730d 26bd 2b39 a53c b138 9aa5 0c7c 483d
000003b0: f361 91bc 4dfc a43e 857e 47bd b1b6 263c
000003c0: 642d aebc 903a 0928 a91b 55bd e1fe 183c
000003d0: 9c33 5bbb 2034 79bd 7dd1 fa3c cced 74bd
000003e0: 9ff4 293b 5399 30bb 2f00 48bb 6d12 dabd
000003f0: db22 c9bc 8683 983b 07ac 33bd e8f4 19bc
0.109671086 -0.06479668 0.0062077725 -0.013737202 0.04404936 -0.03739804 -0.0406088 0.0016902711
-0.02417199 5.6418277e-15 -0.1264755 0.13959487 0.019848265 -0.006258064 -0.0118243 0.11449998
0.07268418 0.044467784 0.0810768 0.013981377 1.017244e-14 -0.0307006 0.014252008 5.6380196e-16
7.200668e-13 0.018809376 -0.054367777 -3.4035164e-15 -0.050867703 0.0016195253 0.02225378 -0.092937104
-0.030826574 0.007735608 0.047718544 0.061015554 -0.034486275 0.03320364 0.09157883 -0.0069813672
-0.0019509231 0.032393683 -0.008562624 0.04339327 -0.0102185765 -0.002814596 -0.039140236 -0.018956143
0.06667368 -0.010085374 0.027633209 -0.025659636 -0.014978562 0.082311004 0.046332832 -8.390979e-15
0.008606431 -0.07855695 -0.011592123 -0.02607555 0.0053566815 -0.023238668 0.0013234505 -0.039441954
-0.030588198 -0.10743129 0.040548913 -0.040528413 0.045308493 -0.031930104 -0.016851945 0.4715035
0.018763935 0.03807265 -0.0026120155 -0.35762087 -0.035777148 -0.021078754 0.058379952 0.05861947
-0.060731076 -0.0004864341 -0.08439892 -0.035921384 0.0026850083 -0.0041377083 0.042002708 -0.01799402
-0.11344921 0.051020533 1.316446e-14 0.017280309 -1.0981819e-11 -0.012655267 0.037575778 -0.034867525
-0.034832813 -0.03504188 -0.057416454 -0.023211543 -4.502721e-12 -7.1524026e-13 0.011923935 0.1124948
0.020326465 0.014628957 2.6112164e-15 0.112274416 -0.053629108 0.37519276 0.06727811 0.0054677594
-0.0156122 -1.1475028e-14 0.041551344 0.054518566 0.010944058 0.0132467495 -0.041164644 0.012843639
0.011688763 0.0130912885 0.07105292 0.0112376455 -0.014173708 -0.0020908476 0.08745565 -0.0181496
0.053292327 -0.058530647 -0.083270706 0.016403925 0.01568574 0.03801711 0.04511299 -0.033725727
0.07702912 -2.0948375e-14 -0.021326397 0.026013548 0.01733463 -0.004008545 0.010369515 -0.08740074
0.029129284 -0.051826175 0.028400222 -0.01075189 -3.408004e-14 0.055587422 0.055252384 -1.6360812e-14
-1.4819106e-13 0.04858339 -0.05876039 -1.1762804e-15 -0.024272816 0.00295719 0.011128589 -0.056745876
-0.04599373 -0.08079177 -0.042850863 0.051694248 -0.007845046 0.0192939 -0.054248217 -0.008854853
0.051965024 0.0123735005 0.07353239 -0.023421342 0.044715516 0.028068054 -0.008746459 0.0037472008
0.023234641 0.12424124 -0.0042795395 -0.043398123 -0.028819334 -0.1536187 -0.017247615 5.746733e-15
-0.013115062 -0.056225754 -0.05746165 0.013539899 0.02301825 0.032445308 -0.048458215 0.036830604
0.009183216 0.14372487 0.012415258 0.047875177 0.030835338 0.098463304 -0.0075958944 -0.30703503
-0.017764054 0.045371927 0.011268008 -0.31292626 0.0061410926 0.039784852 -0.059644684 0.053339902
-0.022525446 0.02058833 0.029398369 -0.0076226173 -0.01770025 0.00537789 -0.095350966 -0.009314203
0.10905955 -0.045953173 -3.682735e-15 0.08444911 -2.6209495e-11 0.12167887 -0.065316334 0.031032847
-0.040125474 0.019133406 0.009277303 -0.0062359017 -2.3845789e-12 -4.868144e-13 -0.0057427376 -0.10608967
-0.04054017 0.020168861 -2.6753157e-16 0.048946425 -0.017746901 0.3222374 -0.048704643 0.010175393
-0.021261878 7.6177264e-15 -0.052028332 0.009338112 -0.003344751 -0.060840726 0.03061747 -0.059797093
0.002593316 -0.0026946857 -0.0030517688 -0.10648046 -0.024552753 0.0046543507 -0.04386523 -0.009396769

bias f4 [12]
00000000: fc65 38bd 5aaf 5e3d f136 1cbd 754a c33c
00000010: cd28 97bb 545e 25bb 5b6e 9ebd 8f06 c3bd
00000020: 9bf0 213d e404 fb3c 56ea 313d ca80 7b3d
-0.045019135 0.054366447 -0.038138334 0.023839215 -0.004613018 -0.0025233226 -0.077358924 -0.09522735
0.0395361 0.03064198 0.04343637 0.06140212

_mean f4 [48]
00000000: 8c4c d73e 23c6 2f3c f857 083d 50e8 de39
00000010: 926a e4ba 099e 54bc 9ef2 083c 36a5 6bbb
00000020: 096b 7ebf ad79 e43e 6f68 e8b9 7a2a 96b7
00000030: f710 f3bd 5cf4 273e 060a 2fbe 1382 d03d
00000040: a645 a7bd 79dc 03be 55fb bcbe cc3b d3be
00000050: fac4 793e 32e6 563e 38d0 7d3e eab6 9a3e
00000060: 7baf 01bc 3568 7e3c d506 b4bb 03fc 073c
00000070: 4d6d ae3c 30e2 993c 0cd8 4a3c 498c 383c
00000080: 0110 30bd cc7f 4cbd 771f 83bd acbc 6bbd
00000090: 0a9c 79bf d364 873f d7af 8cbf ad7e 683f
000000a0: 1e6c 53bf be19 7cbf 94ad fcbf 9c12 04c0
000000b0: 55cf 0540 2957 0940 412e 0440 6542 1540
0.42050588 0.010728392 0.03328702 0.00042516226 -0.001742678 -0.012977132 0.008358626 -0.0035956628
-0.9938207 0.4462408 -0.00044328297 -1.7901173e-05 -0.1186847 0.1640181 -0.17093667 0.1018106
-0.08167581 -0.12877072 -0.369105 -0.4125656 0.24391547 0.2098625 0.2478646 0.30217677
-0.007915373 0.015527775 -0.0054939785 0.00829983 0.021292353 0.018784612 0.012380611 0.011263915
-0.042984013 -0.049926564 -0.06402486 -0.05755298 -0.9750372 1.0577644 -1.0991162 0.9081829
-0.8258685 -0.9847678 -1.9740472 -2.0636358 2.0907795 2.1459448 2.065323 2.3321774

_std f4 [48]
00000000: ddef 9e3f cff4 403f a258 2c3e e228 873f
00000010: 19fe 2c3f fa39 603f 2571 253d fc04 353d
00000020: b0c9 ba3b 7789 b23f d0ea 513f 2ea6 8b3f
00000030: 8032 1f3e 284c 293e 62a0 1a3e 5d37 1b3e
00000040: 35d4 433e 3087 4b3e a6a5 843e 051a a03e
00000050: e6d0 8c3e 155b 8c3e 2578 773e 040c 853e
00000060: a9a9 1040 24de 0c40 9a1f 1540 a131 1640
00000070: b379 2340 9b9b 3140 7b78 4240 8dcb 4040
00000080: 0205 b540 a3c6 b740 1b37 9940 b043 9340
00000090: 3d17 8c3f 0200 803f 9374 813f e969 8e3f
000000a0: bf31 9c3f fa25 983f fcc8 9d3f 42f8 b63f
000000b0: 55d6 0340 fadb 0440 d985 f03f e3a1 eb3f
1.241695 0.7537355 0.16830686 1.0559351 0.6757522 0.87588465 0.040391106 0.044194207
0.0057003126 1.3948201 0.8199892 1.0910089 0.15546608 0.16532958 0.15100244 0.15157838
0.1912392 0.19875789 0.2590763 0.3126985 0.27503127 0.2741324 0.24166925 0.2598573
2.2603552 2.2010584 2.3300538 2.346779 2.554303 2.7751224 3.0386035 3.0124238
5.6568613 5.7429976 4.7879767 4.6020126 1.0944592 1.0000002 1.0113701 1.1126071
1.2202681 1.188659 1.232696 1.4294512 2.0599568 2.0759263 1.8790847 1.8408779
